<?xml version="1.0"?>
<net name="torch-jit-export" version="11">
	<layers>
		<layer id="39" name="input" type="Parameter" version="opset1">
			<data shape="1,128" element_type="f32" />
			<output>
				<port id="0" precision="FP32" names="input">
					<dim>1</dim>
					<dim>128</dim>
					<rt_info>
						<attribute name="layout" version="0" layout="[N,C]" />
					</rt_info>
				</port>
			</output>
		</layer>
		<layer id="38" name="inp_state_000" type="Parameter" version="opset1">
			<data shape="1,128" element_type="f32" />
			<output>
				<port id="0" precision="FP32" names="inp_state_000">
					<dim>1</dim>
					<dim>128</dim>
					<rt_info>
						<attribute name="layout" version="0" layout="[N,C]" />
					</rt_info>
				</port>
			</output>
		</layer>
		<layer id="37" name="inp_state_001" type="Parameter" version="opset1">
			<data shape="1,2,129,2" element_type="f32" />
			<output>
				<port id="0" precision="FP32" names="inp_state_001">
					<dim>1</dim>
					<dim>2</dim>
					<dim>129</dim>
					<dim>2</dim>
					<rt_info>
						<attribute name="layout" version="0" layout="[N,C,H,W]" />
					</rt_info>
				</port>
			</output>
		</layer>
		<layer id="36" name="inp_state_002" type="Parameter" version="opset1">
			<data shape="1,18,129,2" element_type="f32" />
			<output>
				<port id="0" precision="FP32" names="inp_state_002">
					<dim>1</dim>
					<dim>18</dim>
					<dim>129</dim>
					<dim>2</dim>
					<rt_info>
						<attribute name="layout" version="0" layout="[N,C,H,W]" />
					</rt_info>
				</port>
			</output>
		</layer>
		<layer id="35" name="inp_state_003" type="Parameter" version="opset1">
			<data shape="1,34,129,2" element_type="f32" />
			<output>
				<port id="0" precision="FP32" names="inp_state_003">
					<dim>1</dim>
					<dim>34</dim>
					<dim>129</dim>
					<dim>2</dim>
					<rt_info>
						<attribute name="layout" version="0" layout="[N,C,H,W]" />
					</rt_info>
				</port>
			</output>
		</layer>
		<layer id="34" name="inp_state_004" type="Parameter" version="opset1">
			<data shape="1,50,129,2" element_type="f32" />
			<output>
				<port id="0" precision="FP32" names="inp_state_004">
					<dim>1</dim>
					<dim>50</dim>
					<dim>129</dim>
					<dim>2</dim>
					<rt_info>
						<attribute name="layout" version="0" layout="[N,C,H,W]" />
					</rt_info>
				</port>
			</output>
		</layer>
		<layer id="33" name="inp_state_005" type="Parameter" version="opset1">
			<data shape="1,32,129,1" element_type="f32" />
			<output>
				<port id="0" precision="FP32" names="inp_state_005">
					<dim>1</dim>
					<dim>32</dim>
					<dim>129</dim>
					<dim>1</dim>
					<rt_info>
						<attribute name="layout" version="0" layout="[N,C,H,W]" />
					</rt_info>
				</port>
			</output>
		</layer>
		<layer id="32" name="inp_state_006" type="Parameter" version="opset1">
			<data shape="1,32,64,4" element_type="f32" />
			<output>
				<port id="0" precision="FP32" names="inp_state_006">
					<dim>1</dim>
					<dim>32</dim>
					<dim>64</dim>
					<dim>4</dim>
					<rt_info>
						<attribute name="layout" version="0" layout="[N,C,H,W]" />
					</rt_info>
				</port>
			</output>
		</layer>
		<layer id="31" name="inp_state_007" type="Parameter" version="opset1">
			<data shape="1,48,64,4" element_type="f32" />
			<output>
				<port id="0" precision="FP32" names="inp_state_007">
					<dim>1</dim>
					<dim>48</dim>
					<dim>64</dim>
					<dim>4</dim>
					<rt_info>
						<attribute name="layout" version="0" layout="[N,C,H,W]" />
					</rt_info>
				</port>
			</output>
		</layer>
		<layer id="30" name="inp_state_008" type="Parameter" version="opset1">
			<data shape="1,64,64,4" element_type="f32" />
			<output>
				<port id="0" precision="FP32" names="inp_state_008">
					<dim>1</dim>
					<dim>64</dim>
					<dim>64</dim>
					<dim>4</dim>
					<rt_info>
						<attribute name="layout" version="0" layout="[N,C,H,W]" />
					</rt_info>
				</port>
			</output>
		</layer>
		<layer id="29" name="inp_state_009" type="Parameter" version="opset1">
			<data shape="1,80,64,4" element_type="f32" />
			<output>
				<port id="0" precision="FP32" names="inp_state_009">
					<dim>1</dim>
					<dim>80</dim>
					<dim>64</dim>
					<dim>4</dim>
					<rt_info>
						<attribute name="layout" version="0" layout="[N,C,H,W]" />
					</rt_info>
				</port>
			</output>
		</layer>
		<layer id="28" name="inp_state_010" type="Parameter" version="opset1">
			<data shape="1,64,64,1" element_type="f32" />
			<output>
				<port id="0" precision="FP32" names="inp_state_010">
					<dim>1</dim>
					<dim>64</dim>
					<dim>64</dim>
					<dim>1</dim>
					<rt_info>
						<attribute name="layout" version="0" layout="[N,C,H,W]" />
					</rt_info>
				</port>
			</output>
		</layer>
		<layer id="27" name="inp_state_011" type="Parameter" version="opset1">
			<data shape="1,64,32,8" element_type="f32" />
			<output>
				<port id="0" precision="FP32" names="inp_state_011">
					<dim>1</dim>
					<dim>64</dim>
					<dim>32</dim>
					<dim>8</dim>
					<rt_info>
						<attribute name="layout" version="0" layout="[N,C,H,W]" />
					</rt_info>
				</port>
			</output>
		</layer>
		<layer id="26" name="inp_state_012" type="Parameter" version="opset1">
			<data shape="1,96,32,8" element_type="f32" />
			<output>
				<port id="0" precision="FP32" names="inp_state_012">
					<dim>1</dim>
					<dim>96</dim>
					<dim>32</dim>
					<dim>8</dim>
					<rt_info>
						<attribute name="layout" version="0" layout="[N,C,H,W]" />
					</rt_info>
				</port>
			</output>
		</layer>
		<layer id="25" name="inp_state_013" type="Parameter" version="opset1">
			<data shape="1,128,32,8" element_type="f32" />
			<output>
				<port id="0" precision="FP32" names="inp_state_013">
					<dim>1</dim>
					<dim>128</dim>
					<dim>32</dim>
					<dim>8</dim>
					<rt_info>
						<attribute name="layout" version="0" layout="[N,C,H,W]" />
					</rt_info>
				</port>
			</output>
		</layer>
		<layer id="24" name="inp_state_014" type="Parameter" version="opset1">
			<data shape="1,128,32,1" element_type="f32" />
			<output>
				<port id="0" precision="FP32" names="inp_state_014">
					<dim>1</dim>
					<dim>128</dim>
					<dim>32</dim>
					<dim>1</dim>
					<rt_info>
						<attribute name="layout" version="0" layout="[N,C,H,W]" />
					</rt_info>
				</port>
			</output>
		</layer>
		<layer id="23" name="inp_state_015" type="Parameter" version="opset1">
			<data shape="1,128,16,16" element_type="f32" />
			<output>
				<port id="0" precision="FP32" names="inp_state_015">
					<dim>1</dim>
					<dim>128</dim>
					<dim>16</dim>
					<dim>16</dim>
					<rt_info>
						<attribute name="layout" version="0" layout="[N,C,H,W]" />
					</rt_info>
				</port>
			</output>
		</layer>
		<layer id="22" name="inp_state_016" type="Parameter" version="opset1">
			<data shape="1,192,16,16" element_type="f32" />
			<output>
				<port id="0" precision="FP32" names="inp_state_016">
					<dim>1</dim>
					<dim>192</dim>
					<dim>16</dim>
					<dim>16</dim>
					<rt_info>
						<attribute name="layout" version="0" layout="[N,C,H,W]" />
					</rt_info>
				</port>
			</output>
		</layer>
		<layer id="21" name="inp_state_017" type="Parameter" version="opset1">
			<data shape="1,256,16,1" element_type="f32" />
			<output>
				<port id="0" precision="FP32" names="inp_state_017">
					<dim>1</dim>
					<dim>256</dim>
					<dim>16</dim>
					<dim>1</dim>
					<rt_info>
						<attribute name="layout" version="0" layout="[N,C,H,W]" />
					</rt_info>
				</port>
			</output>
		</layer>
		<layer id="20" name="inp_state_018" type="Parameter" version="opset1">
			<data shape="1,256,8,32" element_type="f32" />
			<output>
				<port id="0" precision="FP32" names="inp_state_018">
					<dim>1</dim>
					<dim>256</dim>
					<dim>8</dim>
					<dim>32</dim>
					<rt_info>
						<attribute name="layout" version="0" layout="[N,C,H,W]" />
					</rt_info>
				</port>
			</output>
		</layer>
		<layer id="19" name="inp_state_019" type="Parameter" version="opset1">
			<data shape="1,384,8,32" element_type="f32" />
			<output>
				<port id="0" precision="FP32" names="inp_state_019">
					<dim>1</dim>
					<dim>384</dim>
					<dim>8</dim>
					<dim>32</dim>
					<rt_info>
						<attribute name="layout" version="0" layout="[N,C,H,W]" />
					</rt_info>
				</port>
			</output>
		</layer>
		<layer id="18" name="inp_state_020" type="Parameter" version="opset1">
			<data shape="1,512,16,16" element_type="f32" />
			<output>
				<port id="0" precision="FP32" names="inp_state_020">
					<dim>1</dim>
					<dim>512</dim>
					<dim>16</dim>
					<dim>16</dim>
					<rt_info>
						<attribute name="layout" version="0" layout="[N,C,H,W]" />
					</rt_info>
				</port>
			</output>
		</layer>
		<layer id="17" name="inp_state_021" type="Parameter" version="opset1">
			<data shape="1,256,16,16" element_type="f32" />
			<output>
				<port id="0" precision="FP32" names="inp_state_021">
					<dim>1</dim>
					<dim>256</dim>
					<dim>16</dim>
					<dim>16</dim>
					<rt_info>
						<attribute name="layout" version="0" layout="[N,C,H,W]" />
					</rt_info>
				</port>
			</output>
		</layer>
		<layer id="16" name="inp_state_022" type="Parameter" version="opset1">
			<data shape="1,384,16,16" element_type="f32" />
			<output>
				<port id="0" precision="FP32" names="inp_state_022">
					<dim>1</dim>
					<dim>384</dim>
					<dim>16</dim>
					<dim>16</dim>
					<rt_info>
						<attribute name="layout" version="0" layout="[N,C,H,W]" />
					</rt_info>
				</port>
			</output>
		</layer>
		<layer id="15" name="inp_state_023" type="Parameter" version="opset1">
			<data shape="1,256,32,8" element_type="f32" />
			<output>
				<port id="0" precision="FP32" names="inp_state_023">
					<dim>1</dim>
					<dim>256</dim>
					<dim>32</dim>
					<dim>8</dim>
					<rt_info>
						<attribute name="layout" version="0" layout="[N,C,H,W]" />
					</rt_info>
				</port>
			</output>
		</layer>
		<layer id="14" name="inp_state_024" type="Parameter" version="opset1">
			<data shape="1,128,32,8" element_type="f32" />
			<output>
				<port id="0" precision="FP32" names="inp_state_024">
					<dim>1</dim>
					<dim>128</dim>
					<dim>32</dim>
					<dim>8</dim>
					<rt_info>
						<attribute name="layout" version="0" layout="[N,C,H,W]" />
					</rt_info>
				</port>
			</output>
		</layer>
		<layer id="13" name="inp_state_025" type="Parameter" version="opset1">
			<data shape="1,192,32,8" element_type="f32" />
			<output>
				<port id="0" precision="FP32" names="inp_state_025">
					<dim>1</dim>
					<dim>192</dim>
					<dim>32</dim>
					<dim>8</dim>
					<rt_info>
						<attribute name="layout" version="0" layout="[N,C,H,W]" />
					</rt_info>
				</port>
			</output>
		</layer>
		<layer id="12" name="inp_state_026" type="Parameter" version="opset1">
			<data shape="1,256,32,8" element_type="f32" />
			<output>
				<port id="0" precision="FP32" names="inp_state_026">
					<dim>1</dim>
					<dim>256</dim>
					<dim>32</dim>
					<dim>8</dim>
					<rt_info>
						<attribute name="layout" version="0" layout="[N,C,H,W]" />
					</rt_info>
				</port>
			</output>
		</layer>
		<layer id="11" name="inp_state_027" type="Parameter" version="opset1">
			<data shape="1,128,64,4" element_type="f32" />
			<output>
				<port id="0" precision="FP32" names="inp_state_027">
					<dim>1</dim>
					<dim>128</dim>
					<dim>64</dim>
					<dim>4</dim>
					<rt_info>
						<attribute name="layout" version="0" layout="[N,C,H,W]" />
					</rt_info>
				</port>
			</output>
		</layer>
		<layer id="10" name="inp_state_028" type="Parameter" version="opset1">
			<data shape="1,64,64,4" element_type="f32" />
			<output>
				<port id="0" precision="FP32" names="inp_state_028">
					<dim>1</dim>
					<dim>64</dim>
					<dim>64</dim>
					<dim>4</dim>
					<rt_info>
						<attribute name="layout" version="0" layout="[N,C,H,W]" />
					</rt_info>
				</port>
			</output>
		</layer>
		<layer id="9" name="inp_state_029" type="Parameter" version="opset1">
			<data shape="1,96,64,4" element_type="f32" />
			<output>
				<port id="0" precision="FP32" names="inp_state_029">
					<dim>1</dim>
					<dim>96</dim>
					<dim>64</dim>
					<dim>4</dim>
					<rt_info>
						<attribute name="layout" version="0" layout="[N,C,H,W]" />
					</rt_info>
				</port>
			</output>
		</layer>
		<layer id="8" name="inp_state_030" type="Parameter" version="opset1">
			<data shape="1,128,64,4" element_type="f32" />
			<output>
				<port id="0" precision="FP32" names="inp_state_030">
					<dim>1</dim>
					<dim>128</dim>
					<dim>64</dim>
					<dim>4</dim>
					<rt_info>
						<attribute name="layout" version="0" layout="[N,C,H,W]" />
					</rt_info>
				</port>
			</output>
		</layer>
		<layer id="7" name="inp_state_031" type="Parameter" version="opset1">
			<data shape="1,160,64,4" element_type="f32" />
			<output>
				<port id="0" precision="FP32" names="inp_state_031">
					<dim>1</dim>
					<dim>160</dim>
					<dim>64</dim>
					<dim>4</dim>
					<rt_info>
						<attribute name="layout" version="0" layout="[N,C,H,W]" />
					</rt_info>
				</port>
			</output>
		</layer>
		<layer id="6" name="inp_state_032" type="Parameter" version="opset1">
			<data shape="1,64,129,2" element_type="f32" />
			<output>
				<port id="0" precision="FP32" names="inp_state_032">
					<dim>1</dim>
					<dim>64</dim>
					<dim>129</dim>
					<dim>2</dim>
					<rt_info>
						<attribute name="layout" version="0" layout="[N,C,H,W]" />
					</rt_info>
				</port>
			</output>
		</layer>
		<layer id="5" name="inp_state_033" type="Parameter" version="opset1">
			<data shape="1,32,129,2" element_type="f32" />
			<output>
				<port id="0" precision="FP32" names="inp_state_033">
					<dim>1</dim>
					<dim>32</dim>
					<dim>129</dim>
					<dim>2</dim>
					<rt_info>
						<attribute name="layout" version="0" layout="[N,C,H,W]" />
					</rt_info>
				</port>
			</output>
		</layer>
		<layer id="4" name="inp_state_034" type="Parameter" version="opset1">
			<data shape="1,48,129,2" element_type="f32" />
			<output>
				<port id="0" precision="FP32" names="inp_state_034">
					<dim>1</dim>
					<dim>48</dim>
					<dim>129</dim>
					<dim>2</dim>
					<rt_info>
						<attribute name="layout" version="0" layout="[N,C,H,W]" />
					</rt_info>
				</port>
			</output>
		</layer>
		<layer id="3" name="inp_state_035" type="Parameter" version="opset1">
			<data shape="1,64,129,2" element_type="f32" />
			<output>
				<port id="0" precision="FP32" names="inp_state_035">
					<dim>1</dim>
					<dim>64</dim>
					<dim>129</dim>
					<dim>2</dim>
					<rt_info>
						<attribute name="layout" version="0" layout="[N,C,H,W]" />
					</rt_info>
				</port>
			</output>
		</layer>
		<layer id="2" name="inp_state_036" type="Parameter" version="opset1">
			<data shape="1,80,129,2" element_type="f32" />
			<output>
				<port id="0" precision="FP32" names="inp_state_036">
					<dim>1</dim>
					<dim>80</dim>
					<dim>129</dim>
					<dim>2</dim>
					<rt_info>
						<attribute name="layout" version="0" layout="[N,C,H,W]" />
					</rt_info>
				</port>
			</output>
		</layer>
		<layer id="1" name="inp_state_037" type="Parameter" version="opset1">
			<data shape="1,2,129,2" element_type="f32" />
			<output>
				<port id="0" precision="FP32" names="inp_state_037">
					<dim>1</dim>
					<dim>2</dim>
					<dim>129</dim>
					<dim>2</dim>
					<rt_info>
						<attribute name="layout" version="0" layout="[N,C,H,W]" />
					</rt_info>
				</port>
			</output>
		</layer>
		<layer id="0" name="inp_state_038" type="Parameter" version="opset1">
			<data shape="1,1,128" element_type="f32" />
			<output>
				<port id="0" precision="FP32" names="inp_state_038">
					<dim>1</dim>
					<dim>1</dim>
					<dim>128</dim>
					<rt_info>
						<attribute name="layout" version="0" layout="[N,H,W]" />
					</rt_info>
				</port>
			</output>
		</layer>
		<layer id="40" name="Concat_0" type="Concat" version="opset1">
			<data axis="1" />
			<input>
				<port id="0" precision="FP32">
					<dim>1</dim>
					<dim>128</dim>
				</port>
				<port id="1" precision="FP32">
					<dim>1</dim>
					<dim>128</dim>
				</port>
			</input>
			<output>
				<port id="2" precision="FP32" names="308">
					<dim>1</dim>
					<dim>256</dim>
				</port>
			</output>
		</layer>
		<layer id="41" name="Constant_425" type="Const" version="opset1">
			<data element_type="i64" shape="1" offset="0" size="8" />
			<output>
				<port id="0" precision="I64">
					<dim>1</dim>
				</port>
			</output>
		</layer>
		<layer id="42" name="Unsqueeze_12" type="Unsqueeze" version="opset1">
			<input>
				<port id="0" precision="FP32">
					<dim>1</dim>
					<dim>256</dim>
				</port>
				<port id="1" precision="I64">
					<dim>1</dim>
				</port>
			</input>
			<output>
				<port id="2" precision="FP32" names="322">
					<dim>1</dim>
					<dim>1</dim>
					<dim>256</dim>
				</port>
			</output>
		</layer>
		<layer id="43" name="Constant_427" type="Const" version="opset1">
			<data element_type="i64" shape="1" offset="8" size="8" />
			<output>
				<port id="0" precision="I64">
					<dim>1</dim>
				</port>
			</output>
		</layer>
		<layer id="44" name="Unsqueeze_13" type="Unsqueeze" version="opset1">
			<input>
				<port id="0" precision="FP32">
					<dim>1</dim>
					<dim>1</dim>
					<dim>256</dim>
				</port>
				<port id="1" precision="I64">
					<dim>1</dim>
				</port>
			</input>
			<output>
				<port id="2" precision="FP32" names="323">
					<dim>1</dim>
					<dim>1</dim>
					<dim>1</dim>
					<dim>256</dim>
				</port>
			</output>
		</layer>
		<layer id="45" name="_encdec_matrix" type="Const" version="opset1">
			<data element_type="f32" shape="258, 1, 1, 256" offset="16" size="264192" />
			<output>
				<port id="0" precision="FP32" names="_encdec_matrix">
					<dim>258</dim>
					<dim>1</dim>
					<dim>1</dim>
					<dim>256</dim>
				</port>
			</output>
		</layer>
		<layer id="46" name="Conv_14" type="Convolution" version="opset1">
			<data strides="128, 128" dilations="1, 1" pads_begin="0, 0" pads_end="0, 0" auto_pad="explicit" />
			<input>
				<port id="0" precision="FP32">
					<dim>1</dim>
					<dim>1</dim>
					<dim>1</dim>
					<dim>256</dim>
				</port>
				<port id="1" precision="FP32">
					<dim>258</dim>
					<dim>1</dim>
					<dim>1</dim>
					<dim>256</dim>
				</port>
			</input>
			<output>
				<port id="2" precision="FP32" names="324">
					<dim>1</dim>
					<dim>258</dim>
					<dim>1</dim>
					<dim>1</dim>
				</port>
			</output>
		</layer>
		<layer id="47" name="Constant_32519" type="Const" version="opset1">
			<data element_type="i64" shape="1" offset="264208" size="8" />
			<output>
				<port id="0" precision="I64">
					<dim>1</dim>
				</port>
			</output>
		</layer>
		<layer id="48" name="2102" type="Const" version="opset1">
			<data element_type="i64" shape="1" offset="8" size="8" />
			<output>
				<port id="0" precision="I64" names="2102">
					<dim>1</dim>
				</port>
			</output>
		</layer>
		<layer id="49" name="Shape_15" type="ShapeOf" version="opset3">
			<data output_type="i64" />
			<input>
				<port id="0" precision="FP32">
					<dim>1</dim>
					<dim>258</dim>
					<dim>1</dim>
					<dim>1</dim>
				</port>
			</input>
			<output>
				<port id="1" precision="I64" names="325,328,331">
					<dim>4</dim>
				</port>
			</output>
		</layer>
		<layer id="50" name="Constant_19" type="Const" version="opset1">
			<data element_type="i64" shape="" offset="0" size="8" />
			<output>
				<port id="0" precision="I64" names="329" />
			</output>
		</layer>
		<layer id="51" name="Constant_437" type="Const" version="opset1">
			<data element_type="i64" shape="" offset="264208" size="8" />
			<output>
				<port id="0" precision="I64" />
			</output>
		</layer>
		<layer id="52" name="Gather_20" type="Gather" version="opset8">
			<data batch_dims="0" />
			<input>
				<port id="0" precision="I64">
					<dim>4</dim>
				</port>
				<port id="1" precision="I64" />
				<port id="2" precision="I64" />
			</input>
			<output>
				<port id="3" precision="I64" names="330" />
			</output>
		</layer>
		<layer id="53" name="Constant_24" type="Const" version="opset1">
			<data element_type="i64" shape="" offset="8" size="8" />
			<output>
				<port id="0" precision="I64" names="334" />
			</output>
		</layer>
		<layer id="54" name="Div_25" type="Divide" version="opset1">
			<data auto_broadcast="numpy" m_pythondiv="true" />
			<input>
				<port id="0" precision="I64" />
				<port id="1" precision="I64" />
			</input>
			<output>
				<port id="2" precision="I64" names="335,336,337" />
			</output>
		</layer>
		<layer id="55" name="Constant_449" type="Const" version="opset1">
			<data element_type="i64" shape="1" offset="264208" size="8" />
			<output>
				<port id="0" precision="I64">
					<dim>1</dim>
				</port>
			</output>
		</layer>
		<layer id="56" name="Unsqueeze_29" type="Unsqueeze" version="opset1">
			<input>
				<port id="0" precision="I64" />
				<port id="1" precision="I64">
					<dim>1</dim>
				</port>
			</input>
			<output>
				<port id="2" precision="I64" names="341">
					<dim>1</dim>
				</port>
			</output>
		</layer>
		<layer id="57" name="Constant_32520" type="Const" version="opset1">
			<data element_type="i64" shape="1" offset="264208" size="8" />
			<output>
				<port id="0" precision="I64">
					<dim>1</dim>
				</port>
			</output>
		</layer>
		<layer id="58" name="Concat_31" type="Concat" version="opset1">
			<data axis="0" />
			<input>
				<port id="0" precision="I64">
					<dim>1</dim>
				</port>
				<port id="1" precision="I64">
					<dim>1</dim>
				</port>
				<port id="2" precision="I64">
					<dim>1</dim>
				</port>
				<port id="3" precision="I64">
					<dim>1</dim>
				</port>
			</input>
			<output>
				<port id="4" precision="I64">
					<dim>4</dim>
				</port>
			</output>
		</layer>
		<layer id="59" name="Reshape_32" type="Reshape" version="opset1">
			<data special_zero="true" />
			<input>
				<port id="0" precision="FP32">
					<dim>1</dim>
					<dim>258</dim>
					<dim>1</dim>
					<dim>1</dim>
				</port>
				<port id="1" precision="I64">
					<dim>4</dim>
				</port>
			</input>
			<output>
				<port id="2" precision="FP32" names="344">
					<dim>1</dim>
					<dim>2</dim>
					<dim>129</dim>
					<dim>1</dim>
				</port>
			</output>
		</layer>
		<layer id="60" name="Concat_1261" type="Concat" version="opset1">
			<data axis="3" />
			<input>
				<port id="0" precision="FP32">
					<dim>1</dim>
					<dim>2</dim>
					<dim>129</dim>
					<dim>2</dim>
				</port>
				<port id="1" precision="FP32">
					<dim>1</dim>
					<dim>2</dim>
					<dim>129</dim>
					<dim>1</dim>
				</port>
			</input>
			<output>
				<port id="2" precision="FP32" names="2035">
					<dim>1</dim>
					<dim>2</dim>
					<dim>129</dim>
					<dim>3</dim>
				</port>
			</output>
		</layer>
		<layer id="61" name="Constant_43762" type="Const" version="opset1">
			<data element_type="i64" shape="4" offset="264216" size="32" />
			<output>
				<port id="0" precision="I64">
					<dim>4</dim>
				</port>
			</output>
		</layer>
		<layer id="62" name="Constant_43763" type="Const" version="opset1">
			<data element_type="i64" shape="4" offset="264216" size="32" />
			<output>
				<port id="0" precision="I64">
					<dim>4</dim>
				</port>
			</output>
		</layer>
		<layer id="63" name="Constant_43759" type="Const" version="opset1">
			<data element_type="i64" shape="1" offset="264248" size="8" />
			<output>
				<port id="0" precision="I64">
					<dim>1</dim>
				</port>
			</output>
		</layer>
		<layer id="64" name="Shape_1262" type="ShapeOf" version="opset3">
			<data output_type="i64" />
			<input>
				<port id="0" precision="FP32">
					<dim>1</dim>
					<dim>2</dim>
					<dim>129</dim>
					<dim>3</dim>
				</port>
			</input>
			<output>
				<port id="1" precision="I64" names="2036">
					<dim>4</dim>
				</port>
			</output>
		</layer>
		<layer id="65" name="Constant_1263" type="Const" version="opset1">
			<data element_type="i64" shape="" offset="264248" size="8" />
			<output>
				<port id="0" precision="I64" names="2037" />
			</output>
		</layer>
		<layer id="66" name="Constant_3680" type="Const" version="opset1">
			<data element_type="i64" shape="" offset="264208" size="8" />
			<output>
				<port id="0" precision="I64" />
			</output>
		</layer>
		<layer id="67" name="Gather_1264" type="Gather" version="opset8">
			<data batch_dims="0" />
			<input>
				<port id="0" precision="I64">
					<dim>4</dim>
				</port>
				<port id="1" precision="I64" />
				<port id="2" precision="I64" />
			</input>
			<output>
				<port id="3" precision="I64" names="2038" />
			</output>
		</layer>
		<layer id="68" name="Constant_1265" type="Const" version="opset1">
			<data element_type="i64" shape="" offset="8" size="8" />
			<output>
				<port id="0" precision="I64" names="2039" />
			</output>
		</layer>
		<layer id="69" name="Sub_1266" type="Subtract" version="opset1">
			<data auto_broadcast="numpy" />
			<input>
				<port id="0" precision="I64" />
				<port id="1" precision="I64" />
			</input>
			<output>
				<port id="2" precision="I64" names="2040" />
			</output>
		</layer>
		<layer id="70" name="Constant_3684" type="Const" version="opset1">
			<data element_type="i64" shape="1" offset="264208" size="8" />
			<output>
				<port id="0" precision="I64">
					<dim>1</dim>
				</port>
			</output>
		</layer>
		<layer id="71" name="Unsqueeze_1267" type="Unsqueeze" version="opset1">
			<input>
				<port id="0" precision="I64" />
				<port id="1" precision="I64">
					<dim>1</dim>
				</port>
			</input>
			<output>
				<port id="2" precision="I64" names="2042,2047">
					<dim>1</dim>
				</port>
			</output>
		</layer>
		<layer id="72" name="Constant_43758" type="Const" version="opset1">
			<data element_type="i32" shape="1" offset="264256" size="4" />
			<output>
				<port id="0" precision="I32">
					<dim>1</dim>
				</port>
			</output>
		</layer>
		<layer id="73" name="ScatterUpdate_43764" type="ScatterUpdate" version="opset3">
			<input>
				<port id="0" precision="I64">
					<dim>4</dim>
				</port>
				<port id="1" precision="I64">
					<dim>1</dim>
				</port>
				<port id="2" precision="I64">
					<dim>1</dim>
				</port>
				<port id="3" precision="I32">
					<dim>1</dim>
				</port>
			</input>
			<output>
				<port id="4" precision="I64">
					<dim>4</dim>
				</port>
			</output>
		</layer>
		<layer id="74" name="Constant_43767" type="Const" version="opset1">
			<data element_type="i64" shape="4" offset="264260" size="32" />
			<output>
				<port id="0" precision="I64">
					<dim>4</dim>
				</port>
			</output>
		</layer>
		<layer id="75" name="Slice_1272" type="StridedSlice" version="opset1">
			<data begin_mask="1, 1, 1, 0" end_mask="1, 1, 1, 0" new_axis_mask="" shrink_axis_mask="" ellipsis_mask="" />
			<input>
				<port id="0" precision="FP32">
					<dim>1</dim>
					<dim>2</dim>
					<dim>129</dim>
					<dim>3</dim>
				</port>
				<port id="1" precision="I64">
					<dim>4</dim>
				</port>
				<port id="2" precision="I64">
					<dim>4</dim>
				</port>
				<port id="3" precision="I64">
					<dim>4</dim>
				</port>
			</input>
			<output>
				<port id="4" precision="FP32" names="2048">
					<dim>1</dim>
					<dim>2</dim>
					<dim>129</dim>
					<dim>1</dim>
				</port>
			</output>
		</layer>
		<layer id="76" name="Constant_1279" type="Const" version="opset1">
			<data element_type="i64" shape="" offset="264208" size="8" />
			<output>
				<port id="0" precision="I64" names="2055" />
			</output>
		</layer>
		<layer id="77" name="Constant_3718" type="Const" version="opset1">
			<data element_type="i64" shape="" offset="0" size="8" />
			<output>
				<port id="0" precision="I64" />
			</output>
		</layer>
		<layer id="78" name="Gather_1280" type="Gather" version="opset8">
			<data batch_dims="0" />
			<input>
				<port id="0" precision="FP32">
					<dim>1</dim>
					<dim>2</dim>
					<dim>129</dim>
					<dim>1</dim>
				</port>
				<port id="1" precision="I64" />
				<port id="2" precision="I64" />
			</input>
			<output>
				<port id="3" precision="FP32" names="2056">
					<dim>1</dim>
					<dim>129</dim>
					<dim>1</dim>
				</port>
			</output>
		</layer>
		<layer id="79" name="Constant_67172" type="Const" version="opset1">
			<data element_type="f32" shape="1, 2, 1, 1" offset="264292" size="8" />
			<output>
				<port id="0" precision="FP32">
					<dim>1</dim>
					<dim>2</dim>
					<dim>1</dim>
					<dim>1</dim>
				</port>
			</output>
		</layer>
		<layer id="80" name="Multiply_69552" type="Multiply" version="opset1">
			<data auto_broadcast="numpy" />
			<input>
				<port id="0" precision="FP32">
					<dim>1</dim>
					<dim>2</dim>
					<dim>129</dim>
					<dim>1</dim>
				</port>
				<port id="1" precision="FP32">
					<dim>1</dim>
					<dim>2</dim>
					<dim>1</dim>
					<dim>1</dim>
				</port>
			</input>
			<output>
				<port id="2" precision="FP32">
					<dim>1</dim>
					<dim>2</dim>
					<dim>129</dim>
					<dim>1</dim>
				</port>
			</output>
		</layer>
		<layer id="81" name="Constant_69557" type="Const" version="opset1">
			<data element_type="f32" shape="1, 2, 1, 1" offset="264300" size="8" />
			<output>
				<port id="0" precision="FP32">
					<dim>1</dim>
					<dim>2</dim>
					<dim>1</dim>
					<dim>1</dim>
				</port>
			</output>
		</layer>
		<layer id="82" name="BatchNormalization_33" type="Add" version="opset1">
			<data auto_broadcast="numpy" />
			<input>
				<port id="0" precision="FP32">
					<dim>1</dim>
					<dim>2</dim>
					<dim>129</dim>
					<dim>1</dim>
				</port>
				<port id="1" precision="FP32">
					<dim>1</dim>
					<dim>2</dim>
					<dim>1</dim>
					<dim>1</dim>
				</port>
			</input>
			<output>
				<port id="2" precision="FP32" names="345">
					<dim>1</dim>
					<dim>2</dim>
					<dim>129</dim>
					<dim>1</dim>
				</port>
			</output>
		</layer>
		<layer id="83" name="Constant_512" type="Const" version="opset1">
			<data element_type="f32" shape="1" offset="264308" size="4" />
			<output>
				<port id="0" precision="FP32">
					<dim>1</dim>
				</port>
			</output>
		</layer>
		<layer id="84" name="LeakyRelu_34" type="PReLU" version="opset1">
			<input>
				<port id="0" precision="FP32">
					<dim>1</dim>
					<dim>2</dim>
					<dim>129</dim>
					<dim>1</dim>
				</port>
				<port id="1" precision="FP32">
					<dim>1</dim>
				</port>
			</input>
			<output>
				<port id="2" precision="FP32" names="346">
					<dim>1</dim>
					<dim>2</dim>
					<dim>129</dim>
					<dim>1</dim>
				</port>
			</output>
		</layer>
		<layer id="85" name="Concat_35" type="Concat" version="opset1">
			<data axis="3" />
			<input>
				<port id="0" precision="FP32">
					<dim>1</dim>
					<dim>2</dim>
					<dim>129</dim>
					<dim>2</dim>
				</port>
				<port id="1" precision="FP32">
					<dim>1</dim>
					<dim>2</dim>
					<dim>129</dim>
					<dim>1</dim>
				</port>
			</input>
			<output>
				<port id="2" precision="FP32" names="347">
					<dim>1</dim>
					<dim>2</dim>
					<dim>129</dim>
					<dim>3</dim>
				</port>
			</output>
		</layer>
		<layer id="86" name="blocks_down.0.bd.0.conv.weight" type="Const" version="opset1">
			<data element_type="f32" shape="16, 2, 3, 3" offset="264312" size="1152" />
			<output>
				<port id="0" precision="FP32" names="blocks_down.0.bd.0.conv.weight">
					<dim>16</dim>
					<dim>2</dim>
					<dim>3</dim>
					<dim>3</dim>
				</port>
			</output>
		</layer>
		<layer id="87" name="Conv_62/WithoutBiases" type="Convolution" version="opset1">
			<data strides="1, 1" dilations="1, 1" pads_begin="1, 0" pads_end="1, 0" auto_pad="explicit" />
			<input>
				<port id="0" precision="FP32">
					<dim>1</dim>
					<dim>2</dim>
					<dim>129</dim>
					<dim>3</dim>
				</port>
				<port id="1" precision="FP32">
					<dim>16</dim>
					<dim>2</dim>
					<dim>3</dim>
					<dim>3</dim>
				</port>
			</input>
			<output>
				<port id="2" precision="FP32">
					<dim>1</dim>
					<dim>16</dim>
					<dim>129</dim>
					<dim>1</dim>
				</port>
			</output>
		</layer>
		<layer id="88" name="Reshape_585" type="Const" version="opset1">
			<data element_type="f32" shape="1, 16, 1, 1" offset="265464" size="64" />
			<output>
				<port id="0" precision="FP32">
					<dim>1</dim>
					<dim>16</dim>
					<dim>1</dim>
					<dim>1</dim>
				</port>
			</output>
		</layer>
		<layer id="89" name="Conv_62" type="Add" version="opset1">
			<data auto_broadcast="numpy" />
			<input>
				<port id="0" precision="FP32">
					<dim>1</dim>
					<dim>16</dim>
					<dim>129</dim>
					<dim>1</dim>
				</port>
				<port id="1" precision="FP32">
					<dim>1</dim>
					<dim>16</dim>
					<dim>1</dim>
					<dim>1</dim>
				</port>
			</input>
			<output>
				<port id="2" precision="FP32" names="385">
					<dim>1</dim>
					<dim>16</dim>
					<dim>129</dim>
					<dim>1</dim>
				</port>
			</output>
		</layer>
		<layer id="90" name="Concat_63" type="Concat" version="opset1">
			<data axis="1" />
			<input>
				<port id="0" precision="FP32">
					<dim>1</dim>
					<dim>2</dim>
					<dim>129</dim>
					<dim>1</dim>
				</port>
				<port id="1" precision="FP32">
					<dim>1</dim>
					<dim>16</dim>
					<dim>129</dim>
					<dim>1</dim>
				</port>
			</input>
			<output>
				<port id="2" precision="FP32" names="386">
					<dim>1</dim>
					<dim>18</dim>
					<dim>129</dim>
					<dim>1</dim>
				</port>
			</output>
		</layer>
		<layer id="91" name="Constant_67238" type="Const" version="opset1">
			<data element_type="f32" shape="1, 18, 1, 1" offset="265528" size="72" />
			<output>
				<port id="0" precision="FP32">
					<dim>1</dim>
					<dim>18</dim>
					<dim>1</dim>
					<dim>1</dim>
				</port>
			</output>
		</layer>
		<layer id="92" name="Multiply_69559" type="Multiply" version="opset1">
			<data auto_broadcast="numpy" />
			<input>
				<port id="0" precision="FP32">
					<dim>1</dim>
					<dim>18</dim>
					<dim>129</dim>
					<dim>1</dim>
				</port>
				<port id="1" precision="FP32">
					<dim>1</dim>
					<dim>18</dim>
					<dim>1</dim>
					<dim>1</dim>
				</port>
			</input>
			<output>
				<port id="2" precision="FP32">
					<dim>1</dim>
					<dim>18</dim>
					<dim>129</dim>
					<dim>1</dim>
				</port>
			</output>
		</layer>
		<layer id="93" name="Constant_69564" type="Const" version="opset1">
			<data element_type="f32" shape="1, 18, 1, 1" offset="265600" size="72" />
			<output>
				<port id="0" precision="FP32">
					<dim>1</dim>
					<dim>18</dim>
					<dim>1</dim>
					<dim>1</dim>
				</port>
			</output>
		</layer>
		<layer id="94" name="BatchNormalization_64" type="Add" version="opset1">
			<data auto_broadcast="numpy" />
			<input>
				<port id="0" precision="FP32">
					<dim>1</dim>
					<dim>18</dim>
					<dim>129</dim>
					<dim>1</dim>
				</port>
				<port id="1" precision="FP32">
					<dim>1</dim>
					<dim>18</dim>
					<dim>1</dim>
					<dim>1</dim>
				</port>
			</input>
			<output>
				<port id="2" precision="FP32" names="387">
					<dim>1</dim>
					<dim>18</dim>
					<dim>129</dim>
					<dim>1</dim>
				</port>
			</output>
		</layer>
		<layer id="95" name="Constant_591" type="Const" version="opset1">
			<data element_type="f32" shape="1" offset="264308" size="4" />
			<output>
				<port id="0" precision="FP32">
					<dim>1</dim>
				</port>
			</output>
		</layer>
		<layer id="96" name="LeakyRelu_65" type="PReLU" version="opset1">
			<input>
				<port id="0" precision="FP32">
					<dim>1</dim>
					<dim>18</dim>
					<dim>129</dim>
					<dim>1</dim>
				</port>
				<port id="1" precision="FP32">
					<dim>1</dim>
				</port>
			</input>
			<output>
				<port id="2" precision="FP32" names="388">
					<dim>1</dim>
					<dim>18</dim>
					<dim>129</dim>
					<dim>1</dim>
				</port>
			</output>
		</layer>
		<layer id="97" name="Concat_66" type="Concat" version="opset1">
			<data axis="3" />
			<input>
				<port id="0" precision="FP32">
					<dim>1</dim>
					<dim>18</dim>
					<dim>129</dim>
					<dim>2</dim>
				</port>
				<port id="1" precision="FP32">
					<dim>1</dim>
					<dim>18</dim>
					<dim>129</dim>
					<dim>1</dim>
				</port>
			</input>
			<output>
				<port id="2" precision="FP32" names="389">
					<dim>1</dim>
					<dim>18</dim>
					<dim>129</dim>
					<dim>3</dim>
				</port>
			</output>
		</layer>
		<layer id="98" name="blocks_down.0.bd.1.conv.weight" type="Const" version="opset1">
			<data element_type="f32" shape="16, 18, 3, 3" offset="265672" size="10368" />
			<output>
				<port id="0" precision="FP32" names="blocks_down.0.bd.1.conv.weight">
					<dim>16</dim>
					<dim>18</dim>
					<dim>3</dim>
					<dim>3</dim>
				</port>
			</output>
		</layer>
		<layer id="99" name="Conv_93/WithoutBiases" type="Convolution" version="opset1">
			<data strides="1, 1" dilations="1, 1" pads_begin="1, 0" pads_end="1, 0" auto_pad="explicit" />
			<input>
				<port id="0" precision="FP32">
					<dim>1</dim>
					<dim>18</dim>
					<dim>129</dim>
					<dim>3</dim>
				</port>
				<port id="1" precision="FP32">
					<dim>16</dim>
					<dim>18</dim>
					<dim>3</dim>
					<dim>3</dim>
				</port>
			</input>
			<output>
				<port id="2" precision="FP32">
					<dim>1</dim>
					<dim>16</dim>
					<dim>129</dim>
					<dim>1</dim>
				</port>
			</output>
		</layer>
		<layer id="100" name="Reshape_664" type="Const" version="opset1">
			<data element_type="f32" shape="1, 16, 1, 1" offset="276040" size="64" />
			<output>
				<port id="0" precision="FP32">
					<dim>1</dim>
					<dim>16</dim>
					<dim>1</dim>
					<dim>1</dim>
				</port>
			</output>
		</layer>
		<layer id="101" name="Conv_93" type="Add" version="opset1">
			<data auto_broadcast="numpy" />
			<input>
				<port id="0" precision="FP32">
					<dim>1</dim>
					<dim>16</dim>
					<dim>129</dim>
					<dim>1</dim>
				</port>
				<port id="1" precision="FP32">
					<dim>1</dim>
					<dim>16</dim>
					<dim>1</dim>
					<dim>1</dim>
				</port>
			</input>
			<output>
				<port id="2" precision="FP32" names="427">
					<dim>1</dim>
					<dim>16</dim>
					<dim>129</dim>
					<dim>1</dim>
				</port>
			</output>
		</layer>
		<layer id="102" name="Concat_94" type="Concat" version="opset1">
			<data axis="1" />
			<input>
				<port id="0" precision="FP32">
					<dim>1</dim>
					<dim>18</dim>
					<dim>129</dim>
					<dim>1</dim>
				</port>
				<port id="1" precision="FP32">
					<dim>1</dim>
					<dim>16</dim>
					<dim>129</dim>
					<dim>1</dim>
				</port>
			</input>
			<output>
				<port id="2" precision="FP32" names="428">
					<dim>1</dim>
					<dim>34</dim>
					<dim>129</dim>
					<dim>1</dim>
				</port>
			</output>
		</layer>
		<layer id="103" name="Constant_67304" type="Const" version="opset1">
			<data element_type="f32" shape="1, 34, 1, 1" offset="276104" size="136" />
			<output>
				<port id="0" precision="FP32">
					<dim>1</dim>
					<dim>34</dim>
					<dim>1</dim>
					<dim>1</dim>
				</port>
			</output>
		</layer>
		<layer id="104" name="Multiply_69566" type="Multiply" version="opset1">
			<data auto_broadcast="numpy" />
			<input>
				<port id="0" precision="FP32">
					<dim>1</dim>
					<dim>34</dim>
					<dim>129</dim>
					<dim>1</dim>
				</port>
				<port id="1" precision="FP32">
					<dim>1</dim>
					<dim>34</dim>
					<dim>1</dim>
					<dim>1</dim>
				</port>
			</input>
			<output>
				<port id="2" precision="FP32">
					<dim>1</dim>
					<dim>34</dim>
					<dim>129</dim>
					<dim>1</dim>
				</port>
			</output>
		</layer>
		<layer id="105" name="Constant_69571" type="Const" version="opset1">
			<data element_type="f32" shape="1, 34, 1, 1" offset="276240" size="136" />
			<output>
				<port id="0" precision="FP32">
					<dim>1</dim>
					<dim>34</dim>
					<dim>1</dim>
					<dim>1</dim>
				</port>
			</output>
		</layer>
		<layer id="106" name="BatchNormalization_95" type="Add" version="opset1">
			<data auto_broadcast="numpy" />
			<input>
				<port id="0" precision="FP32">
					<dim>1</dim>
					<dim>34</dim>
					<dim>129</dim>
					<dim>1</dim>
				</port>
				<port id="1" precision="FP32">
					<dim>1</dim>
					<dim>34</dim>
					<dim>1</dim>
					<dim>1</dim>
				</port>
			</input>
			<output>
				<port id="2" precision="FP32" names="429">
					<dim>1</dim>
					<dim>34</dim>
					<dim>129</dim>
					<dim>1</dim>
				</port>
			</output>
		</layer>
		<layer id="107" name="Constant_670" type="Const" version="opset1">
			<data element_type="f32" shape="1" offset="264308" size="4" />
			<output>
				<port id="0" precision="FP32">
					<dim>1</dim>
				</port>
			</output>
		</layer>
		<layer id="108" name="LeakyRelu_96" type="PReLU" version="opset1">
			<input>
				<port id="0" precision="FP32">
					<dim>1</dim>
					<dim>34</dim>
					<dim>129</dim>
					<dim>1</dim>
				</port>
				<port id="1" precision="FP32">
					<dim>1</dim>
				</port>
			</input>
			<output>
				<port id="2" precision="FP32" names="430">
					<dim>1</dim>
					<dim>34</dim>
					<dim>129</dim>
					<dim>1</dim>
				</port>
			</output>
		</layer>
		<layer id="109" name="Concat_97" type="Concat" version="opset1">
			<data axis="3" />
			<input>
				<port id="0" precision="FP32">
					<dim>1</dim>
					<dim>34</dim>
					<dim>129</dim>
					<dim>2</dim>
				</port>
				<port id="1" precision="FP32">
					<dim>1</dim>
					<dim>34</dim>
					<dim>129</dim>
					<dim>1</dim>
				</port>
			</input>
			<output>
				<port id="2" precision="FP32" names="431">
					<dim>1</dim>
					<dim>34</dim>
					<dim>129</dim>
					<dim>3</dim>
				</port>
			</output>
		</layer>
		<layer id="110" name="blocks_down.0.bd.2.conv.weight" type="Const" version="opset1">
			<data element_type="f32" shape="16, 34, 3, 3" offset="276376" size="19584" />
			<output>
				<port id="0" precision="FP32" names="blocks_down.0.bd.2.conv.weight">
					<dim>16</dim>
					<dim>34</dim>
					<dim>3</dim>
					<dim>3</dim>
				</port>
			</output>
		</layer>
		<layer id="111" name="Conv_124/WithoutBiases" type="Convolution" version="opset1">
			<data strides="1, 1" dilations="1, 1" pads_begin="1, 0" pads_end="1, 0" auto_pad="explicit" />
			<input>
				<port id="0" precision="FP32">
					<dim>1</dim>
					<dim>34</dim>
					<dim>129</dim>
					<dim>3</dim>
				</port>
				<port id="1" precision="FP32">
					<dim>16</dim>
					<dim>34</dim>
					<dim>3</dim>
					<dim>3</dim>
				</port>
			</input>
			<output>
				<port id="2" precision="FP32">
					<dim>1</dim>
					<dim>16</dim>
					<dim>129</dim>
					<dim>1</dim>
				</port>
			</output>
		</layer>
		<layer id="112" name="Reshape_743" type="Const" version="opset1">
			<data element_type="f32" shape="1, 16, 1, 1" offset="295960" size="64" />
			<output>
				<port id="0" precision="FP32">
					<dim>1</dim>
					<dim>16</dim>
					<dim>1</dim>
					<dim>1</dim>
				</port>
			</output>
		</layer>
		<layer id="113" name="Conv_124" type="Add" version="opset1">
			<data auto_broadcast="numpy" />
			<input>
				<port id="0" precision="FP32">
					<dim>1</dim>
					<dim>16</dim>
					<dim>129</dim>
					<dim>1</dim>
				</port>
				<port id="1" precision="FP32">
					<dim>1</dim>
					<dim>16</dim>
					<dim>1</dim>
					<dim>1</dim>
				</port>
			</input>
			<output>
				<port id="2" precision="FP32" names="469">
					<dim>1</dim>
					<dim>16</dim>
					<dim>129</dim>
					<dim>1</dim>
				</port>
			</output>
		</layer>
		<layer id="114" name="Concat_125" type="Concat" version="opset1">
			<data axis="1" />
			<input>
				<port id="0" precision="FP32">
					<dim>1</dim>
					<dim>34</dim>
					<dim>129</dim>
					<dim>1</dim>
				</port>
				<port id="1" precision="FP32">
					<dim>1</dim>
					<dim>16</dim>
					<dim>129</dim>
					<dim>1</dim>
				</port>
			</input>
			<output>
				<port id="2" precision="FP32" names="470">
					<dim>1</dim>
					<dim>50</dim>
					<dim>129</dim>
					<dim>1</dim>
				</port>
			</output>
		</layer>
		<layer id="115" name="Constant_67370" type="Const" version="opset1">
			<data element_type="f32" shape="1, 50, 1, 1" offset="296024" size="200" />
			<output>
				<port id="0" precision="FP32">
					<dim>1</dim>
					<dim>50</dim>
					<dim>1</dim>
					<dim>1</dim>
				</port>
			</output>
		</layer>
		<layer id="116" name="Multiply_69573" type="Multiply" version="opset1">
			<data auto_broadcast="numpy" />
			<input>
				<port id="0" precision="FP32">
					<dim>1</dim>
					<dim>50</dim>
					<dim>129</dim>
					<dim>1</dim>
				</port>
				<port id="1" precision="FP32">
					<dim>1</dim>
					<dim>50</dim>
					<dim>1</dim>
					<dim>1</dim>
				</port>
			</input>
			<output>
				<port id="2" precision="FP32">
					<dim>1</dim>
					<dim>50</dim>
					<dim>129</dim>
					<dim>1</dim>
				</port>
			</output>
		</layer>
		<layer id="117" name="Constant_69578" type="Const" version="opset1">
			<data element_type="f32" shape="1, 50, 1, 1" offset="296224" size="200" />
			<output>
				<port id="0" precision="FP32">
					<dim>1</dim>
					<dim>50</dim>
					<dim>1</dim>
					<dim>1</dim>
				</port>
			</output>
		</layer>
		<layer id="118" name="BatchNormalization_126" type="Add" version="opset1">
			<data auto_broadcast="numpy" />
			<input>
				<port id="0" precision="FP32">
					<dim>1</dim>
					<dim>50</dim>
					<dim>129</dim>
					<dim>1</dim>
				</port>
				<port id="1" precision="FP32">
					<dim>1</dim>
					<dim>50</dim>
					<dim>1</dim>
					<dim>1</dim>
				</port>
			</input>
			<output>
				<port id="2" precision="FP32" names="471">
					<dim>1</dim>
					<dim>50</dim>
					<dim>129</dim>
					<dim>1</dim>
				</port>
			</output>
		</layer>
		<layer id="119" name="Constant_749" type="Const" version="opset1">
			<data element_type="f32" shape="1" offset="264308" size="4" />
			<output>
				<port id="0" precision="FP32">
					<dim>1</dim>
				</port>
			</output>
		</layer>
		<layer id="120" name="LeakyRelu_127" type="PReLU" version="opset1">
			<input>
				<port id="0" precision="FP32">
					<dim>1</dim>
					<dim>50</dim>
					<dim>129</dim>
					<dim>1</dim>
				</port>
				<port id="1" precision="FP32">
					<dim>1</dim>
				</port>
			</input>
			<output>
				<port id="2" precision="FP32" names="472">
					<dim>1</dim>
					<dim>50</dim>
					<dim>129</dim>
					<dim>1</dim>
				</port>
			</output>
		</layer>
		<layer id="121" name="Concat_128" type="Concat" version="opset1">
			<data axis="3" />
			<input>
				<port id="0" precision="FP32">
					<dim>1</dim>
					<dim>50</dim>
					<dim>129</dim>
					<dim>2</dim>
				</port>
				<port id="1" precision="FP32">
					<dim>1</dim>
					<dim>50</dim>
					<dim>129</dim>
					<dim>1</dim>
				</port>
			</input>
			<output>
				<port id="2" precision="FP32" names="473">
					<dim>1</dim>
					<dim>50</dim>
					<dim>129</dim>
					<dim>3</dim>
				</port>
			</output>
		</layer>
		<layer id="122" name="blocks_down.0.bd.3.conv.weight" type="Const" version="opset1">
			<data element_type="f32" shape="16, 50, 3, 3" offset="296424" size="28800" />
			<output>
				<port id="0" precision="FP32" names="blocks_down.0.bd.3.conv.weight">
					<dim>16</dim>
					<dim>50</dim>
					<dim>3</dim>
					<dim>3</dim>
				</port>
			</output>
		</layer>
		<layer id="123" name="Conv_155/WithoutBiases" type="Convolution" version="opset1">
			<data strides="1, 1" dilations="1, 1" pads_begin="1, 0" pads_end="1, 0" auto_pad="explicit" />
			<input>
				<port id="0" precision="FP32">
					<dim>1</dim>
					<dim>50</dim>
					<dim>129</dim>
					<dim>3</dim>
				</port>
				<port id="1" precision="FP32">
					<dim>16</dim>
					<dim>50</dim>
					<dim>3</dim>
					<dim>3</dim>
				</port>
			</input>
			<output>
				<port id="2" precision="FP32">
					<dim>1</dim>
					<dim>16</dim>
					<dim>129</dim>
					<dim>1</dim>
				</port>
			</output>
		</layer>
		<layer id="124" name="Reshape_822" type="Const" version="opset1">
			<data element_type="f32" shape="1, 16, 1, 1" offset="325224" size="64" />
			<output>
				<port id="0" precision="FP32">
					<dim>1</dim>
					<dim>16</dim>
					<dim>1</dim>
					<dim>1</dim>
				</port>
			</output>
		</layer>
		<layer id="125" name="Conv_155" type="Add" version="opset1">
			<data auto_broadcast="numpy" />
			<input>
				<port id="0" precision="FP32">
					<dim>1</dim>
					<dim>16</dim>
					<dim>129</dim>
					<dim>1</dim>
				</port>
				<port id="1" precision="FP32">
					<dim>1</dim>
					<dim>16</dim>
					<dim>1</dim>
					<dim>1</dim>
				</port>
			</input>
			<output>
				<port id="2" precision="FP32" names="511">
					<dim>1</dim>
					<dim>16</dim>
					<dim>129</dim>
					<dim>1</dim>
				</port>
			</output>
		</layer>
		<layer id="126" name="Concat_156" type="Concat" version="opset1">
			<data axis="1" />
			<input>
				<port id="0" precision="FP32">
					<dim>1</dim>
					<dim>50</dim>
					<dim>129</dim>
					<dim>1</dim>
				</port>
				<port id="1" precision="FP32">
					<dim>1</dim>
					<dim>16</dim>
					<dim>129</dim>
					<dim>1</dim>
				</port>
			</input>
			<output>
				<port id="2" precision="FP32" names="512">
					<dim>1</dim>
					<dim>66</dim>
					<dim>129</dim>
					<dim>1</dim>
				</port>
			</output>
		</layer>
		<layer id="127" name="Constant_67436" type="Const" version="opset1">
			<data element_type="f32" shape="1, 66, 1, 1" offset="325288" size="264" />
			<output>
				<port id="0" precision="FP32">
					<dim>1</dim>
					<dim>66</dim>
					<dim>1</dim>
					<dim>1</dim>
				</port>
			</output>
		</layer>
		<layer id="128" name="Multiply_69580" type="Multiply" version="opset1">
			<data auto_broadcast="numpy" />
			<input>
				<port id="0" precision="FP32">
					<dim>1</dim>
					<dim>66</dim>
					<dim>129</dim>
					<dim>1</dim>
				</port>
				<port id="1" precision="FP32">
					<dim>1</dim>
					<dim>66</dim>
					<dim>1</dim>
					<dim>1</dim>
				</port>
			</input>
			<output>
				<port id="2" precision="FP32">
					<dim>1</dim>
					<dim>66</dim>
					<dim>129</dim>
					<dim>1</dim>
				</port>
			</output>
		</layer>
		<layer id="129" name="Constant_69585" type="Const" version="opset1">
			<data element_type="f32" shape="1, 66, 1, 1" offset="325552" size="264" />
			<output>
				<port id="0" precision="FP32">
					<dim>1</dim>
					<dim>66</dim>
					<dim>1</dim>
					<dim>1</dim>
				</port>
			</output>
		</layer>
		<layer id="130" name="BatchNormalization_157" type="Add" version="opset1">
			<data auto_broadcast="numpy" />
			<input>
				<port id="0" precision="FP32">
					<dim>1</dim>
					<dim>66</dim>
					<dim>129</dim>
					<dim>1</dim>
				</port>
				<port id="1" precision="FP32">
					<dim>1</dim>
					<dim>66</dim>
					<dim>1</dim>
					<dim>1</dim>
				</port>
			</input>
			<output>
				<port id="2" precision="FP32" names="513">
					<dim>1</dim>
					<dim>66</dim>
					<dim>129</dim>
					<dim>1</dim>
				</port>
			</output>
		</layer>
		<layer id="131" name="Constant_828" type="Const" version="opset1">
			<data element_type="f32" shape="1" offset="264308" size="4" />
			<output>
				<port id="0" precision="FP32">
					<dim>1</dim>
				</port>
			</output>
		</layer>
		<layer id="132" name="LeakyRelu_158" type="PReLU" version="opset1">
			<input>
				<port id="0" precision="FP32">
					<dim>1</dim>
					<dim>66</dim>
					<dim>129</dim>
					<dim>1</dim>
				</port>
				<port id="1" precision="FP32">
					<dim>1</dim>
				</port>
			</input>
			<output>
				<port id="2" precision="FP32" names="514,538">
					<dim>1</dim>
					<dim>66</dim>
					<dim>129</dim>
					<dim>1</dim>
				</port>
			</output>
		</layer>
		<layer id="133" name="blocks_down.0.bd_out.conv.weight" type="Const" version="opset1">
			<data element_type="f32" shape="32, 66, 1, 1" offset="325816" size="8448" />
			<output>
				<port id="0" precision="FP32" names="blocks_down.0.bd_out.conv.weight">
					<dim>32</dim>
					<dim>66</dim>
					<dim>1</dim>
					<dim>1</dim>
				</port>
			</output>
		</layer>
		<layer id="134" name="Conv_174/WithoutBiases" type="Convolution" version="opset1">
			<data strides="1, 1" dilations="1, 1" pads_begin="0, 0" pads_end="0, 0" auto_pad="explicit" />
			<input>
				<port id="0" precision="FP32">
					<dim>1</dim>
					<dim>66</dim>
					<dim>129</dim>
					<dim>1</dim>
				</port>
				<port id="1" precision="FP32">
					<dim>32</dim>
					<dim>66</dim>
					<dim>1</dim>
					<dim>1</dim>
				</port>
			</input>
			<output>
				<port id="2" precision="FP32">
					<dim>1</dim>
					<dim>32</dim>
					<dim>129</dim>
					<dim>1</dim>
				</port>
			</output>
		</layer>
		<layer id="135" name="Reshape_877" type="Const" version="opset1">
			<data element_type="f32" shape="1, 32, 1, 1" offset="334264" size="128" />
			<output>
				<port id="0" precision="FP32">
					<dim>1</dim>
					<dim>32</dim>
					<dim>1</dim>
					<dim>1</dim>
				</port>
			</output>
		</layer>
		<layer id="136" name="Conv_174" type="Add" version="opset1">
			<data auto_broadcast="numpy" />
			<input>
				<port id="0" precision="FP32">
					<dim>1</dim>
					<dim>32</dim>
					<dim>129</dim>
					<dim>1</dim>
				</port>
				<port id="1" precision="FP32">
					<dim>1</dim>
					<dim>32</dim>
					<dim>1</dim>
					<dim>1</dim>
				</port>
			</input>
			<output>
				<port id="2" precision="FP32" names="539">
					<dim>1</dim>
					<dim>32</dim>
					<dim>129</dim>
					<dim>1</dim>
				</port>
			</output>
		</layer>
		<layer id="137" name="Concat_175" type="Concat" version="opset1">
			<data axis="3" />
			<input>
				<port id="0" precision="FP32">
					<dim>1</dim>
					<dim>32</dim>
					<dim>129</dim>
					<dim>1</dim>
				</port>
				<port id="1" precision="FP32">
					<dim>1</dim>
					<dim>32</dim>
					<dim>129</dim>
					<dim>1</dim>
				</port>
			</input>
			<output>
				<port id="2" precision="FP32" names="540,555">
					<dim>1</dim>
					<dim>32</dim>
					<dim>129</dim>
					<dim>2</dim>
				</port>
			</output>
		</layer>
		<layer id="138" name="AveragePool_189" type="AvgPool" version="opset1">
			<data kernel="2, 2" strides="2, 1" pads_begin="0, 0" pads_end="0, 0" exclude-pad="true" auto_pad="explicit" rounding_type="floor" />
			<input>
				<port id="0" precision="FP32">
					<dim>1</dim>
					<dim>32</dim>
					<dim>129</dim>
					<dim>2</dim>
				</port>
			</input>
			<output>
				<port id="1" precision="FP32" names="556">
					<dim>1</dim>
					<dim>32</dim>
					<dim>64</dim>
					<dim>1</dim>
				</port>
			</output>
		</layer>
		<layer id="139" name="Constant_67502" type="Const" version="opset1">
			<data element_type="f32" shape="1, 32, 1, 1" offset="334392" size="128" />
			<output>
				<port id="0" precision="FP32">
					<dim>1</dim>
					<dim>32</dim>
					<dim>1</dim>
					<dim>1</dim>
				</port>
			</output>
		</layer>
		<layer id="140" name="Multiply_69587" type="Multiply" version="opset1">
			<data auto_broadcast="numpy" />
			<input>
				<port id="0" precision="FP32">
					<dim>1</dim>
					<dim>32</dim>
					<dim>64</dim>
					<dim>1</dim>
				</port>
				<port id="1" precision="FP32">
					<dim>1</dim>
					<dim>32</dim>
					<dim>1</dim>
					<dim>1</dim>
				</port>
			</input>
			<output>
				<port id="2" precision="FP32">
					<dim>1</dim>
					<dim>32</dim>
					<dim>64</dim>
					<dim>1</dim>
				</port>
			</output>
		</layer>
		<layer id="141" name="Constant_69592" type="Const" version="opset1">
			<data element_type="f32" shape="1, 32, 1, 1" offset="334520" size="128" />
			<output>
				<port id="0" precision="FP32">
					<dim>1</dim>
					<dim>32</dim>
					<dim>1</dim>
					<dim>1</dim>
				</port>
			</output>
		</layer>
		<layer id="142" name="BatchNormalization_190" type="Add" version="opset1">
			<data auto_broadcast="numpy" />
			<input>
				<port id="0" precision="FP32">
					<dim>1</dim>
					<dim>32</dim>
					<dim>64</dim>
					<dim>1</dim>
				</port>
				<port id="1" precision="FP32">
					<dim>1</dim>
					<dim>32</dim>
					<dim>1</dim>
					<dim>1</dim>
				</port>
			</input>
			<output>
				<port id="2" precision="FP32" names="557">
					<dim>1</dim>
					<dim>32</dim>
					<dim>64</dim>
					<dim>1</dim>
				</port>
			</output>
		</layer>
		<layer id="143" name="Constant_912" type="Const" version="opset1">
			<data element_type="f32" shape="1" offset="264308" size="4" />
			<output>
				<port id="0" precision="FP32">
					<dim>1</dim>
				</port>
			</output>
		</layer>
		<layer id="144" name="LeakyRelu_191" type="PReLU" version="opset1">
			<input>
				<port id="0" precision="FP32">
					<dim>1</dim>
					<dim>32</dim>
					<dim>64</dim>
					<dim>1</dim>
				</port>
				<port id="1" precision="FP32">
					<dim>1</dim>
				</port>
			</input>
			<output>
				<port id="2" precision="FP32" names="558">
					<dim>1</dim>
					<dim>32</dim>
					<dim>64</dim>
					<dim>1</dim>
				</port>
			</output>
		</layer>
		<layer id="145" name="Concat_192" type="Concat" version="opset1">
			<data axis="3" />
			<input>
				<port id="0" precision="FP32">
					<dim>1</dim>
					<dim>32</dim>
					<dim>64</dim>
					<dim>4</dim>
				</port>
				<port id="1" precision="FP32">
					<dim>1</dim>
					<dim>32</dim>
					<dim>64</dim>
					<dim>1</dim>
				</port>
			</input>
			<output>
				<port id="2" precision="FP32" names="559">
					<dim>1</dim>
					<dim>32</dim>
					<dim>64</dim>
					<dim>5</dim>
				</port>
			</output>
		</layer>
		<layer id="146" name="blocks_down.1.bd.0.conv.weight" type="Const" version="opset1">
			<data element_type="f32" shape="16, 32, 3, 3" offset="334648" size="18432" />
			<output>
				<port id="0" precision="FP32" names="blocks_down.1.bd.0.conv.weight">
					<dim>16</dim>
					<dim>32</dim>
					<dim>3</dim>
					<dim>3</dim>
				</port>
			</output>
		</layer>
		<layer id="147" name="Conv_219/WithoutBiases" type="Convolution" version="opset1">
			<data strides="1, 1" dilations="1, 2" pads_begin="1, 0" pads_end="1, 0" auto_pad="explicit" />
			<input>
				<port id="0" precision="FP32">
					<dim>1</dim>
					<dim>32</dim>
					<dim>64</dim>
					<dim>5</dim>
				</port>
				<port id="1" precision="FP32">
					<dim>16</dim>
					<dim>32</dim>
					<dim>3</dim>
					<dim>3</dim>
				</port>
			</input>
			<output>
				<port id="2" precision="FP32">
					<dim>1</dim>
					<dim>16</dim>
					<dim>64</dim>
					<dim>1</dim>
				</port>
			</output>
		</layer>
		<layer id="148" name="Reshape_985" type="Const" version="opset1">
			<data element_type="f32" shape="1, 16, 1, 1" offset="353080" size="64" />
			<output>
				<port id="0" precision="FP32">
					<dim>1</dim>
					<dim>16</dim>
					<dim>1</dim>
					<dim>1</dim>
				</port>
			</output>
		</layer>
		<layer id="149" name="Conv_219" type="Add" version="opset1">
			<data auto_broadcast="numpy" />
			<input>
				<port id="0" precision="FP32">
					<dim>1</dim>
					<dim>16</dim>
					<dim>64</dim>
					<dim>1</dim>
				</port>
				<port id="1" precision="FP32">
					<dim>1</dim>
					<dim>16</dim>
					<dim>1</dim>
					<dim>1</dim>
				</port>
			</input>
			<output>
				<port id="2" precision="FP32" names="597">
					<dim>1</dim>
					<dim>16</dim>
					<dim>64</dim>
					<dim>1</dim>
				</port>
			</output>
		</layer>
		<layer id="150" name="Concat_220" type="Concat" version="opset1">
			<data axis="1" />
			<input>
				<port id="0" precision="FP32">
					<dim>1</dim>
					<dim>32</dim>
					<dim>64</dim>
					<dim>1</dim>
				</port>
				<port id="1" precision="FP32">
					<dim>1</dim>
					<dim>16</dim>
					<dim>64</dim>
					<dim>1</dim>
				</port>
			</input>
			<output>
				<port id="2" precision="FP32" names="598">
					<dim>1</dim>
					<dim>48</dim>
					<dim>64</dim>
					<dim>1</dim>
				</port>
			</output>
		</layer>
		<layer id="151" name="Constant_67568" type="Const" version="opset1">
			<data element_type="f32" shape="1, 48, 1, 1" offset="353144" size="192" />
			<output>
				<port id="0" precision="FP32">
					<dim>1</dim>
					<dim>48</dim>
					<dim>1</dim>
					<dim>1</dim>
				</port>
			</output>
		</layer>
		<layer id="152" name="Multiply_69594" type="Multiply" version="opset1">
			<data auto_broadcast="numpy" />
			<input>
				<port id="0" precision="FP32">
					<dim>1</dim>
					<dim>48</dim>
					<dim>64</dim>
					<dim>1</dim>
				</port>
				<port id="1" precision="FP32">
					<dim>1</dim>
					<dim>48</dim>
					<dim>1</dim>
					<dim>1</dim>
				</port>
			</input>
			<output>
				<port id="2" precision="FP32">
					<dim>1</dim>
					<dim>48</dim>
					<dim>64</dim>
					<dim>1</dim>
				</port>
			</output>
		</layer>
		<layer id="153" name="Constant_69599" type="Const" version="opset1">
			<data element_type="f32" shape="1, 48, 1, 1" offset="353336" size="192" />
			<output>
				<port id="0" precision="FP32">
					<dim>1</dim>
					<dim>48</dim>
					<dim>1</dim>
					<dim>1</dim>
				</port>
			</output>
		</layer>
		<layer id="154" name="BatchNormalization_221" type="Add" version="opset1">
			<data auto_broadcast="numpy" />
			<input>
				<port id="0" precision="FP32">
					<dim>1</dim>
					<dim>48</dim>
					<dim>64</dim>
					<dim>1</dim>
				</port>
				<port id="1" precision="FP32">
					<dim>1</dim>
					<dim>48</dim>
					<dim>1</dim>
					<dim>1</dim>
				</port>
			</input>
			<output>
				<port id="2" precision="FP32" names="599">
					<dim>1</dim>
					<dim>48</dim>
					<dim>64</dim>
					<dim>1</dim>
				</port>
			</output>
		</layer>
		<layer id="155" name="Constant_991" type="Const" version="opset1">
			<data element_type="f32" shape="1" offset="264308" size="4" />
			<output>
				<port id="0" precision="FP32">
					<dim>1</dim>
				</port>
			</output>
		</layer>
		<layer id="156" name="LeakyRelu_222" type="PReLU" version="opset1">
			<input>
				<port id="0" precision="FP32">
					<dim>1</dim>
					<dim>48</dim>
					<dim>64</dim>
					<dim>1</dim>
				</port>
				<port id="1" precision="FP32">
					<dim>1</dim>
				</port>
			</input>
			<output>
				<port id="2" precision="FP32" names="600">
					<dim>1</dim>
					<dim>48</dim>
					<dim>64</dim>
					<dim>1</dim>
				</port>
			</output>
		</layer>
		<layer id="157" name="Concat_223" type="Concat" version="opset1">
			<data axis="3" />
			<input>
				<port id="0" precision="FP32">
					<dim>1</dim>
					<dim>48</dim>
					<dim>64</dim>
					<dim>4</dim>
				</port>
				<port id="1" precision="FP32">
					<dim>1</dim>
					<dim>48</dim>
					<dim>64</dim>
					<dim>1</dim>
				</port>
			</input>
			<output>
				<port id="2" precision="FP32" names="601">
					<dim>1</dim>
					<dim>48</dim>
					<dim>64</dim>
					<dim>5</dim>
				</port>
			</output>
		</layer>
		<layer id="158" name="blocks_down.1.bd.1.conv.weight" type="Const" version="opset1">
			<data element_type="f32" shape="16, 48, 3, 3" offset="353528" size="27648" />
			<output>
				<port id="0" precision="FP32" names="blocks_down.1.bd.1.conv.weight">
					<dim>16</dim>
					<dim>48</dim>
					<dim>3</dim>
					<dim>3</dim>
				</port>
			</output>
		</layer>
		<layer id="159" name="Conv_250/WithoutBiases" type="Convolution" version="opset1">
			<data strides="1, 1" dilations="1, 2" pads_begin="1, 0" pads_end="1, 0" auto_pad="explicit" />
			<input>
				<port id="0" precision="FP32">
					<dim>1</dim>
					<dim>48</dim>
					<dim>64</dim>
					<dim>5</dim>
				</port>
				<port id="1" precision="FP32">
					<dim>16</dim>
					<dim>48</dim>
					<dim>3</dim>
					<dim>3</dim>
				</port>
			</input>
			<output>
				<port id="2" precision="FP32">
					<dim>1</dim>
					<dim>16</dim>
					<dim>64</dim>
					<dim>1</dim>
				</port>
			</output>
		</layer>
		<layer id="160" name="Reshape_1064" type="Const" version="opset1">
			<data element_type="f32" shape="1, 16, 1, 1" offset="381176" size="64" />
			<output>
				<port id="0" precision="FP32">
					<dim>1</dim>
					<dim>16</dim>
					<dim>1</dim>
					<dim>1</dim>
				</port>
			</output>
		</layer>
		<layer id="161" name="Conv_250" type="Add" version="opset1">
			<data auto_broadcast="numpy" />
			<input>
				<port id="0" precision="FP32">
					<dim>1</dim>
					<dim>16</dim>
					<dim>64</dim>
					<dim>1</dim>
				</port>
				<port id="1" precision="FP32">
					<dim>1</dim>
					<dim>16</dim>
					<dim>1</dim>
					<dim>1</dim>
				</port>
			</input>
			<output>
				<port id="2" precision="FP32" names="639">
					<dim>1</dim>
					<dim>16</dim>
					<dim>64</dim>
					<dim>1</dim>
				</port>
			</output>
		</layer>
		<layer id="162" name="Concat_251" type="Concat" version="opset1">
			<data axis="1" />
			<input>
				<port id="0" precision="FP32">
					<dim>1</dim>
					<dim>48</dim>
					<dim>64</dim>
					<dim>1</dim>
				</port>
				<port id="1" precision="FP32">
					<dim>1</dim>
					<dim>16</dim>
					<dim>64</dim>
					<dim>1</dim>
				</port>
			</input>
			<output>
				<port id="2" precision="FP32" names="640">
					<dim>1</dim>
					<dim>64</dim>
					<dim>64</dim>
					<dim>1</dim>
				</port>
			</output>
		</layer>
		<layer id="163" name="Constant_67634" type="Const" version="opset1">
			<data element_type="f32" shape="1, 64, 1, 1" offset="381240" size="256" />
			<output>
				<port id="0" precision="FP32">
					<dim>1</dim>
					<dim>64</dim>
					<dim>1</dim>
					<dim>1</dim>
				</port>
			</output>
		</layer>
		<layer id="164" name="Multiply_69601" type="Multiply" version="opset1">
			<data auto_broadcast="numpy" />
			<input>
				<port id="0" precision="FP32">
					<dim>1</dim>
					<dim>64</dim>
					<dim>64</dim>
					<dim>1</dim>
				</port>
				<port id="1" precision="FP32">
					<dim>1</dim>
					<dim>64</dim>
					<dim>1</dim>
					<dim>1</dim>
				</port>
			</input>
			<output>
				<port id="2" precision="FP32">
					<dim>1</dim>
					<dim>64</dim>
					<dim>64</dim>
					<dim>1</dim>
				</port>
			</output>
		</layer>
		<layer id="165" name="Constant_69606" type="Const" version="opset1">
			<data element_type="f32" shape="1, 64, 1, 1" offset="381496" size="256" />
			<output>
				<port id="0" precision="FP32">
					<dim>1</dim>
					<dim>64</dim>
					<dim>1</dim>
					<dim>1</dim>
				</port>
			</output>
		</layer>
		<layer id="166" name="BatchNormalization_252" type="Add" version="opset1">
			<data auto_broadcast="numpy" />
			<input>
				<port id="0" precision="FP32">
					<dim>1</dim>
					<dim>64</dim>
					<dim>64</dim>
					<dim>1</dim>
				</port>
				<port id="1" precision="FP32">
					<dim>1</dim>
					<dim>64</dim>
					<dim>1</dim>
					<dim>1</dim>
				</port>
			</input>
			<output>
				<port id="2" precision="FP32" names="641">
					<dim>1</dim>
					<dim>64</dim>
					<dim>64</dim>
					<dim>1</dim>
				</port>
			</output>
		</layer>
		<layer id="167" name="Constant_1070" type="Const" version="opset1">
			<data element_type="f32" shape="1" offset="264308" size="4" />
			<output>
				<port id="0" precision="FP32">
					<dim>1</dim>
				</port>
			</output>
		</layer>
		<layer id="168" name="LeakyRelu_253" type="PReLU" version="opset1">
			<input>
				<port id="0" precision="FP32">
					<dim>1</dim>
					<dim>64</dim>
					<dim>64</dim>
					<dim>1</dim>
				</port>
				<port id="1" precision="FP32">
					<dim>1</dim>
				</port>
			</input>
			<output>
				<port id="2" precision="FP32" names="642">
					<dim>1</dim>
					<dim>64</dim>
					<dim>64</dim>
					<dim>1</dim>
				</port>
			</output>
		</layer>
		<layer id="169" name="Concat_254" type="Concat" version="opset1">
			<data axis="3" />
			<input>
				<port id="0" precision="FP32">
					<dim>1</dim>
					<dim>64</dim>
					<dim>64</dim>
					<dim>4</dim>
				</port>
				<port id="1" precision="FP32">
					<dim>1</dim>
					<dim>64</dim>
					<dim>64</dim>
					<dim>1</dim>
				</port>
			</input>
			<output>
				<port id="2" precision="FP32" names="643">
					<dim>1</dim>
					<dim>64</dim>
					<dim>64</dim>
					<dim>5</dim>
				</port>
			</output>
		</layer>
		<layer id="170" name="blocks_down.1.bd.2.conv.weight" type="Const" version="opset1">
			<data element_type="f32" shape="16, 64, 3, 3" offset="381752" size="36864" />
			<output>
				<port id="0" precision="FP32" names="blocks_down.1.bd.2.conv.weight">
					<dim>16</dim>
					<dim>64</dim>
					<dim>3</dim>
					<dim>3</dim>
				</port>
			</output>
		</layer>
		<layer id="171" name="Conv_281/WithoutBiases" type="Convolution" version="opset1">
			<data strides="1, 1" dilations="1, 2" pads_begin="1, 0" pads_end="1, 0" auto_pad="explicit" />
			<input>
				<port id="0" precision="FP32">
					<dim>1</dim>
					<dim>64</dim>
					<dim>64</dim>
					<dim>5</dim>
				</port>
				<port id="1" precision="FP32">
					<dim>16</dim>
					<dim>64</dim>
					<dim>3</dim>
					<dim>3</dim>
				</port>
			</input>
			<output>
				<port id="2" precision="FP32">
					<dim>1</dim>
					<dim>16</dim>
					<dim>64</dim>
					<dim>1</dim>
				</port>
			</output>
		</layer>
		<layer id="172" name="Reshape_1143" type="Const" version="opset1">
			<data element_type="f32" shape="1, 16, 1, 1" offset="418616" size="64" />
			<output>
				<port id="0" precision="FP32">
					<dim>1</dim>
					<dim>16</dim>
					<dim>1</dim>
					<dim>1</dim>
				</port>
			</output>
		</layer>
		<layer id="173" name="Conv_281" type="Add" version="opset1">
			<data auto_broadcast="numpy" />
			<input>
				<port id="0" precision="FP32">
					<dim>1</dim>
					<dim>16</dim>
					<dim>64</dim>
					<dim>1</dim>
				</port>
				<port id="1" precision="FP32">
					<dim>1</dim>
					<dim>16</dim>
					<dim>1</dim>
					<dim>1</dim>
				</port>
			</input>
			<output>
				<port id="2" precision="FP32" names="681">
					<dim>1</dim>
					<dim>16</dim>
					<dim>64</dim>
					<dim>1</dim>
				</port>
			</output>
		</layer>
		<layer id="174" name="Concat_282" type="Concat" version="opset1">
			<data axis="1" />
			<input>
				<port id="0" precision="FP32">
					<dim>1</dim>
					<dim>64</dim>
					<dim>64</dim>
					<dim>1</dim>
				</port>
				<port id="1" precision="FP32">
					<dim>1</dim>
					<dim>16</dim>
					<dim>64</dim>
					<dim>1</dim>
				</port>
			</input>
			<output>
				<port id="2" precision="FP32" names="682">
					<dim>1</dim>
					<dim>80</dim>
					<dim>64</dim>
					<dim>1</dim>
				</port>
			</output>
		</layer>
		<layer id="175" name="Constant_67700" type="Const" version="opset1">
			<data element_type="f32" shape="1, 80, 1, 1" offset="418680" size="320" />
			<output>
				<port id="0" precision="FP32">
					<dim>1</dim>
					<dim>80</dim>
					<dim>1</dim>
					<dim>1</dim>
				</port>
			</output>
		</layer>
		<layer id="176" name="Multiply_69608" type="Multiply" version="opset1">
			<data auto_broadcast="numpy" />
			<input>
				<port id="0" precision="FP32">
					<dim>1</dim>
					<dim>80</dim>
					<dim>64</dim>
					<dim>1</dim>
				</port>
				<port id="1" precision="FP32">
					<dim>1</dim>
					<dim>80</dim>
					<dim>1</dim>
					<dim>1</dim>
				</port>
			</input>
			<output>
				<port id="2" precision="FP32">
					<dim>1</dim>
					<dim>80</dim>
					<dim>64</dim>
					<dim>1</dim>
				</port>
			</output>
		</layer>
		<layer id="177" name="Constant_69613" type="Const" version="opset1">
			<data element_type="f32" shape="1, 80, 1, 1" offset="419000" size="320" />
			<output>
				<port id="0" precision="FP32">
					<dim>1</dim>
					<dim>80</dim>
					<dim>1</dim>
					<dim>1</dim>
				</port>
			</output>
		</layer>
		<layer id="178" name="BatchNormalization_283" type="Add" version="opset1">
			<data auto_broadcast="numpy" />
			<input>
				<port id="0" precision="FP32">
					<dim>1</dim>
					<dim>80</dim>
					<dim>64</dim>
					<dim>1</dim>
				</port>
				<port id="1" precision="FP32">
					<dim>1</dim>
					<dim>80</dim>
					<dim>1</dim>
					<dim>1</dim>
				</port>
			</input>
			<output>
				<port id="2" precision="FP32" names="683">
					<dim>1</dim>
					<dim>80</dim>
					<dim>64</dim>
					<dim>1</dim>
				</port>
			</output>
		</layer>
		<layer id="179" name="Constant_1149" type="Const" version="opset1">
			<data element_type="f32" shape="1" offset="264308" size="4" />
			<output>
				<port id="0" precision="FP32">
					<dim>1</dim>
				</port>
			</output>
		</layer>
		<layer id="180" name="LeakyRelu_284" type="PReLU" version="opset1">
			<input>
				<port id="0" precision="FP32">
					<dim>1</dim>
					<dim>80</dim>
					<dim>64</dim>
					<dim>1</dim>
				</port>
				<port id="1" precision="FP32">
					<dim>1</dim>
				</port>
			</input>
			<output>
				<port id="2" precision="FP32" names="684">
					<dim>1</dim>
					<dim>80</dim>
					<dim>64</dim>
					<dim>1</dim>
				</port>
			</output>
		</layer>
		<layer id="181" name="Concat_285" type="Concat" version="opset1">
			<data axis="3" />
			<input>
				<port id="0" precision="FP32">
					<dim>1</dim>
					<dim>80</dim>
					<dim>64</dim>
					<dim>4</dim>
				</port>
				<port id="1" precision="FP32">
					<dim>1</dim>
					<dim>80</dim>
					<dim>64</dim>
					<dim>1</dim>
				</port>
			</input>
			<output>
				<port id="2" precision="FP32" names="685">
					<dim>1</dim>
					<dim>80</dim>
					<dim>64</dim>
					<dim>5</dim>
				</port>
			</output>
		</layer>
		<layer id="182" name="blocks_down.1.bd.3.conv.weight" type="Const" version="opset1">
			<data element_type="f32" shape="16, 80, 3, 3" offset="419320" size="46080" />
			<output>
				<port id="0" precision="FP32" names="blocks_down.1.bd.3.conv.weight">
					<dim>16</dim>
					<dim>80</dim>
					<dim>3</dim>
					<dim>3</dim>
				</port>
			</output>
		</layer>
		<layer id="183" name="Conv_312/WithoutBiases" type="Convolution" version="opset1">
			<data strides="1, 1" dilations="1, 2" pads_begin="1, 0" pads_end="1, 0" auto_pad="explicit" />
			<input>
				<port id="0" precision="FP32">
					<dim>1</dim>
					<dim>80</dim>
					<dim>64</dim>
					<dim>5</dim>
				</port>
				<port id="1" precision="FP32">
					<dim>16</dim>
					<dim>80</dim>
					<dim>3</dim>
					<dim>3</dim>
				</port>
			</input>
			<output>
				<port id="2" precision="FP32">
					<dim>1</dim>
					<dim>16</dim>
					<dim>64</dim>
					<dim>1</dim>
				</port>
			</output>
		</layer>
		<layer id="184" name="Reshape_1222" type="Const" version="opset1">
			<data element_type="f32" shape="1, 16, 1, 1" offset="465400" size="64" />
			<output>
				<port id="0" precision="FP32">
					<dim>1</dim>
					<dim>16</dim>
					<dim>1</dim>
					<dim>1</dim>
				</port>
			</output>
		</layer>
		<layer id="185" name="Conv_312" type="Add" version="opset1">
			<data auto_broadcast="numpy" />
			<input>
				<port id="0" precision="FP32">
					<dim>1</dim>
					<dim>16</dim>
					<dim>64</dim>
					<dim>1</dim>
				</port>
				<port id="1" precision="FP32">
					<dim>1</dim>
					<dim>16</dim>
					<dim>1</dim>
					<dim>1</dim>
				</port>
			</input>
			<output>
				<port id="2" precision="FP32" names="723">
					<dim>1</dim>
					<dim>16</dim>
					<dim>64</dim>
					<dim>1</dim>
				</port>
			</output>
		</layer>
		<layer id="186" name="Concat_313" type="Concat" version="opset1">
			<data axis="1" />
			<input>
				<port id="0" precision="FP32">
					<dim>1</dim>
					<dim>80</dim>
					<dim>64</dim>
					<dim>1</dim>
				</port>
				<port id="1" precision="FP32">
					<dim>1</dim>
					<dim>16</dim>
					<dim>64</dim>
					<dim>1</dim>
				</port>
			</input>
			<output>
				<port id="2" precision="FP32" names="724">
					<dim>1</dim>
					<dim>96</dim>
					<dim>64</dim>
					<dim>1</dim>
				</port>
			</output>
		</layer>
		<layer id="187" name="Constant_67766" type="Const" version="opset1">
			<data element_type="f32" shape="1, 96, 1, 1" offset="465464" size="384" />
			<output>
				<port id="0" precision="FP32">
					<dim>1</dim>
					<dim>96</dim>
					<dim>1</dim>
					<dim>1</dim>
				</port>
			</output>
		</layer>
		<layer id="188" name="Multiply_69615" type="Multiply" version="opset1">
			<data auto_broadcast="numpy" />
			<input>
				<port id="0" precision="FP32">
					<dim>1</dim>
					<dim>96</dim>
					<dim>64</dim>
					<dim>1</dim>
				</port>
				<port id="1" precision="FP32">
					<dim>1</dim>
					<dim>96</dim>
					<dim>1</dim>
					<dim>1</dim>
				</port>
			</input>
			<output>
				<port id="2" precision="FP32">
					<dim>1</dim>
					<dim>96</dim>
					<dim>64</dim>
					<dim>1</dim>
				</port>
			</output>
		</layer>
		<layer id="189" name="Constant_69620" type="Const" version="opset1">
			<data element_type="f32" shape="1, 96, 1, 1" offset="465848" size="384" />
			<output>
				<port id="0" precision="FP32">
					<dim>1</dim>
					<dim>96</dim>
					<dim>1</dim>
					<dim>1</dim>
				</port>
			</output>
		</layer>
		<layer id="190" name="BatchNormalization_314" type="Add" version="opset1">
			<data auto_broadcast="numpy" />
			<input>
				<port id="0" precision="FP32">
					<dim>1</dim>
					<dim>96</dim>
					<dim>64</dim>
					<dim>1</dim>
				</port>
				<port id="1" precision="FP32">
					<dim>1</dim>
					<dim>96</dim>
					<dim>1</dim>
					<dim>1</dim>
				</port>
			</input>
			<output>
				<port id="2" precision="FP32" names="725">
					<dim>1</dim>
					<dim>96</dim>
					<dim>64</dim>
					<dim>1</dim>
				</port>
			</output>
		</layer>
		<layer id="191" name="Constant_1228" type="Const" version="opset1">
			<data element_type="f32" shape="1" offset="264308" size="4" />
			<output>
				<port id="0" precision="FP32">
					<dim>1</dim>
				</port>
			</output>
		</layer>
		<layer id="192" name="LeakyRelu_315" type="PReLU" version="opset1">
			<input>
				<port id="0" precision="FP32">
					<dim>1</dim>
					<dim>96</dim>
					<dim>64</dim>
					<dim>1</dim>
				</port>
				<port id="1" precision="FP32">
					<dim>1</dim>
				</port>
			</input>
			<output>
				<port id="2" precision="FP32" names="726,750">
					<dim>1</dim>
					<dim>96</dim>
					<dim>64</dim>
					<dim>1</dim>
				</port>
			</output>
		</layer>
		<layer id="193" name="blocks_down.1.bd_out.conv.weight" type="Const" version="opset1">
			<data element_type="f32" shape="64, 96, 1, 1" offset="466232" size="24576" />
			<output>
				<port id="0" precision="FP32" names="blocks_down.1.bd_out.conv.weight">
					<dim>64</dim>
					<dim>96</dim>
					<dim>1</dim>
					<dim>1</dim>
				</port>
			</output>
		</layer>
		<layer id="194" name="Conv_331/WithoutBiases" type="Convolution" version="opset1">
			<data strides="1, 1" dilations="1, 2" pads_begin="0, 0" pads_end="0, 0" auto_pad="explicit" />
			<input>
				<port id="0" precision="FP32">
					<dim>1</dim>
					<dim>96</dim>
					<dim>64</dim>
					<dim>1</dim>
				</port>
				<port id="1" precision="FP32">
					<dim>64</dim>
					<dim>96</dim>
					<dim>1</dim>
					<dim>1</dim>
				</port>
			</input>
			<output>
				<port id="2" precision="FP32">
					<dim>1</dim>
					<dim>64</dim>
					<dim>64</dim>
					<dim>1</dim>
				</port>
			</output>
		</layer>
		<layer id="195" name="Reshape_1277" type="Const" version="opset1">
			<data element_type="f32" shape="1, 64, 1, 1" offset="490808" size="256" />
			<output>
				<port id="0" precision="FP32">
					<dim>1</dim>
					<dim>64</dim>
					<dim>1</dim>
					<dim>1</dim>
				</port>
			</output>
		</layer>
		<layer id="196" name="Conv_331" type="Add" version="opset1">
			<data auto_broadcast="numpy" />
			<input>
				<port id="0" precision="FP32">
					<dim>1</dim>
					<dim>64</dim>
					<dim>64</dim>
					<dim>1</dim>
				</port>
				<port id="1" precision="FP32">
					<dim>1</dim>
					<dim>64</dim>
					<dim>1</dim>
					<dim>1</dim>
				</port>
			</input>
			<output>
				<port id="2" precision="FP32" names="751">
					<dim>1</dim>
					<dim>64</dim>
					<dim>64</dim>
					<dim>1</dim>
				</port>
			</output>
		</layer>
		<layer id="197" name="Concat_332" type="Concat" version="opset1">
			<data axis="3" />
			<input>
				<port id="0" precision="FP32">
					<dim>1</dim>
					<dim>64</dim>
					<dim>64</dim>
					<dim>1</dim>
				</port>
				<port id="1" precision="FP32">
					<dim>1</dim>
					<dim>64</dim>
					<dim>64</dim>
					<dim>1</dim>
				</port>
			</input>
			<output>
				<port id="2" precision="FP32" names="752,767">
					<dim>1</dim>
					<dim>64</dim>
					<dim>64</dim>
					<dim>2</dim>
				</port>
			</output>
		</layer>
		<layer id="198" name="AveragePool_346" type="AvgPool" version="opset1">
			<data kernel="2, 2" strides="2, 1" pads_begin="0, 0" pads_end="0, 0" exclude-pad="true" auto_pad="explicit" rounding_type="floor" />
			<input>
				<port id="0" precision="FP32">
					<dim>1</dim>
					<dim>64</dim>
					<dim>64</dim>
					<dim>2</dim>
				</port>
			</input>
			<output>
				<port id="1" precision="FP32" names="768">
					<dim>1</dim>
					<dim>64</dim>
					<dim>32</dim>
					<dim>1</dim>
				</port>
			</output>
		</layer>
		<layer id="199" name="Constant_67832" type="Const" version="opset1">
			<data element_type="f32" shape="1, 64, 1, 1" offset="491064" size="256" />
			<output>
				<port id="0" precision="FP32">
					<dim>1</dim>
					<dim>64</dim>
					<dim>1</dim>
					<dim>1</dim>
				</port>
			</output>
		</layer>
		<layer id="200" name="Multiply_69622" type="Multiply" version="opset1">
			<data auto_broadcast="numpy" />
			<input>
				<port id="0" precision="FP32">
					<dim>1</dim>
					<dim>64</dim>
					<dim>32</dim>
					<dim>1</dim>
				</port>
				<port id="1" precision="FP32">
					<dim>1</dim>
					<dim>64</dim>
					<dim>1</dim>
					<dim>1</dim>
				</port>
			</input>
			<output>
				<port id="2" precision="FP32">
					<dim>1</dim>
					<dim>64</dim>
					<dim>32</dim>
					<dim>1</dim>
				</port>
			</output>
		</layer>
		<layer id="201" name="Constant_69627" type="Const" version="opset1">
			<data element_type="f32" shape="1, 64, 1, 1" offset="491320" size="256" />
			<output>
				<port id="0" precision="FP32">
					<dim>1</dim>
					<dim>64</dim>
					<dim>1</dim>
					<dim>1</dim>
				</port>
			</output>
		</layer>
		<layer id="202" name="BatchNormalization_347" type="Add" version="opset1">
			<data auto_broadcast="numpy" />
			<input>
				<port id="0" precision="FP32">
					<dim>1</dim>
					<dim>64</dim>
					<dim>32</dim>
					<dim>1</dim>
				</port>
				<port id="1" precision="FP32">
					<dim>1</dim>
					<dim>64</dim>
					<dim>1</dim>
					<dim>1</dim>
				</port>
			</input>
			<output>
				<port id="2" precision="FP32" names="769">
					<dim>1</dim>
					<dim>64</dim>
					<dim>32</dim>
					<dim>1</dim>
				</port>
			</output>
		</layer>
		<layer id="203" name="Constant_1312" type="Const" version="opset1">
			<data element_type="f32" shape="1" offset="264308" size="4" />
			<output>
				<port id="0" precision="FP32">
					<dim>1</dim>
				</port>
			</output>
		</layer>
		<layer id="204" name="LeakyRelu_348" type="PReLU" version="opset1">
			<input>
				<port id="0" precision="FP32">
					<dim>1</dim>
					<dim>64</dim>
					<dim>32</dim>
					<dim>1</dim>
				</port>
				<port id="1" precision="FP32">
					<dim>1</dim>
				</port>
			</input>
			<output>
				<port id="2" precision="FP32" names="770">
					<dim>1</dim>
					<dim>64</dim>
					<dim>32</dim>
					<dim>1</dim>
				</port>
			</output>
		</layer>
		<layer id="205" name="Concat_349" type="Concat" version="opset1">
			<data axis="3" />
			<input>
				<port id="0" precision="FP32">
					<dim>1</dim>
					<dim>64</dim>
					<dim>32</dim>
					<dim>8</dim>
				</port>
				<port id="1" precision="FP32">
					<dim>1</dim>
					<dim>64</dim>
					<dim>32</dim>
					<dim>1</dim>
				</port>
			</input>
			<output>
				<port id="2" precision="FP32" names="771">
					<dim>1</dim>
					<dim>64</dim>
					<dim>32</dim>
					<dim>9</dim>
				</port>
			</output>
		</layer>
		<layer id="206" name="blocks_down.2.bd.0.conv.weight" type="Const" version="opset1">
			<data element_type="f32" shape="32, 64, 3, 3" offset="491576" size="73728" />
			<output>
				<port id="0" precision="FP32" names="blocks_down.2.bd.0.conv.weight">
					<dim>32</dim>
					<dim>64</dim>
					<dim>3</dim>
					<dim>3</dim>
				</port>
			</output>
		</layer>
		<layer id="207" name="Conv_376/WithoutBiases" type="Convolution" version="opset1">
			<data strides="1, 1" dilations="1, 4" pads_begin="1, 0" pads_end="1, 0" auto_pad="explicit" />
			<input>
				<port id="0" precision="FP32">
					<dim>1</dim>
					<dim>64</dim>
					<dim>32</dim>
					<dim>9</dim>
				</port>
				<port id="1" precision="FP32">
					<dim>32</dim>
					<dim>64</dim>
					<dim>3</dim>
					<dim>3</dim>
				</port>
			</input>
			<output>
				<port id="2" precision="FP32">
					<dim>1</dim>
					<dim>32</dim>
					<dim>32</dim>
					<dim>1</dim>
				</port>
			</output>
		</layer>
		<layer id="208" name="Reshape_1385" type="Const" version="opset1">
			<data element_type="f32" shape="1, 32, 1, 1" offset="565304" size="128" />
			<output>
				<port id="0" precision="FP32">
					<dim>1</dim>
					<dim>32</dim>
					<dim>1</dim>
					<dim>1</dim>
				</port>
			</output>
		</layer>
		<layer id="209" name="Conv_376" type="Add" version="opset1">
			<data auto_broadcast="numpy" />
			<input>
				<port id="0" precision="FP32">
					<dim>1</dim>
					<dim>32</dim>
					<dim>32</dim>
					<dim>1</dim>
				</port>
				<port id="1" precision="FP32">
					<dim>1</dim>
					<dim>32</dim>
					<dim>1</dim>
					<dim>1</dim>
				</port>
			</input>
			<output>
				<port id="2" precision="FP32" names="809">
					<dim>1</dim>
					<dim>32</dim>
					<dim>32</dim>
					<dim>1</dim>
				</port>
			</output>
		</layer>
		<layer id="210" name="Concat_377" type="Concat" version="opset1">
			<data axis="1" />
			<input>
				<port id="0" precision="FP32">
					<dim>1</dim>
					<dim>64</dim>
					<dim>32</dim>
					<dim>1</dim>
				</port>
				<port id="1" precision="FP32">
					<dim>1</dim>
					<dim>32</dim>
					<dim>32</dim>
					<dim>1</dim>
				</port>
			</input>
			<output>
				<port id="2" precision="FP32" names="810">
					<dim>1</dim>
					<dim>96</dim>
					<dim>32</dim>
					<dim>1</dim>
				</port>
			</output>
		</layer>
		<layer id="211" name="Constant_67898" type="Const" version="opset1">
			<data element_type="f32" shape="1, 96, 1, 1" offset="565432" size="384" />
			<output>
				<port id="0" precision="FP32">
					<dim>1</dim>
					<dim>96</dim>
					<dim>1</dim>
					<dim>1</dim>
				</port>
			</output>
		</layer>
		<layer id="212" name="Multiply_69629" type="Multiply" version="opset1">
			<data auto_broadcast="numpy" />
			<input>
				<port id="0" precision="FP32">
					<dim>1</dim>
					<dim>96</dim>
					<dim>32</dim>
					<dim>1</dim>
				</port>
				<port id="1" precision="FP32">
					<dim>1</dim>
					<dim>96</dim>
					<dim>1</dim>
					<dim>1</dim>
				</port>
			</input>
			<output>
				<port id="2" precision="FP32">
					<dim>1</dim>
					<dim>96</dim>
					<dim>32</dim>
					<dim>1</dim>
				</port>
			</output>
		</layer>
		<layer id="213" name="Constant_69634" type="Const" version="opset1">
			<data element_type="f32" shape="1, 96, 1, 1" offset="565816" size="384" />
			<output>
				<port id="0" precision="FP32">
					<dim>1</dim>
					<dim>96</dim>
					<dim>1</dim>
					<dim>1</dim>
				</port>
			</output>
		</layer>
		<layer id="214" name="BatchNormalization_378" type="Add" version="opset1">
			<data auto_broadcast="numpy" />
			<input>
				<port id="0" precision="FP32">
					<dim>1</dim>
					<dim>96</dim>
					<dim>32</dim>
					<dim>1</dim>
				</port>
				<port id="1" precision="FP32">
					<dim>1</dim>
					<dim>96</dim>
					<dim>1</dim>
					<dim>1</dim>
				</port>
			</input>
			<output>
				<port id="2" precision="FP32" names="811">
					<dim>1</dim>
					<dim>96</dim>
					<dim>32</dim>
					<dim>1</dim>
				</port>
			</output>
		</layer>
		<layer id="215" name="Constant_1391" type="Const" version="opset1">
			<data element_type="f32" shape="1" offset="264308" size="4" />
			<output>
				<port id="0" precision="FP32">
					<dim>1</dim>
				</port>
			</output>
		</layer>
		<layer id="216" name="LeakyRelu_379" type="PReLU" version="opset1">
			<input>
				<port id="0" precision="FP32">
					<dim>1</dim>
					<dim>96</dim>
					<dim>32</dim>
					<dim>1</dim>
				</port>
				<port id="1" precision="FP32">
					<dim>1</dim>
				</port>
			</input>
			<output>
				<port id="2" precision="FP32" names="812">
					<dim>1</dim>
					<dim>96</dim>
					<dim>32</dim>
					<dim>1</dim>
				</port>
			</output>
		</layer>
		<layer id="217" name="Concat_380" type="Concat" version="opset1">
			<data axis="3" />
			<input>
				<port id="0" precision="FP32">
					<dim>1</dim>
					<dim>96</dim>
					<dim>32</dim>
					<dim>8</dim>
				</port>
				<port id="1" precision="FP32">
					<dim>1</dim>
					<dim>96</dim>
					<dim>32</dim>
					<dim>1</dim>
				</port>
			</input>
			<output>
				<port id="2" precision="FP32" names="813">
					<dim>1</dim>
					<dim>96</dim>
					<dim>32</dim>
					<dim>9</dim>
				</port>
			</output>
		</layer>
		<layer id="218" name="blocks_down.2.bd.1.conv.weight" type="Const" version="opset1">
			<data element_type="f32" shape="32, 96, 3, 3" offset="566200" size="110592" />
			<output>
				<port id="0" precision="FP32" names="blocks_down.2.bd.1.conv.weight">
					<dim>32</dim>
					<dim>96</dim>
					<dim>3</dim>
					<dim>3</dim>
				</port>
			</output>
		</layer>
		<layer id="219" name="Conv_407/WithoutBiases" type="Convolution" version="opset1">
			<data strides="1, 1" dilations="1, 4" pads_begin="1, 0" pads_end="1, 0" auto_pad="explicit" />
			<input>
				<port id="0" precision="FP32">
					<dim>1</dim>
					<dim>96</dim>
					<dim>32</dim>
					<dim>9</dim>
				</port>
				<port id="1" precision="FP32">
					<dim>32</dim>
					<dim>96</dim>
					<dim>3</dim>
					<dim>3</dim>
				</port>
			</input>
			<output>
				<port id="2" precision="FP32">
					<dim>1</dim>
					<dim>32</dim>
					<dim>32</dim>
					<dim>1</dim>
				</port>
			</output>
		</layer>
		<layer id="220" name="Reshape_1464" type="Const" version="opset1">
			<data element_type="f32" shape="1, 32, 1, 1" offset="676792" size="128" />
			<output>
				<port id="0" precision="FP32">
					<dim>1</dim>
					<dim>32</dim>
					<dim>1</dim>
					<dim>1</dim>
				</port>
			</output>
		</layer>
		<layer id="221" name="Conv_407" type="Add" version="opset1">
			<data auto_broadcast="numpy" />
			<input>
				<port id="0" precision="FP32">
					<dim>1</dim>
					<dim>32</dim>
					<dim>32</dim>
					<dim>1</dim>
				</port>
				<port id="1" precision="FP32">
					<dim>1</dim>
					<dim>32</dim>
					<dim>1</dim>
					<dim>1</dim>
				</port>
			</input>
			<output>
				<port id="2" precision="FP32" names="851">
					<dim>1</dim>
					<dim>32</dim>
					<dim>32</dim>
					<dim>1</dim>
				</port>
			</output>
		</layer>
		<layer id="222" name="Concat_408" type="Concat" version="opset1">
			<data axis="1" />
			<input>
				<port id="0" precision="FP32">
					<dim>1</dim>
					<dim>96</dim>
					<dim>32</dim>
					<dim>1</dim>
				</port>
				<port id="1" precision="FP32">
					<dim>1</dim>
					<dim>32</dim>
					<dim>32</dim>
					<dim>1</dim>
				</port>
			</input>
			<output>
				<port id="2" precision="FP32" names="852">
					<dim>1</dim>
					<dim>128</dim>
					<dim>32</dim>
					<dim>1</dim>
				</port>
			</output>
		</layer>
		<layer id="223" name="Constant_67964" type="Const" version="opset1">
			<data element_type="f32" shape="1, 128, 1, 1" offset="676920" size="512" />
			<output>
				<port id="0" precision="FP32">
					<dim>1</dim>
					<dim>128</dim>
					<dim>1</dim>
					<dim>1</dim>
				</port>
			</output>
		</layer>
		<layer id="224" name="Multiply_69636" type="Multiply" version="opset1">
			<data auto_broadcast="numpy" />
			<input>
				<port id="0" precision="FP32">
					<dim>1</dim>
					<dim>128</dim>
					<dim>32</dim>
					<dim>1</dim>
				</port>
				<port id="1" precision="FP32">
					<dim>1</dim>
					<dim>128</dim>
					<dim>1</dim>
					<dim>1</dim>
				</port>
			</input>
			<output>
				<port id="2" precision="FP32">
					<dim>1</dim>
					<dim>128</dim>
					<dim>32</dim>
					<dim>1</dim>
				</port>
			</output>
		</layer>
		<layer id="225" name="Constant_69641" type="Const" version="opset1">
			<data element_type="f32" shape="1, 128, 1, 1" offset="677432" size="512" />
			<output>
				<port id="0" precision="FP32">
					<dim>1</dim>
					<dim>128</dim>
					<dim>1</dim>
					<dim>1</dim>
				</port>
			</output>
		</layer>
		<layer id="226" name="BatchNormalization_409" type="Add" version="opset1">
			<data auto_broadcast="numpy" />
			<input>
				<port id="0" precision="FP32">
					<dim>1</dim>
					<dim>128</dim>
					<dim>32</dim>
					<dim>1</dim>
				</port>
				<port id="1" precision="FP32">
					<dim>1</dim>
					<dim>128</dim>
					<dim>1</dim>
					<dim>1</dim>
				</port>
			</input>
			<output>
				<port id="2" precision="FP32" names="853">
					<dim>1</dim>
					<dim>128</dim>
					<dim>32</dim>
					<dim>1</dim>
				</port>
			</output>
		</layer>
		<layer id="227" name="Constant_1470" type="Const" version="opset1">
			<data element_type="f32" shape="1" offset="264308" size="4" />
			<output>
				<port id="0" precision="FP32">
					<dim>1</dim>
				</port>
			</output>
		</layer>
		<layer id="228" name="LeakyRelu_410" type="PReLU" version="opset1">
			<input>
				<port id="0" precision="FP32">
					<dim>1</dim>
					<dim>128</dim>
					<dim>32</dim>
					<dim>1</dim>
				</port>
				<port id="1" precision="FP32">
					<dim>1</dim>
				</port>
			</input>
			<output>
				<port id="2" precision="FP32" names="854">
					<dim>1</dim>
					<dim>128</dim>
					<dim>32</dim>
					<dim>1</dim>
				</port>
			</output>
		</layer>
		<layer id="229" name="Concat_411" type="Concat" version="opset1">
			<data axis="3" />
			<input>
				<port id="0" precision="FP32">
					<dim>1</dim>
					<dim>128</dim>
					<dim>32</dim>
					<dim>8</dim>
				</port>
				<port id="1" precision="FP32">
					<dim>1</dim>
					<dim>128</dim>
					<dim>32</dim>
					<dim>1</dim>
				</port>
			</input>
			<output>
				<port id="2" precision="FP32" names="855">
					<dim>1</dim>
					<dim>128</dim>
					<dim>32</dim>
					<dim>9</dim>
				</port>
			</output>
		</layer>
		<layer id="230" name="blocks_down.2.bd.2.conv.weight" type="Const" version="opset1">
			<data element_type="f32" shape="32, 128, 3, 3" offset="677944" size="147456" />
			<output>
				<port id="0" precision="FP32" names="blocks_down.2.bd.2.conv.weight">
					<dim>32</dim>
					<dim>128</dim>
					<dim>3</dim>
					<dim>3</dim>
				</port>
			</output>
		</layer>
		<layer id="231" name="Conv_438/WithoutBiases" type="Convolution" version="opset1">
			<data strides="1, 1" dilations="1, 4" pads_begin="1, 0" pads_end="1, 0" auto_pad="explicit" />
			<input>
				<port id="0" precision="FP32">
					<dim>1</dim>
					<dim>128</dim>
					<dim>32</dim>
					<dim>9</dim>
				</port>
				<port id="1" precision="FP32">
					<dim>32</dim>
					<dim>128</dim>
					<dim>3</dim>
					<dim>3</dim>
				</port>
			</input>
			<output>
				<port id="2" precision="FP32">
					<dim>1</dim>
					<dim>32</dim>
					<dim>32</dim>
					<dim>1</dim>
				</port>
			</output>
		</layer>
		<layer id="232" name="Reshape_1543" type="Const" version="opset1">
			<data element_type="f32" shape="1, 32, 1, 1" offset="825400" size="128" />
			<output>
				<port id="0" precision="FP32">
					<dim>1</dim>
					<dim>32</dim>
					<dim>1</dim>
					<dim>1</dim>
				</port>
			</output>
		</layer>
		<layer id="233" name="Conv_438" type="Add" version="opset1">
			<data auto_broadcast="numpy" />
			<input>
				<port id="0" precision="FP32">
					<dim>1</dim>
					<dim>32</dim>
					<dim>32</dim>
					<dim>1</dim>
				</port>
				<port id="1" precision="FP32">
					<dim>1</dim>
					<dim>32</dim>
					<dim>1</dim>
					<dim>1</dim>
				</port>
			</input>
			<output>
				<port id="2" precision="FP32" names="893">
					<dim>1</dim>
					<dim>32</dim>
					<dim>32</dim>
					<dim>1</dim>
				</port>
			</output>
		</layer>
		<layer id="234" name="Concat_439" type="Concat" version="opset1">
			<data axis="1" />
			<input>
				<port id="0" precision="FP32">
					<dim>1</dim>
					<dim>128</dim>
					<dim>32</dim>
					<dim>1</dim>
				</port>
				<port id="1" precision="FP32">
					<dim>1</dim>
					<dim>32</dim>
					<dim>32</dim>
					<dim>1</dim>
				</port>
			</input>
			<output>
				<port id="2" precision="FP32" names="894">
					<dim>1</dim>
					<dim>160</dim>
					<dim>32</dim>
					<dim>1</dim>
				</port>
			</output>
		</layer>
		<layer id="235" name="Constant_68030" type="Const" version="opset1">
			<data element_type="f32" shape="1, 160, 1, 1" offset="825528" size="640" />
			<output>
				<port id="0" precision="FP32">
					<dim>1</dim>
					<dim>160</dim>
					<dim>1</dim>
					<dim>1</dim>
				</port>
			</output>
		</layer>
		<layer id="236" name="Multiply_69643" type="Multiply" version="opset1">
			<data auto_broadcast="numpy" />
			<input>
				<port id="0" precision="FP32">
					<dim>1</dim>
					<dim>160</dim>
					<dim>32</dim>
					<dim>1</dim>
				</port>
				<port id="1" precision="FP32">
					<dim>1</dim>
					<dim>160</dim>
					<dim>1</dim>
					<dim>1</dim>
				</port>
			</input>
			<output>
				<port id="2" precision="FP32">
					<dim>1</dim>
					<dim>160</dim>
					<dim>32</dim>
					<dim>1</dim>
				</port>
			</output>
		</layer>
		<layer id="237" name="Constant_69648" type="Const" version="opset1">
			<data element_type="f32" shape="1, 160, 1, 1" offset="826168" size="640" />
			<output>
				<port id="0" precision="FP32">
					<dim>1</dim>
					<dim>160</dim>
					<dim>1</dim>
					<dim>1</dim>
				</port>
			</output>
		</layer>
		<layer id="238" name="BatchNormalization_440" type="Add" version="opset1">
			<data auto_broadcast="numpy" />
			<input>
				<port id="0" precision="FP32">
					<dim>1</dim>
					<dim>160</dim>
					<dim>32</dim>
					<dim>1</dim>
				</port>
				<port id="1" precision="FP32">
					<dim>1</dim>
					<dim>160</dim>
					<dim>1</dim>
					<dim>1</dim>
				</port>
			</input>
			<output>
				<port id="2" precision="FP32" names="895">
					<dim>1</dim>
					<dim>160</dim>
					<dim>32</dim>
					<dim>1</dim>
				</port>
			</output>
		</layer>
		<layer id="239" name="Constant_1549" type="Const" version="opset1">
			<data element_type="f32" shape="1" offset="264308" size="4" />
			<output>
				<port id="0" precision="FP32">
					<dim>1</dim>
				</port>
			</output>
		</layer>
		<layer id="240" name="LeakyRelu_441" type="PReLU" version="opset1">
			<input>
				<port id="0" precision="FP32">
					<dim>1</dim>
					<dim>160</dim>
					<dim>32</dim>
					<dim>1</dim>
				</port>
				<port id="1" precision="FP32">
					<dim>1</dim>
				</port>
			</input>
			<output>
				<port id="2" precision="FP32" names="896,920">
					<dim>1</dim>
					<dim>160</dim>
					<dim>32</dim>
					<dim>1</dim>
				</port>
			</output>
		</layer>
		<layer id="241" name="blocks_down.2.bd_out.conv.weight" type="Const" version="opset1">
			<data element_type="f32" shape="128, 160, 1, 1" offset="826808" size="81920" />
			<output>
				<port id="0" precision="FP32" names="blocks_down.2.bd_out.conv.weight">
					<dim>128</dim>
					<dim>160</dim>
					<dim>1</dim>
					<dim>1</dim>
				</port>
			</output>
		</layer>
		<layer id="242" name="Conv_457/WithoutBiases" type="Convolution" version="opset1">
			<data strides="1, 1" dilations="1, 4" pads_begin="0, 0" pads_end="0, 0" auto_pad="explicit" />
			<input>
				<port id="0" precision="FP32">
					<dim>1</dim>
					<dim>160</dim>
					<dim>32</dim>
					<dim>1</dim>
				</port>
				<port id="1" precision="FP32">
					<dim>128</dim>
					<dim>160</dim>
					<dim>1</dim>
					<dim>1</dim>
				</port>
			</input>
			<output>
				<port id="2" precision="FP32">
					<dim>1</dim>
					<dim>128</dim>
					<dim>32</dim>
					<dim>1</dim>
				</port>
			</output>
		</layer>
		<layer id="243" name="Reshape_1598" type="Const" version="opset1">
			<data element_type="f32" shape="1, 128, 1, 1" offset="908728" size="512" />
			<output>
				<port id="0" precision="FP32">
					<dim>1</dim>
					<dim>128</dim>
					<dim>1</dim>
					<dim>1</dim>
				</port>
			</output>
		</layer>
		<layer id="244" name="Conv_457" type="Add" version="opset1">
			<data auto_broadcast="numpy" />
			<input>
				<port id="0" precision="FP32">
					<dim>1</dim>
					<dim>128</dim>
					<dim>32</dim>
					<dim>1</dim>
				</port>
				<port id="1" precision="FP32">
					<dim>1</dim>
					<dim>128</dim>
					<dim>1</dim>
					<dim>1</dim>
				</port>
			</input>
			<output>
				<port id="2" precision="FP32" names="921">
					<dim>1</dim>
					<dim>128</dim>
					<dim>32</dim>
					<dim>1</dim>
				</port>
			</output>
		</layer>
		<layer id="245" name="Concat_458" type="Concat" version="opset1">
			<data axis="3" />
			<input>
				<port id="0" precision="FP32">
					<dim>1</dim>
					<dim>128</dim>
					<dim>32</dim>
					<dim>1</dim>
				</port>
				<port id="1" precision="FP32">
					<dim>1</dim>
					<dim>128</dim>
					<dim>32</dim>
					<dim>1</dim>
				</port>
			</input>
			<output>
				<port id="2" precision="FP32" names="922,937">
					<dim>1</dim>
					<dim>128</dim>
					<dim>32</dim>
					<dim>2</dim>
				</port>
			</output>
		</layer>
		<layer id="246" name="AveragePool_472" type="AvgPool" version="opset1">
			<data kernel="2, 2" strides="2, 1" pads_begin="0, 0" pads_end="0, 0" exclude-pad="true" auto_pad="explicit" rounding_type="floor" />
			<input>
				<port id="0" precision="FP32">
					<dim>1</dim>
					<dim>128</dim>
					<dim>32</dim>
					<dim>2</dim>
				</port>
			</input>
			<output>
				<port id="1" precision="FP32" names="938">
					<dim>1</dim>
					<dim>128</dim>
					<dim>16</dim>
					<dim>1</dim>
				</port>
			</output>
		</layer>
		<layer id="247" name="Constant_68096" type="Const" version="opset1">
			<data element_type="f32" shape="1, 128, 1, 1" offset="909240" size="512" />
			<output>
				<port id="0" precision="FP32">
					<dim>1</dim>
					<dim>128</dim>
					<dim>1</dim>
					<dim>1</dim>
				</port>
			</output>
		</layer>
		<layer id="248" name="Multiply_69650" type="Multiply" version="opset1">
			<data auto_broadcast="numpy" />
			<input>
				<port id="0" precision="FP32">
					<dim>1</dim>
					<dim>128</dim>
					<dim>16</dim>
					<dim>1</dim>
				</port>
				<port id="1" precision="FP32">
					<dim>1</dim>
					<dim>128</dim>
					<dim>1</dim>
					<dim>1</dim>
				</port>
			</input>
			<output>
				<port id="2" precision="FP32">
					<dim>1</dim>
					<dim>128</dim>
					<dim>16</dim>
					<dim>1</dim>
				</port>
			</output>
		</layer>
		<layer id="249" name="Constant_69655" type="Const" version="opset1">
			<data element_type="f32" shape="1, 128, 1, 1" offset="909752" size="512" />
			<output>
				<port id="0" precision="FP32">
					<dim>1</dim>
					<dim>128</dim>
					<dim>1</dim>
					<dim>1</dim>
				</port>
			</output>
		</layer>
		<layer id="250" name="BatchNormalization_473" type="Add" version="opset1">
			<data auto_broadcast="numpy" />
			<input>
				<port id="0" precision="FP32">
					<dim>1</dim>
					<dim>128</dim>
					<dim>16</dim>
					<dim>1</dim>
				</port>
				<port id="1" precision="FP32">
					<dim>1</dim>
					<dim>128</dim>
					<dim>1</dim>
					<dim>1</dim>
				</port>
			</input>
			<output>
				<port id="2" precision="FP32" names="939">
					<dim>1</dim>
					<dim>128</dim>
					<dim>16</dim>
					<dim>1</dim>
				</port>
			</output>
		</layer>
		<layer id="251" name="Constant_1633" type="Const" version="opset1">
			<data element_type="f32" shape="1" offset="264308" size="4" />
			<output>
				<port id="0" precision="FP32">
					<dim>1</dim>
				</port>
			</output>
		</layer>
		<layer id="252" name="LeakyRelu_474" type="PReLU" version="opset1">
			<input>
				<port id="0" precision="FP32">
					<dim>1</dim>
					<dim>128</dim>
					<dim>16</dim>
					<dim>1</dim>
				</port>
				<port id="1" precision="FP32">
					<dim>1</dim>
				</port>
			</input>
			<output>
				<port id="2" precision="FP32" names="940">
					<dim>1</dim>
					<dim>128</dim>
					<dim>16</dim>
					<dim>1</dim>
				</port>
			</output>
		</layer>
		<layer id="253" name="Concat_475" type="Concat" version="opset1">
			<data axis="3" />
			<input>
				<port id="0" precision="FP32">
					<dim>1</dim>
					<dim>128</dim>
					<dim>16</dim>
					<dim>16</dim>
				</port>
				<port id="1" precision="FP32">
					<dim>1</dim>
					<dim>128</dim>
					<dim>16</dim>
					<dim>1</dim>
				</port>
			</input>
			<output>
				<port id="2" precision="FP32" names="941">
					<dim>1</dim>
					<dim>128</dim>
					<dim>16</dim>
					<dim>17</dim>
				</port>
			</output>
		</layer>
		<layer id="254" name="blocks_down.3.bd.0.conv.weight" type="Const" version="opset1">
			<data element_type="f32" shape="64, 128, 3, 3" offset="910264" size="294912" />
			<output>
				<port id="0" precision="FP32" names="blocks_down.3.bd.0.conv.weight">
					<dim>64</dim>
					<dim>128</dim>
					<dim>3</dim>
					<dim>3</dim>
				</port>
			</output>
		</layer>
		<layer id="255" name="Conv_502/WithoutBiases" type="Convolution" version="opset1">
			<data strides="1, 1" dilations="1, 8" pads_begin="1, 0" pads_end="1, 0" auto_pad="explicit" />
			<input>
				<port id="0" precision="FP32">
					<dim>1</dim>
					<dim>128</dim>
					<dim>16</dim>
					<dim>17</dim>
				</port>
				<port id="1" precision="FP32">
					<dim>64</dim>
					<dim>128</dim>
					<dim>3</dim>
					<dim>3</dim>
				</port>
			</input>
			<output>
				<port id="2" precision="FP32">
					<dim>1</dim>
					<dim>64</dim>
					<dim>16</dim>
					<dim>1</dim>
				</port>
			</output>
		</layer>
		<layer id="256" name="Reshape_1706" type="Const" version="opset1">
			<data element_type="f32" shape="1, 64, 1, 1" offset="1205176" size="256" />
			<output>
				<port id="0" precision="FP32">
					<dim>1</dim>
					<dim>64</dim>
					<dim>1</dim>
					<dim>1</dim>
				</port>
			</output>
		</layer>
		<layer id="257" name="Conv_502" type="Add" version="opset1">
			<data auto_broadcast="numpy" />
			<input>
				<port id="0" precision="FP32">
					<dim>1</dim>
					<dim>64</dim>
					<dim>16</dim>
					<dim>1</dim>
				</port>
				<port id="1" precision="FP32">
					<dim>1</dim>
					<dim>64</dim>
					<dim>1</dim>
					<dim>1</dim>
				</port>
			</input>
			<output>
				<port id="2" precision="FP32" names="979">
					<dim>1</dim>
					<dim>64</dim>
					<dim>16</dim>
					<dim>1</dim>
				</port>
			</output>
		</layer>
		<layer id="258" name="Concat_503" type="Concat" version="opset1">
			<data axis="1" />
			<input>
				<port id="0" precision="FP32">
					<dim>1</dim>
					<dim>128</dim>
					<dim>16</dim>
					<dim>1</dim>
				</port>
				<port id="1" precision="FP32">
					<dim>1</dim>
					<dim>64</dim>
					<dim>16</dim>
					<dim>1</dim>
				</port>
			</input>
			<output>
				<port id="2" precision="FP32" names="980">
					<dim>1</dim>
					<dim>192</dim>
					<dim>16</dim>
					<dim>1</dim>
				</port>
			</output>
		</layer>
		<layer id="259" name="Constant_68162" type="Const" version="opset1">
			<data element_type="f32" shape="1, 192, 1, 1" offset="1205432" size="768" />
			<output>
				<port id="0" precision="FP32">
					<dim>1</dim>
					<dim>192</dim>
					<dim>1</dim>
					<dim>1</dim>
				</port>
			</output>
		</layer>
		<layer id="260" name="Multiply_69657" type="Multiply" version="opset1">
			<data auto_broadcast="numpy" />
			<input>
				<port id="0" precision="FP32">
					<dim>1</dim>
					<dim>192</dim>
					<dim>16</dim>
					<dim>1</dim>
				</port>
				<port id="1" precision="FP32">
					<dim>1</dim>
					<dim>192</dim>
					<dim>1</dim>
					<dim>1</dim>
				</port>
			</input>
			<output>
				<port id="2" precision="FP32">
					<dim>1</dim>
					<dim>192</dim>
					<dim>16</dim>
					<dim>1</dim>
				</port>
			</output>
		</layer>
		<layer id="261" name="Constant_69662" type="Const" version="opset1">
			<data element_type="f32" shape="1, 192, 1, 1" offset="1206200" size="768" />
			<output>
				<port id="0" precision="FP32">
					<dim>1</dim>
					<dim>192</dim>
					<dim>1</dim>
					<dim>1</dim>
				</port>
			</output>
		</layer>
		<layer id="262" name="BatchNormalization_504" type="Add" version="opset1">
			<data auto_broadcast="numpy" />
			<input>
				<port id="0" precision="FP32">
					<dim>1</dim>
					<dim>192</dim>
					<dim>16</dim>
					<dim>1</dim>
				</port>
				<port id="1" precision="FP32">
					<dim>1</dim>
					<dim>192</dim>
					<dim>1</dim>
					<dim>1</dim>
				</port>
			</input>
			<output>
				<port id="2" precision="FP32" names="981">
					<dim>1</dim>
					<dim>192</dim>
					<dim>16</dim>
					<dim>1</dim>
				</port>
			</output>
		</layer>
		<layer id="263" name="Constant_1712" type="Const" version="opset1">
			<data element_type="f32" shape="1" offset="264308" size="4" />
			<output>
				<port id="0" precision="FP32">
					<dim>1</dim>
				</port>
			</output>
		</layer>
		<layer id="264" name="LeakyRelu_505" type="PReLU" version="opset1">
			<input>
				<port id="0" precision="FP32">
					<dim>1</dim>
					<dim>192</dim>
					<dim>16</dim>
					<dim>1</dim>
				</port>
				<port id="1" precision="FP32">
					<dim>1</dim>
				</port>
			</input>
			<output>
				<port id="2" precision="FP32" names="982">
					<dim>1</dim>
					<dim>192</dim>
					<dim>16</dim>
					<dim>1</dim>
				</port>
			</output>
		</layer>
		<layer id="265" name="Concat_506" type="Concat" version="opset1">
			<data axis="3" />
			<input>
				<port id="0" precision="FP32">
					<dim>1</dim>
					<dim>192</dim>
					<dim>16</dim>
					<dim>16</dim>
				</port>
				<port id="1" precision="FP32">
					<dim>1</dim>
					<dim>192</dim>
					<dim>16</dim>
					<dim>1</dim>
				</port>
			</input>
			<output>
				<port id="2" precision="FP32" names="983">
					<dim>1</dim>
					<dim>192</dim>
					<dim>16</dim>
					<dim>17</dim>
				</port>
			</output>
		</layer>
		<layer id="266" name="blocks_down.3.bd.1.conv.weight" type="Const" version="opset1">
			<data element_type="f32" shape="64, 192, 3, 3" offset="1206968" size="442368" />
			<output>
				<port id="0" precision="FP32" names="blocks_down.3.bd.1.conv.weight">
					<dim>64</dim>
					<dim>192</dim>
					<dim>3</dim>
					<dim>3</dim>
				</port>
			</output>
		</layer>
		<layer id="267" name="Conv_533/WithoutBiases" type="Convolution" version="opset1">
			<data strides="1, 1" dilations="1, 8" pads_begin="1, 0" pads_end="1, 0" auto_pad="explicit" />
			<input>
				<port id="0" precision="FP32">
					<dim>1</dim>
					<dim>192</dim>
					<dim>16</dim>
					<dim>17</dim>
				</port>
				<port id="1" precision="FP32">
					<dim>64</dim>
					<dim>192</dim>
					<dim>3</dim>
					<dim>3</dim>
				</port>
			</input>
			<output>
				<port id="2" precision="FP32">
					<dim>1</dim>
					<dim>64</dim>
					<dim>16</dim>
					<dim>1</dim>
				</port>
			</output>
		</layer>
		<layer id="268" name="Reshape_1785" type="Const" version="opset1">
			<data element_type="f32" shape="1, 64, 1, 1" offset="1649336" size="256" />
			<output>
				<port id="0" precision="FP32">
					<dim>1</dim>
					<dim>64</dim>
					<dim>1</dim>
					<dim>1</dim>
				</port>
			</output>
		</layer>
		<layer id="269" name="Conv_533" type="Add" version="opset1">
			<data auto_broadcast="numpy" />
			<input>
				<port id="0" precision="FP32">
					<dim>1</dim>
					<dim>64</dim>
					<dim>16</dim>
					<dim>1</dim>
				</port>
				<port id="1" precision="FP32">
					<dim>1</dim>
					<dim>64</dim>
					<dim>1</dim>
					<dim>1</dim>
				</port>
			</input>
			<output>
				<port id="2" precision="FP32" names="1021">
					<dim>1</dim>
					<dim>64</dim>
					<dim>16</dim>
					<dim>1</dim>
				</port>
			</output>
		</layer>
		<layer id="270" name="Concat_534" type="Concat" version="opset1">
			<data axis="1" />
			<input>
				<port id="0" precision="FP32">
					<dim>1</dim>
					<dim>192</dim>
					<dim>16</dim>
					<dim>1</dim>
				</port>
				<port id="1" precision="FP32">
					<dim>1</dim>
					<dim>64</dim>
					<dim>16</dim>
					<dim>1</dim>
				</port>
			</input>
			<output>
				<port id="2" precision="FP32" names="1022">
					<dim>1</dim>
					<dim>256</dim>
					<dim>16</dim>
					<dim>1</dim>
				</port>
			</output>
		</layer>
		<layer id="271" name="Constant_68228" type="Const" version="opset1">
			<data element_type="f32" shape="1, 256, 1, 1" offset="1649592" size="1024" />
			<output>
				<port id="0" precision="FP32">
					<dim>1</dim>
					<dim>256</dim>
					<dim>1</dim>
					<dim>1</dim>
				</port>
			</output>
		</layer>
		<layer id="272" name="Multiply_69664" type="Multiply" version="opset1">
			<data auto_broadcast="numpy" />
			<input>
				<port id="0" precision="FP32">
					<dim>1</dim>
					<dim>256</dim>
					<dim>16</dim>
					<dim>1</dim>
				</port>
				<port id="1" precision="FP32">
					<dim>1</dim>
					<dim>256</dim>
					<dim>1</dim>
					<dim>1</dim>
				</port>
			</input>
			<output>
				<port id="2" precision="FP32">
					<dim>1</dim>
					<dim>256</dim>
					<dim>16</dim>
					<dim>1</dim>
				</port>
			</output>
		</layer>
		<layer id="273" name="Constant_69669" type="Const" version="opset1">
			<data element_type="f32" shape="1, 256, 1, 1" offset="1650616" size="1024" />
			<output>
				<port id="0" precision="FP32">
					<dim>1</dim>
					<dim>256</dim>
					<dim>1</dim>
					<dim>1</dim>
				</port>
			</output>
		</layer>
		<layer id="274" name="BatchNormalization_535" type="Add" version="opset1">
			<data auto_broadcast="numpy" />
			<input>
				<port id="0" precision="FP32">
					<dim>1</dim>
					<dim>256</dim>
					<dim>16</dim>
					<dim>1</dim>
				</port>
				<port id="1" precision="FP32">
					<dim>1</dim>
					<dim>256</dim>
					<dim>1</dim>
					<dim>1</dim>
				</port>
			</input>
			<output>
				<port id="2" precision="FP32" names="1023">
					<dim>1</dim>
					<dim>256</dim>
					<dim>16</dim>
					<dim>1</dim>
				</port>
			</output>
		</layer>
		<layer id="275" name="Constant_1791" type="Const" version="opset1">
			<data element_type="f32" shape="1" offset="264308" size="4" />
			<output>
				<port id="0" precision="FP32">
					<dim>1</dim>
				</port>
			</output>
		</layer>
		<layer id="276" name="LeakyRelu_536" type="PReLU" version="opset1">
			<input>
				<port id="0" precision="FP32">
					<dim>1</dim>
					<dim>256</dim>
					<dim>16</dim>
					<dim>1</dim>
				</port>
				<port id="1" precision="FP32">
					<dim>1</dim>
				</port>
			</input>
			<output>
				<port id="2" precision="FP32" names="1024,1048">
					<dim>1</dim>
					<dim>256</dim>
					<dim>16</dim>
					<dim>1</dim>
				</port>
			</output>
		</layer>
		<layer id="277" name="blocks_down.3.bd_out.conv.weight" type="Const" version="opset1">
			<data element_type="f32" shape="256, 256, 1, 1" offset="1651640" size="262144" />
			<output>
				<port id="0" precision="FP32" names="blocks_down.3.bd_out.conv.weight">
					<dim>256</dim>
					<dim>256</dim>
					<dim>1</dim>
					<dim>1</dim>
				</port>
			</output>
		</layer>
		<layer id="278" name="Conv_552/WithoutBiases" type="Convolution" version="opset1">
			<data strides="1, 1" dilations="1, 8" pads_begin="0, 0" pads_end="0, 0" auto_pad="explicit" />
			<input>
				<port id="0" precision="FP32">
					<dim>1</dim>
					<dim>256</dim>
					<dim>16</dim>
					<dim>1</dim>
				</port>
				<port id="1" precision="FP32">
					<dim>256</dim>
					<dim>256</dim>
					<dim>1</dim>
					<dim>1</dim>
				</port>
			</input>
			<output>
				<port id="2" precision="FP32">
					<dim>1</dim>
					<dim>256</dim>
					<dim>16</dim>
					<dim>1</dim>
				</port>
			</output>
		</layer>
		<layer id="279" name="Reshape_1840" type="Const" version="opset1">
			<data element_type="f32" shape="1, 256, 1, 1" offset="1913784" size="1024" />
			<output>
				<port id="0" precision="FP32">
					<dim>1</dim>
					<dim>256</dim>
					<dim>1</dim>
					<dim>1</dim>
				</port>
			</output>
		</layer>
		<layer id="280" name="Conv_552" type="Add" version="opset1">
			<data auto_broadcast="numpy" />
			<input>
				<port id="0" precision="FP32">
					<dim>1</dim>
					<dim>256</dim>
					<dim>16</dim>
					<dim>1</dim>
				</port>
				<port id="1" precision="FP32">
					<dim>1</dim>
					<dim>256</dim>
					<dim>1</dim>
					<dim>1</dim>
				</port>
			</input>
			<output>
				<port id="2" precision="FP32" names="1049">
					<dim>1</dim>
					<dim>256</dim>
					<dim>16</dim>
					<dim>1</dim>
				</port>
			</output>
		</layer>
		<layer id="281" name="Concat_553" type="Concat" version="opset1">
			<data axis="3" />
			<input>
				<port id="0" precision="FP32">
					<dim>1</dim>
					<dim>256</dim>
					<dim>16</dim>
					<dim>1</dim>
				</port>
				<port id="1" precision="FP32">
					<dim>1</dim>
					<dim>256</dim>
					<dim>16</dim>
					<dim>1</dim>
				</port>
			</input>
			<output>
				<port id="2" precision="FP32" names="1050,1065">
					<dim>1</dim>
					<dim>256</dim>
					<dim>16</dim>
					<dim>2</dim>
				</port>
			</output>
		</layer>
		<layer id="282" name="AveragePool_567" type="AvgPool" version="opset1">
			<data kernel="2, 2" strides="2, 1" pads_begin="0, 0" pads_end="0, 0" exclude-pad="true" auto_pad="explicit" rounding_type="floor" />
			<input>
				<port id="0" precision="FP32">
					<dim>1</dim>
					<dim>256</dim>
					<dim>16</dim>
					<dim>2</dim>
				</port>
			</input>
			<output>
				<port id="1" precision="FP32" names="1066">
					<dim>1</dim>
					<dim>256</dim>
					<dim>8</dim>
					<dim>1</dim>
				</port>
			</output>
		</layer>
		<layer id="283" name="Constant_68294" type="Const" version="opset1">
			<data element_type="f32" shape="1, 256, 1, 1" offset="1914808" size="1024" />
			<output>
				<port id="0" precision="FP32">
					<dim>1</dim>
					<dim>256</dim>
					<dim>1</dim>
					<dim>1</dim>
				</port>
			</output>
		</layer>
		<layer id="284" name="Multiply_69671" type="Multiply" version="opset1">
			<data auto_broadcast="numpy" />
			<input>
				<port id="0" precision="FP32">
					<dim>1</dim>
					<dim>256</dim>
					<dim>8</dim>
					<dim>1</dim>
				</port>
				<port id="1" precision="FP32">
					<dim>1</dim>
					<dim>256</dim>
					<dim>1</dim>
					<dim>1</dim>
				</port>
			</input>
			<output>
				<port id="2" precision="FP32">
					<dim>1</dim>
					<dim>256</dim>
					<dim>8</dim>
					<dim>1</dim>
				</port>
			</output>
		</layer>
		<layer id="285" name="Constant_69676" type="Const" version="opset1">
			<data element_type="f32" shape="1, 256, 1, 1" offset="1915832" size="1024" />
			<output>
				<port id="0" precision="FP32">
					<dim>1</dim>
					<dim>256</dim>
					<dim>1</dim>
					<dim>1</dim>
				</port>
			</output>
		</layer>
		<layer id="286" name="BatchNormalization_568" type="Add" version="opset1">
			<data auto_broadcast="numpy" />
			<input>
				<port id="0" precision="FP32">
					<dim>1</dim>
					<dim>256</dim>
					<dim>8</dim>
					<dim>1</dim>
				</port>
				<port id="1" precision="FP32">
					<dim>1</dim>
					<dim>256</dim>
					<dim>1</dim>
					<dim>1</dim>
				</port>
			</input>
			<output>
				<port id="2" precision="FP32" names="1067">
					<dim>1</dim>
					<dim>256</dim>
					<dim>8</dim>
					<dim>1</dim>
				</port>
			</output>
		</layer>
		<layer id="287" name="Constant_1875" type="Const" version="opset1">
			<data element_type="f32" shape="1" offset="264308" size="4" />
			<output>
				<port id="0" precision="FP32">
					<dim>1</dim>
				</port>
			</output>
		</layer>
		<layer id="288" name="LeakyRelu_569" type="PReLU" version="opset1">
			<input>
				<port id="0" precision="FP32">
					<dim>1</dim>
					<dim>256</dim>
					<dim>8</dim>
					<dim>1</dim>
				</port>
				<port id="1" precision="FP32">
					<dim>1</dim>
				</port>
			</input>
			<output>
				<port id="2" precision="FP32" names="1068">
					<dim>1</dim>
					<dim>256</dim>
					<dim>8</dim>
					<dim>1</dim>
				</port>
			</output>
		</layer>
		<layer id="289" name="Concat_570" type="Concat" version="opset1">
			<data axis="3" />
			<input>
				<port id="0" precision="FP32">
					<dim>1</dim>
					<dim>256</dim>
					<dim>8</dim>
					<dim>32</dim>
				</port>
				<port id="1" precision="FP32">
					<dim>1</dim>
					<dim>256</dim>
					<dim>8</dim>
					<dim>1</dim>
				</port>
			</input>
			<output>
				<port id="2" precision="FP32" names="1069">
					<dim>1</dim>
					<dim>256</dim>
					<dim>8</dim>
					<dim>33</dim>
				</port>
			</output>
		</layer>
		<layer id="290" name="block_bottom.bd.0.conv.weight" type="Const" version="opset1">
			<data element_type="f32" shape="128, 256, 3, 3" offset="1916856" size="1179648" />
			<output>
				<port id="0" precision="FP32" names="block_bottom.bd.0.conv.weight">
					<dim>128</dim>
					<dim>256</dim>
					<dim>3</dim>
					<dim>3</dim>
				</port>
			</output>
		</layer>
		<layer id="291" name="Conv_597/WithoutBiases" type="Convolution" version="opset1">
			<data strides="1, 1" dilations="1, 16" pads_begin="1, 0" pads_end="1, 0" auto_pad="explicit" />
			<input>
				<port id="0" precision="FP32">
					<dim>1</dim>
					<dim>256</dim>
					<dim>8</dim>
					<dim>33</dim>
				</port>
				<port id="1" precision="FP32">
					<dim>128</dim>
					<dim>256</dim>
					<dim>3</dim>
					<dim>3</dim>
				</port>
			</input>
			<output>
				<port id="2" precision="FP32">
					<dim>1</dim>
					<dim>128</dim>
					<dim>8</dim>
					<dim>1</dim>
				</port>
			</output>
		</layer>
		<layer id="292" name="Reshape_1948" type="Const" version="opset1">
			<data element_type="f32" shape="1, 128, 1, 1" offset="3096504" size="512" />
			<output>
				<port id="0" precision="FP32">
					<dim>1</dim>
					<dim>128</dim>
					<dim>1</dim>
					<dim>1</dim>
				</port>
			</output>
		</layer>
		<layer id="293" name="Conv_597" type="Add" version="opset1">
			<data auto_broadcast="numpy" />
			<input>
				<port id="0" precision="FP32">
					<dim>1</dim>
					<dim>128</dim>
					<dim>8</dim>
					<dim>1</dim>
				</port>
				<port id="1" precision="FP32">
					<dim>1</dim>
					<dim>128</dim>
					<dim>1</dim>
					<dim>1</dim>
				</port>
			</input>
			<output>
				<port id="2" precision="FP32" names="1107">
					<dim>1</dim>
					<dim>128</dim>
					<dim>8</dim>
					<dim>1</dim>
				</port>
			</output>
		</layer>
		<layer id="294" name="Concat_598" type="Concat" version="opset1">
			<data axis="1" />
			<input>
				<port id="0" precision="FP32">
					<dim>1</dim>
					<dim>256</dim>
					<dim>8</dim>
					<dim>1</dim>
				</port>
				<port id="1" precision="FP32">
					<dim>1</dim>
					<dim>128</dim>
					<dim>8</dim>
					<dim>1</dim>
				</port>
			</input>
			<output>
				<port id="2" precision="FP32" names="1108">
					<dim>1</dim>
					<dim>384</dim>
					<dim>8</dim>
					<dim>1</dim>
				</port>
			</output>
		</layer>
		<layer id="295" name="Constant_68360" type="Const" version="opset1">
			<data element_type="f32" shape="1, 384, 1, 1" offset="3097016" size="1536" />
			<output>
				<port id="0" precision="FP32">
					<dim>1</dim>
					<dim>384</dim>
					<dim>1</dim>
					<dim>1</dim>
				</port>
			</output>
		</layer>
		<layer id="296" name="Multiply_69678" type="Multiply" version="opset1">
			<data auto_broadcast="numpy" />
			<input>
				<port id="0" precision="FP32">
					<dim>1</dim>
					<dim>384</dim>
					<dim>8</dim>
					<dim>1</dim>
				</port>
				<port id="1" precision="FP32">
					<dim>1</dim>
					<dim>384</dim>
					<dim>1</dim>
					<dim>1</dim>
				</port>
			</input>
			<output>
				<port id="2" precision="FP32">
					<dim>1</dim>
					<dim>384</dim>
					<dim>8</dim>
					<dim>1</dim>
				</port>
			</output>
		</layer>
		<layer id="297" name="Constant_69683" type="Const" version="opset1">
			<data element_type="f32" shape="1, 384, 1, 1" offset="3098552" size="1536" />
			<output>
				<port id="0" precision="FP32">
					<dim>1</dim>
					<dim>384</dim>
					<dim>1</dim>
					<dim>1</dim>
				</port>
			</output>
		</layer>
		<layer id="298" name="BatchNormalization_599" type="Add" version="opset1">
			<data auto_broadcast="numpy" />
			<input>
				<port id="0" precision="FP32">
					<dim>1</dim>
					<dim>384</dim>
					<dim>8</dim>
					<dim>1</dim>
				</port>
				<port id="1" precision="FP32">
					<dim>1</dim>
					<dim>384</dim>
					<dim>1</dim>
					<dim>1</dim>
				</port>
			</input>
			<output>
				<port id="2" precision="FP32" names="1109">
					<dim>1</dim>
					<dim>384</dim>
					<dim>8</dim>
					<dim>1</dim>
				</port>
			</output>
		</layer>
		<layer id="299" name="Constant_1954" type="Const" version="opset1">
			<data element_type="f32" shape="1" offset="264308" size="4" />
			<output>
				<port id="0" precision="FP32">
					<dim>1</dim>
				</port>
			</output>
		</layer>
		<layer id="300" name="LeakyRelu_600" type="PReLU" version="opset1">
			<input>
				<port id="0" precision="FP32">
					<dim>1</dim>
					<dim>384</dim>
					<dim>8</dim>
					<dim>1</dim>
				</port>
				<port id="1" precision="FP32">
					<dim>1</dim>
				</port>
			</input>
			<output>
				<port id="2" precision="FP32" names="1110">
					<dim>1</dim>
					<dim>384</dim>
					<dim>8</dim>
					<dim>1</dim>
				</port>
			</output>
		</layer>
		<layer id="301" name="Concat_601" type="Concat" version="opset1">
			<data axis="3" />
			<input>
				<port id="0" precision="FP32">
					<dim>1</dim>
					<dim>384</dim>
					<dim>8</dim>
					<dim>32</dim>
				</port>
				<port id="1" precision="FP32">
					<dim>1</dim>
					<dim>384</dim>
					<dim>8</dim>
					<dim>1</dim>
				</port>
			</input>
			<output>
				<port id="2" precision="FP32" names="1111">
					<dim>1</dim>
					<dim>384</dim>
					<dim>8</dim>
					<dim>33</dim>
				</port>
			</output>
		</layer>
		<layer id="302" name="block_bottom.bd.1.conv.weight" type="Const" version="opset1">
			<data element_type="f32" shape="128, 384, 3, 3" offset="3100088" size="1769472" />
			<output>
				<port id="0" precision="FP32" names="block_bottom.bd.1.conv.weight">
					<dim>128</dim>
					<dim>384</dim>
					<dim>3</dim>
					<dim>3</dim>
				</port>
			</output>
		</layer>
		<layer id="303" name="Conv_628/WithoutBiases" type="Convolution" version="opset1">
			<data strides="1, 1" dilations="1, 16" pads_begin="1, 0" pads_end="1, 0" auto_pad="explicit" />
			<input>
				<port id="0" precision="FP32">
					<dim>1</dim>
					<dim>384</dim>
					<dim>8</dim>
					<dim>33</dim>
				</port>
				<port id="1" precision="FP32">
					<dim>128</dim>
					<dim>384</dim>
					<dim>3</dim>
					<dim>3</dim>
				</port>
			</input>
			<output>
				<port id="2" precision="FP32">
					<dim>1</dim>
					<dim>128</dim>
					<dim>8</dim>
					<dim>1</dim>
				</port>
			</output>
		</layer>
		<layer id="304" name="Reshape_2027" type="Const" version="opset1">
			<data element_type="f32" shape="1, 128, 1, 1" offset="4869560" size="512" />
			<output>
				<port id="0" precision="FP32">
					<dim>1</dim>
					<dim>128</dim>
					<dim>1</dim>
					<dim>1</dim>
				</port>
			</output>
		</layer>
		<layer id="305" name="Conv_628" type="Add" version="opset1">
			<data auto_broadcast="numpy" />
			<input>
				<port id="0" precision="FP32">
					<dim>1</dim>
					<dim>128</dim>
					<dim>8</dim>
					<dim>1</dim>
				</port>
				<port id="1" precision="FP32">
					<dim>1</dim>
					<dim>128</dim>
					<dim>1</dim>
					<dim>1</dim>
				</port>
			</input>
			<output>
				<port id="2" precision="FP32" names="1149">
					<dim>1</dim>
					<dim>128</dim>
					<dim>8</dim>
					<dim>1</dim>
				</port>
			</output>
		</layer>
		<layer id="306" name="Concat_629" type="Concat" version="opset1">
			<data axis="1" />
			<input>
				<port id="0" precision="FP32">
					<dim>1</dim>
					<dim>384</dim>
					<dim>8</dim>
					<dim>1</dim>
				</port>
				<port id="1" precision="FP32">
					<dim>1</dim>
					<dim>128</dim>
					<dim>8</dim>
					<dim>1</dim>
				</port>
			</input>
			<output>
				<port id="2" precision="FP32" names="1150">
					<dim>1</dim>
					<dim>512</dim>
					<dim>8</dim>
					<dim>1</dim>
				</port>
			</output>
		</layer>
		<layer id="307" name="Constant_68426" type="Const" version="opset1">
			<data element_type="f32" shape="1, 512, 1, 1" offset="4870072" size="2048" />
			<output>
				<port id="0" precision="FP32">
					<dim>1</dim>
					<dim>512</dim>
					<dim>1</dim>
					<dim>1</dim>
				</port>
			</output>
		</layer>
		<layer id="308" name="Multiply_69685" type="Multiply" version="opset1">
			<data auto_broadcast="numpy" />
			<input>
				<port id="0" precision="FP32">
					<dim>1</dim>
					<dim>512</dim>
					<dim>8</dim>
					<dim>1</dim>
				</port>
				<port id="1" precision="FP32">
					<dim>1</dim>
					<dim>512</dim>
					<dim>1</dim>
					<dim>1</dim>
				</port>
			</input>
			<output>
				<port id="2" precision="FP32">
					<dim>1</dim>
					<dim>512</dim>
					<dim>8</dim>
					<dim>1</dim>
				</port>
			</output>
		</layer>
		<layer id="309" name="Constant_69690" type="Const" version="opset1">
			<data element_type="f32" shape="1, 512, 1, 1" offset="4872120" size="2048" />
			<output>
				<port id="0" precision="FP32">
					<dim>1</dim>
					<dim>512</dim>
					<dim>1</dim>
					<dim>1</dim>
				</port>
			</output>
		</layer>
		<layer id="310" name="BatchNormalization_630" type="Add" version="opset1">
			<data auto_broadcast="numpy" />
			<input>
				<port id="0" precision="FP32">
					<dim>1</dim>
					<dim>512</dim>
					<dim>8</dim>
					<dim>1</dim>
				</port>
				<port id="1" precision="FP32">
					<dim>1</dim>
					<dim>512</dim>
					<dim>1</dim>
					<dim>1</dim>
				</port>
			</input>
			<output>
				<port id="2" precision="FP32" names="1151">
					<dim>1</dim>
					<dim>512</dim>
					<dim>8</dim>
					<dim>1</dim>
				</port>
			</output>
		</layer>
		<layer id="311" name="Constant_2033" type="Const" version="opset1">
			<data element_type="f32" shape="1" offset="264308" size="4" />
			<output>
				<port id="0" precision="FP32">
					<dim>1</dim>
				</port>
			</output>
		</layer>
		<layer id="312" name="LeakyRelu_631" type="PReLU" version="opset1">
			<input>
				<port id="0" precision="FP32">
					<dim>1</dim>
					<dim>512</dim>
					<dim>8</dim>
					<dim>1</dim>
				</port>
				<port id="1" precision="FP32">
					<dim>1</dim>
				</port>
			</input>
			<output>
				<port id="2" precision="FP32" names="1152,1176">
					<dim>1</dim>
					<dim>512</dim>
					<dim>8</dim>
					<dim>1</dim>
				</port>
			</output>
		</layer>
		<layer id="313" name="block_bottom.bd_out.conv.weight" type="Const" version="opset1">
			<data element_type="f32" shape="256, 512, 1, 1" offset="4874168" size="524288" />
			<output>
				<port id="0" precision="FP32" names="block_bottom.bd_out.conv.weight">
					<dim>256</dim>
					<dim>512</dim>
					<dim>1</dim>
					<dim>1</dim>
				</port>
			</output>
		</layer>
		<layer id="314" name="Conv_647/WithoutBiases" type="Convolution" version="opset1">
			<data strides="1, 1" dilations="1, 16" pads_begin="0, 0" pads_end="0, 0" auto_pad="explicit" />
			<input>
				<port id="0" precision="FP32">
					<dim>1</dim>
					<dim>512</dim>
					<dim>8</dim>
					<dim>1</dim>
				</port>
				<port id="1" precision="FP32">
					<dim>256</dim>
					<dim>512</dim>
					<dim>1</dim>
					<dim>1</dim>
				</port>
			</input>
			<output>
				<port id="2" precision="FP32">
					<dim>1</dim>
					<dim>256</dim>
					<dim>8</dim>
					<dim>1</dim>
				</port>
			</output>
		</layer>
		<layer id="315" name="Reshape_2082" type="Const" version="opset1">
			<data element_type="f32" shape="1, 256, 1, 1" offset="5398456" size="1024" />
			<output>
				<port id="0" precision="FP32">
					<dim>1</dim>
					<dim>256</dim>
					<dim>1</dim>
					<dim>1</dim>
				</port>
			</output>
		</layer>
		<layer id="316" name="Conv_647" type="Add" version="opset1">
			<data auto_broadcast="numpy" />
			<input>
				<port id="0" precision="FP32">
					<dim>1</dim>
					<dim>256</dim>
					<dim>8</dim>
					<dim>1</dim>
				</port>
				<port id="1" precision="FP32">
					<dim>1</dim>
					<dim>256</dim>
					<dim>1</dim>
					<dim>1</dim>
				</port>
			</input>
			<output>
				<port id="2" precision="FP32" names="1177">
					<dim>1</dim>
					<dim>256</dim>
					<dim>8</dim>
					<dim>1</dim>
				</port>
			</output>
		</layer>
		<layer id="317" name="2222" type="Const" version="opset1">
			<data element_type="f32" shape="4" offset="5399480" size="16" />
			<output>
				<port id="0" precision="FP32" names="2222">
					<dim>4</dim>
				</port>
			</output>
		</layer>
		<layer id="318" name="Resize_649" type="Interpolate" version="opset11">
			<data mode="nearest" shape_calculation_mode="scales" coordinate_transformation_mode="asymmetric" nearest_mode="floor" antialias="false" pads_begin="0, 0, 0, 0" pads_end="0, 0, 0, 0" cube_coeff="-0.75" />
			<input>
				<port id="0" precision="FP32">
					<dim>1</dim>
					<dim>256</dim>
					<dim>8</dim>
					<dim>1</dim>
				</port>
				<port id="1" precision="FP32">
					<dim>4</dim>
				</port>
			</input>
			<output>
				<port id="2" precision="FP32" names="1182">
					<dim>1</dim>
					<dim>256</dim>
					<dim>16</dim>
					<dim>1</dim>
				</port>
			</output>
		</layer>
		<layer id="319" name="Concat_650" type="Concat" version="opset1">
			<data axis="1" />
			<input>
				<port id="0" precision="FP32">
					<dim>1</dim>
					<dim>256</dim>
					<dim>16</dim>
					<dim>1</dim>
				</port>
				<port id="1" precision="FP32">
					<dim>1</dim>
					<dim>256</dim>
					<dim>16</dim>
					<dim>1</dim>
				</port>
			</input>
			<output>
				<port id="2" precision="FP32" names="1183">
					<dim>1</dim>
					<dim>512</dim>
					<dim>16</dim>
					<dim>1</dim>
				</port>
			</output>
		</layer>
		<layer id="320" name="Concat_651" type="Concat" version="opset1">
			<data axis="3" />
			<input>
				<port id="0" precision="FP32">
					<dim>1</dim>
					<dim>512</dim>
					<dim>16</dim>
					<dim>16</dim>
				</port>
				<port id="1" precision="FP32">
					<dim>1</dim>
					<dim>512</dim>
					<dim>16</dim>
					<dim>1</dim>
				</port>
			</input>
			<output>
				<port id="2" precision="FP32" names="1184">
					<dim>1</dim>
					<dim>512</dim>
					<dim>16</dim>
					<dim>17</dim>
				</port>
			</output>
		</layer>
		<layer id="321" name="convs_up.0.weight" type="Const" version="opset1">
			<data element_type="f32" shape="256, 512, 3, 3" offset="5399496" size="4718592" />
			<output>
				<port id="0" precision="FP32" names="convs_up.0.weight">
					<dim>256</dim>
					<dim>512</dim>
					<dim>3</dim>
					<dim>3</dim>
				</port>
			</output>
		</layer>
		<layer id="322" name="Conv_678/WithoutBiases" type="Convolution" version="opset1">
			<data strides="1, 1" dilations="1, 8" pads_begin="1, 0" pads_end="1, 0" auto_pad="explicit" />
			<input>
				<port id="0" precision="FP32">
					<dim>1</dim>
					<dim>512</dim>
					<dim>16</dim>
					<dim>17</dim>
				</port>
				<port id="1" precision="FP32">
					<dim>256</dim>
					<dim>512</dim>
					<dim>3</dim>
					<dim>3</dim>
				</port>
			</input>
			<output>
				<port id="2" precision="FP32">
					<dim>1</dim>
					<dim>256</dim>
					<dim>16</dim>
					<dim>1</dim>
				</port>
			</output>
		</layer>
		<layer id="323" name="Reshape_2160" type="Const" version="opset1">
			<data element_type="f32" shape="1, 256, 1, 1" offset="10118088" size="1024" />
			<output>
				<port id="0" precision="FP32">
					<dim>1</dim>
					<dim>256</dim>
					<dim>1</dim>
					<dim>1</dim>
				</port>
			</output>
		</layer>
		<layer id="324" name="Conv_678" type="Add" version="opset1">
			<data auto_broadcast="numpy" />
			<input>
				<port id="0" precision="FP32">
					<dim>1</dim>
					<dim>256</dim>
					<dim>16</dim>
					<dim>1</dim>
				</port>
				<port id="1" precision="FP32">
					<dim>1</dim>
					<dim>256</dim>
					<dim>1</dim>
					<dim>1</dim>
				</port>
			</input>
			<output>
				<port id="2" precision="FP32" names="1222">
					<dim>1</dim>
					<dim>256</dim>
					<dim>16</dim>
					<dim>1</dim>
				</port>
			</output>
		</layer>
		<layer id="325" name="Constant_68492" type="Const" version="opset1">
			<data element_type="f32" shape="1, 256, 1, 1" offset="10119112" size="1024" />
			<output>
				<port id="0" precision="FP32">
					<dim>1</dim>
					<dim>256</dim>
					<dim>1</dim>
					<dim>1</dim>
				</port>
			</output>
		</layer>
		<layer id="326" name="Multiply_69692" type="Multiply" version="opset1">
			<data auto_broadcast="numpy" />
			<input>
				<port id="0" precision="FP32">
					<dim>1</dim>
					<dim>256</dim>
					<dim>16</dim>
					<dim>1</dim>
				</port>
				<port id="1" precision="FP32">
					<dim>1</dim>
					<dim>256</dim>
					<dim>1</dim>
					<dim>1</dim>
				</port>
			</input>
			<output>
				<port id="2" precision="FP32">
					<dim>1</dim>
					<dim>256</dim>
					<dim>16</dim>
					<dim>1</dim>
				</port>
			</output>
		</layer>
		<layer id="327" name="Constant_69697" type="Const" version="opset1">
			<data element_type="f32" shape="1, 256, 1, 1" offset="10120136" size="1024" />
			<output>
				<port id="0" precision="FP32">
					<dim>1</dim>
					<dim>256</dim>
					<dim>1</dim>
					<dim>1</dim>
				</port>
			</output>
		</layer>
		<layer id="328" name="BatchNormalization_679" type="Add" version="opset1">
			<data auto_broadcast="numpy" />
			<input>
				<port id="0" precision="FP32">
					<dim>1</dim>
					<dim>256</dim>
					<dim>16</dim>
					<dim>1</dim>
				</port>
				<port id="1" precision="FP32">
					<dim>1</dim>
					<dim>256</dim>
					<dim>1</dim>
					<dim>1</dim>
				</port>
			</input>
			<output>
				<port id="2" precision="FP32" names="1223">
					<dim>1</dim>
					<dim>256</dim>
					<dim>16</dim>
					<dim>1</dim>
				</port>
			</output>
		</layer>
		<layer id="329" name="Constant_2165" type="Const" version="opset1">
			<data element_type="f32" shape="1" offset="264308" size="4" />
			<output>
				<port id="0" precision="FP32">
					<dim>1</dim>
				</port>
			</output>
		</layer>
		<layer id="330" name="LeakyRelu_680" type="PReLU" version="opset1">
			<input>
				<port id="0" precision="FP32">
					<dim>1</dim>
					<dim>256</dim>
					<dim>16</dim>
					<dim>1</dim>
				</port>
				<port id="1" precision="FP32">
					<dim>1</dim>
				</port>
			</input>
			<output>
				<port id="2" precision="FP32" names="1224">
					<dim>1</dim>
					<dim>256</dim>
					<dim>16</dim>
					<dim>1</dim>
				</port>
			</output>
		</layer>
		<layer id="331" name="Concat_681" type="Concat" version="opset1">
			<data axis="3" />
			<input>
				<port id="0" precision="FP32">
					<dim>1</dim>
					<dim>256</dim>
					<dim>16</dim>
					<dim>16</dim>
				</port>
				<port id="1" precision="FP32">
					<dim>1</dim>
					<dim>256</dim>
					<dim>16</dim>
					<dim>1</dim>
				</port>
			</input>
			<output>
				<port id="2" precision="FP32" names="1225">
					<dim>1</dim>
					<dim>256</dim>
					<dim>16</dim>
					<dim>17</dim>
				</port>
			</output>
		</layer>
		<layer id="332" name="blocks_up.0.bd.0.conv.weight" type="Const" version="opset1">
			<data element_type="f32" shape="128, 256, 3, 3" offset="10121160" size="1179648" />
			<output>
				<port id="0" precision="FP32" names="blocks_up.0.bd.0.conv.weight">
					<dim>128</dim>
					<dim>256</dim>
					<dim>3</dim>
					<dim>3</dim>
				</port>
			</output>
		</layer>
		<layer id="333" name="Conv_708/WithoutBiases" type="Convolution" version="opset1">
			<data strides="1, 1" dilations="1, 8" pads_begin="1, 0" pads_end="1, 0" auto_pad="explicit" />
			<input>
				<port id="0" precision="FP32">
					<dim>1</dim>
					<dim>256</dim>
					<dim>16</dim>
					<dim>17</dim>
				</port>
				<port id="1" precision="FP32">
					<dim>128</dim>
					<dim>256</dim>
					<dim>3</dim>
					<dim>3</dim>
				</port>
			</input>
			<output>
				<port id="2" precision="FP32">
					<dim>1</dim>
					<dim>128</dim>
					<dim>16</dim>
					<dim>1</dim>
				</port>
			</output>
		</layer>
		<layer id="334" name="Reshape_2238" type="Const" version="opset1">
			<data element_type="f32" shape="1, 128, 1, 1" offset="11300808" size="512" />
			<output>
				<port id="0" precision="FP32">
					<dim>1</dim>
					<dim>128</dim>
					<dim>1</dim>
					<dim>1</dim>
				</port>
			</output>
		</layer>
		<layer id="335" name="Conv_708" type="Add" version="opset1">
			<data auto_broadcast="numpy" />
			<input>
				<port id="0" precision="FP32">
					<dim>1</dim>
					<dim>128</dim>
					<dim>16</dim>
					<dim>1</dim>
				</port>
				<port id="1" precision="FP32">
					<dim>1</dim>
					<dim>128</dim>
					<dim>1</dim>
					<dim>1</dim>
				</port>
			</input>
			<output>
				<port id="2" precision="FP32" names="1263">
					<dim>1</dim>
					<dim>128</dim>
					<dim>16</dim>
					<dim>1</dim>
				</port>
			</output>
		</layer>
		<layer id="336" name="Concat_709" type="Concat" version="opset1">
			<data axis="1" />
			<input>
				<port id="0" precision="FP32">
					<dim>1</dim>
					<dim>256</dim>
					<dim>16</dim>
					<dim>1</dim>
				</port>
				<port id="1" precision="FP32">
					<dim>1</dim>
					<dim>128</dim>
					<dim>16</dim>
					<dim>1</dim>
				</port>
			</input>
			<output>
				<port id="2" precision="FP32" names="1264">
					<dim>1</dim>
					<dim>384</dim>
					<dim>16</dim>
					<dim>1</dim>
				</port>
			</output>
		</layer>
		<layer id="337" name="Constant_68558" type="Const" version="opset1">
			<data element_type="f32" shape="1, 384, 1, 1" offset="11301320" size="1536" />
			<output>
				<port id="0" precision="FP32">
					<dim>1</dim>
					<dim>384</dim>
					<dim>1</dim>
					<dim>1</dim>
				</port>
			</output>
		</layer>
		<layer id="338" name="Multiply_69699" type="Multiply" version="opset1">
			<data auto_broadcast="numpy" />
			<input>
				<port id="0" precision="FP32">
					<dim>1</dim>
					<dim>384</dim>
					<dim>16</dim>
					<dim>1</dim>
				</port>
				<port id="1" precision="FP32">
					<dim>1</dim>
					<dim>384</dim>
					<dim>1</dim>
					<dim>1</dim>
				</port>
			</input>
			<output>
				<port id="2" precision="FP32">
					<dim>1</dim>
					<dim>384</dim>
					<dim>16</dim>
					<dim>1</dim>
				</port>
			</output>
		</layer>
		<layer id="339" name="Constant_69704" type="Const" version="opset1">
			<data element_type="f32" shape="1, 384, 1, 1" offset="11302856" size="1536" />
			<output>
				<port id="0" precision="FP32">
					<dim>1</dim>
					<dim>384</dim>
					<dim>1</dim>
					<dim>1</dim>
				</port>
			</output>
		</layer>
		<layer id="340" name="BatchNormalization_710" type="Add" version="opset1">
			<data auto_broadcast="numpy" />
			<input>
				<port id="0" precision="FP32">
					<dim>1</dim>
					<dim>384</dim>
					<dim>16</dim>
					<dim>1</dim>
				</port>
				<port id="1" precision="FP32">
					<dim>1</dim>
					<dim>384</dim>
					<dim>1</dim>
					<dim>1</dim>
				</port>
			</input>
			<output>
				<port id="2" precision="FP32" names="1265">
					<dim>1</dim>
					<dim>384</dim>
					<dim>16</dim>
					<dim>1</dim>
				</port>
			</output>
		</layer>
		<layer id="341" name="Constant_2244" type="Const" version="opset1">
			<data element_type="f32" shape="1" offset="264308" size="4" />
			<output>
				<port id="0" precision="FP32">
					<dim>1</dim>
				</port>
			</output>
		</layer>
		<layer id="342" name="LeakyRelu_711" type="PReLU" version="opset1">
			<input>
				<port id="0" precision="FP32">
					<dim>1</dim>
					<dim>384</dim>
					<dim>16</dim>
					<dim>1</dim>
				</port>
				<port id="1" precision="FP32">
					<dim>1</dim>
				</port>
			</input>
			<output>
				<port id="2" precision="FP32" names="1266">
					<dim>1</dim>
					<dim>384</dim>
					<dim>16</dim>
					<dim>1</dim>
				</port>
			</output>
		</layer>
		<layer id="343" name="Concat_712" type="Concat" version="opset1">
			<data axis="3" />
			<input>
				<port id="0" precision="FP32">
					<dim>1</dim>
					<dim>384</dim>
					<dim>16</dim>
					<dim>16</dim>
				</port>
				<port id="1" precision="FP32">
					<dim>1</dim>
					<dim>384</dim>
					<dim>16</dim>
					<dim>1</dim>
				</port>
			</input>
			<output>
				<port id="2" precision="FP32" names="1267">
					<dim>1</dim>
					<dim>384</dim>
					<dim>16</dim>
					<dim>17</dim>
				</port>
			</output>
		</layer>
		<layer id="344" name="blocks_up.0.bd.1.conv.weight" type="Const" version="opset1">
			<data element_type="f32" shape="128, 384, 3, 3" offset="11304392" size="1769472" />
			<output>
				<port id="0" precision="FP32" names="blocks_up.0.bd.1.conv.weight">
					<dim>128</dim>
					<dim>384</dim>
					<dim>3</dim>
					<dim>3</dim>
				</port>
			</output>
		</layer>
		<layer id="345" name="Conv_739/WithoutBiases" type="Convolution" version="opset1">
			<data strides="1, 1" dilations="1, 8" pads_begin="1, 0" pads_end="1, 0" auto_pad="explicit" />
			<input>
				<port id="0" precision="FP32">
					<dim>1</dim>
					<dim>384</dim>
					<dim>16</dim>
					<dim>17</dim>
				</port>
				<port id="1" precision="FP32">
					<dim>128</dim>
					<dim>384</dim>
					<dim>3</dim>
					<dim>3</dim>
				</port>
			</input>
			<output>
				<port id="2" precision="FP32">
					<dim>1</dim>
					<dim>128</dim>
					<dim>16</dim>
					<dim>1</dim>
				</port>
			</output>
		</layer>
		<layer id="346" name="Reshape_2317" type="Const" version="opset1">
			<data element_type="f32" shape="1, 128, 1, 1" offset="13073864" size="512" />
			<output>
				<port id="0" precision="FP32">
					<dim>1</dim>
					<dim>128</dim>
					<dim>1</dim>
					<dim>1</dim>
				</port>
			</output>
		</layer>
		<layer id="347" name="Conv_739" type="Add" version="opset1">
			<data auto_broadcast="numpy" />
			<input>
				<port id="0" precision="FP32">
					<dim>1</dim>
					<dim>128</dim>
					<dim>16</dim>
					<dim>1</dim>
				</port>
				<port id="1" precision="FP32">
					<dim>1</dim>
					<dim>128</dim>
					<dim>1</dim>
					<dim>1</dim>
				</port>
			</input>
			<output>
				<port id="2" precision="FP32" names="1305">
					<dim>1</dim>
					<dim>128</dim>
					<dim>16</dim>
					<dim>1</dim>
				</port>
			</output>
		</layer>
		<layer id="348" name="Concat_740" type="Concat" version="opset1">
			<data axis="1" />
			<input>
				<port id="0" precision="FP32">
					<dim>1</dim>
					<dim>384</dim>
					<dim>16</dim>
					<dim>1</dim>
				</port>
				<port id="1" precision="FP32">
					<dim>1</dim>
					<dim>128</dim>
					<dim>16</dim>
					<dim>1</dim>
				</port>
			</input>
			<output>
				<port id="2" precision="FP32" names="1306">
					<dim>1</dim>
					<dim>512</dim>
					<dim>16</dim>
					<dim>1</dim>
				</port>
			</output>
		</layer>
		<layer id="349" name="Constant_68624" type="Const" version="opset1">
			<data element_type="f32" shape="1, 512, 1, 1" offset="13074376" size="2048" />
			<output>
				<port id="0" precision="FP32">
					<dim>1</dim>
					<dim>512</dim>
					<dim>1</dim>
					<dim>1</dim>
				</port>
			</output>
		</layer>
		<layer id="350" name="Multiply_69706" type="Multiply" version="opset1">
			<data auto_broadcast="numpy" />
			<input>
				<port id="0" precision="FP32">
					<dim>1</dim>
					<dim>512</dim>
					<dim>16</dim>
					<dim>1</dim>
				</port>
				<port id="1" precision="FP32">
					<dim>1</dim>
					<dim>512</dim>
					<dim>1</dim>
					<dim>1</dim>
				</port>
			</input>
			<output>
				<port id="2" precision="FP32">
					<dim>1</dim>
					<dim>512</dim>
					<dim>16</dim>
					<dim>1</dim>
				</port>
			</output>
		</layer>
		<layer id="351" name="Constant_69711" type="Const" version="opset1">
			<data element_type="f32" shape="1, 512, 1, 1" offset="13076424" size="2048" />
			<output>
				<port id="0" precision="FP32">
					<dim>1</dim>
					<dim>512</dim>
					<dim>1</dim>
					<dim>1</dim>
				</port>
			</output>
		</layer>
		<layer id="352" name="BatchNormalization_741" type="Add" version="opset1">
			<data auto_broadcast="numpy" />
			<input>
				<port id="0" precision="FP32">
					<dim>1</dim>
					<dim>512</dim>
					<dim>16</dim>
					<dim>1</dim>
				</port>
				<port id="1" precision="FP32">
					<dim>1</dim>
					<dim>512</dim>
					<dim>1</dim>
					<dim>1</dim>
				</port>
			</input>
			<output>
				<port id="2" precision="FP32" names="1307">
					<dim>1</dim>
					<dim>512</dim>
					<dim>16</dim>
					<dim>1</dim>
				</port>
			</output>
		</layer>
		<layer id="353" name="Constant_2323" type="Const" version="opset1">
			<data element_type="f32" shape="1" offset="264308" size="4" />
			<output>
				<port id="0" precision="FP32">
					<dim>1</dim>
				</port>
			</output>
		</layer>
		<layer id="354" name="LeakyRelu_742" type="PReLU" version="opset1">
			<input>
				<port id="0" precision="FP32">
					<dim>1</dim>
					<dim>512</dim>
					<dim>16</dim>
					<dim>1</dim>
				</port>
				<port id="1" precision="FP32">
					<dim>1</dim>
				</port>
			</input>
			<output>
				<port id="2" precision="FP32" names="1308,1332">
					<dim>1</dim>
					<dim>512</dim>
					<dim>16</dim>
					<dim>1</dim>
				</port>
			</output>
		</layer>
		<layer id="355" name="blocks_up.0.bd_out.conv.weight" type="Const" version="opset1">
			<data element_type="f32" shape="128, 512, 1, 1" offset="13078472" size="262144" />
			<output>
				<port id="0" precision="FP32" names="blocks_up.0.bd_out.conv.weight">
					<dim>128</dim>
					<dim>512</dim>
					<dim>1</dim>
					<dim>1</dim>
				</port>
			</output>
		</layer>
		<layer id="356" name="Conv_758/WithoutBiases" type="Convolution" version="opset1">
			<data strides="1, 1" dilations="1, 8" pads_begin="0, 0" pads_end="0, 0" auto_pad="explicit" />
			<input>
				<port id="0" precision="FP32">
					<dim>1</dim>
					<dim>512</dim>
					<dim>16</dim>
					<dim>1</dim>
				</port>
				<port id="1" precision="FP32">
					<dim>128</dim>
					<dim>512</dim>
					<dim>1</dim>
					<dim>1</dim>
				</port>
			</input>
			<output>
				<port id="2" precision="FP32">
					<dim>1</dim>
					<dim>128</dim>
					<dim>16</dim>
					<dim>1</dim>
				</port>
			</output>
		</layer>
		<layer id="357" name="Reshape_2372" type="Const" version="opset1">
			<data element_type="f32" shape="1, 128, 1, 1" offset="13340616" size="512" />
			<output>
				<port id="0" precision="FP32">
					<dim>1</dim>
					<dim>128</dim>
					<dim>1</dim>
					<dim>1</dim>
				</port>
			</output>
		</layer>
		<layer id="358" name="Conv_758" type="Add" version="opset1">
			<data auto_broadcast="numpy" />
			<input>
				<port id="0" precision="FP32">
					<dim>1</dim>
…
		<edge from-layer="706" from-port="0" to-layer="707" to-port="2" />
		<edge from-layer="707" from-port="3" to-layer="709" to-port="0" />
		<edge from-layer="708" from-port="0" to-layer="709" to-port="1" />
		<edge from-layer="709" from-port="2" to-layer="711" to-port="0" />
		<edge from-layer="710" from-port="0" to-layer="711" to-port="1" />
		<edge from-layer="711" from-port="2" to-layer="716" to-port="0" />
		<edge from-layer="711" from-port="2" to-layer="713" to-port="2" />
		<edge from-layer="712" from-port="0" to-layer="713" to-port="3" />
		<edge from-layer="712" from-port="0" to-layer="717" to-port="3" />
		<edge from-layer="713" from-port="4" to-layer="719" to-port="1" />
		<edge from-layer="714" from-port="0" to-layer="717" to-port="0" />
		<edge from-layer="715" from-port="0" to-layer="716" to-port="1" />
		<edge from-layer="716" from-port="2" to-layer="717" to-port="2" />
		<edge from-layer="717" from-port="4" to-layer="719" to-port="2" />
		<edge from-layer="718" from-port="0" to-layer="719" to-port="3" />
		<edge from-layer="719" from-port="4" to-layer="720" to-port="0" />
		<edge from-layer="721" from-port="0" to-layer="732" to-port="0" />
		<edge from-layer="722" from-port="0" to-layer="736" to-port="1" />
		<edge from-layer="722" from-port="0" to-layer="732" to-port="1" />
		<edge from-layer="723" from-port="1" to-layer="726" to-port="0" />
		<edge from-layer="724" from-port="0" to-layer="726" to-port="1" />
		<edge from-layer="725" from-port="0" to-layer="726" to-port="2" />
		<edge from-layer="726" from-port="3" to-layer="728" to-port="0" />
		<edge from-layer="727" from-port="0" to-layer="728" to-port="1" />
		<edge from-layer="728" from-port="2" to-layer="730" to-port="0" />
		<edge from-layer="729" from-port="0" to-layer="730" to-port="1" />
		<edge from-layer="730" from-port="2" to-layer="735" to-port="0" />
		<edge from-layer="730" from-port="2" to-layer="732" to-port="2" />
		<edge from-layer="731" from-port="0" to-layer="732" to-port="3" />
		<edge from-layer="731" from-port="0" to-layer="736" to-port="3" />
		<edge from-layer="732" from-port="4" to-layer="738" to-port="1" />
		<edge from-layer="733" from-port="0" to-layer="736" to-port="0" />
		<edge from-layer="734" from-port="0" to-layer="735" to-port="1" />
		<edge from-layer="735" from-port="2" to-layer="736" to-port="2" />
		<edge from-layer="736" from-port="4" to-layer="738" to-port="2" />
		<edge from-layer="737" from-port="0" to-layer="738" to-port="3" />
		<edge from-layer="738" from-port="4" to-layer="739" to-port="0" />
		<edge from-layer="740" from-port="0" to-layer="751" to-port="0" />
		<edge from-layer="741" from-port="0" to-layer="751" to-port="1" />
		<edge from-layer="741" from-port="0" to-layer="755" to-port="1" />
		<edge from-layer="742" from-port="1" to-layer="745" to-port="0" />
		<edge from-layer="743" from-port="0" to-layer="745" to-port="1" />
		<edge from-layer="744" from-port="0" to-layer="745" to-port="2" />
		<edge from-layer="745" from-port="3" to-layer="747" to-port="0" />
		<edge from-layer="746" from-port="0" to-layer="747" to-port="1" />
		<edge from-layer="747" from-port="2" to-layer="749" to-port="0" />
		<edge from-layer="748" from-port="0" to-layer="749" to-port="1" />
		<edge from-layer="749" from-port="2" to-layer="754" to-port="0" />
		<edge from-layer="749" from-port="2" to-layer="751" to-port="2" />
		<edge from-layer="750" from-port="0" to-layer="751" to-port="3" />
		<edge from-layer="750" from-port="0" to-layer="755" to-port="3" />
		<edge from-layer="751" from-port="4" to-layer="757" to-port="1" />
		<edge from-layer="752" from-port="0" to-layer="755" to-port="0" />
		<edge from-layer="753" from-port="0" to-layer="754" to-port="1" />
		<edge from-layer="754" from-port="2" to-layer="755" to-port="2" />
		<edge from-layer="755" from-port="4" to-layer="757" to-port="2" />
		<edge from-layer="756" from-port="0" to-layer="757" to-port="3" />
		<edge from-layer="757" from-port="4" to-layer="758" to-port="0" />
		<edge from-layer="759" from-port="0" to-layer="770" to-port="0" />
		<edge from-layer="760" from-port="0" to-layer="774" to-port="1" />
		<edge from-layer="760" from-port="0" to-layer="770" to-port="1" />
		<edge from-layer="761" from-port="1" to-layer="764" to-port="0" />
		<edge from-layer="762" from-port="0" to-layer="764" to-port="1" />
		<edge from-layer="763" from-port="0" to-layer="764" to-port="2" />
		<edge from-layer="764" from-port="3" to-layer="766" to-port="0" />
		<edge from-layer="765" from-port="0" to-layer="766" to-port="1" />
		<edge from-layer="766" from-port="2" to-layer="768" to-port="0" />
		<edge from-layer="767" from-port="0" to-layer="768" to-port="1" />
		<edge from-layer="768" from-port="2" to-layer="770" to-port="2" />
		<edge from-layer="768" from-port="2" to-layer="773" to-port="0" />
		<edge from-layer="769" from-port="0" to-layer="774" to-port="3" />
		<edge from-layer="769" from-port="0" to-layer="770" to-port="3" />
		<edge from-layer="770" from-port="4" to-layer="776" to-port="1" />
		<edge from-layer="771" from-port="0" to-layer="774" to-port="0" />
		<edge from-layer="772" from-port="0" to-layer="773" to-port="1" />
		<edge from-layer="773" from-port="2" to-layer="774" to-port="2" />
		<edge from-layer="774" from-port="4" to-layer="776" to-port="2" />
		<edge from-layer="775" from-port="0" to-layer="776" to-port="3" />
		<edge from-layer="776" from-port="4" to-layer="777" to-port="0" />
		<edge from-layer="778" from-port="0" to-layer="789" to-port="0" />
		<edge from-layer="779" from-port="0" to-layer="789" to-port="1" />
		<edge from-layer="779" from-port="0" to-layer="793" to-port="1" />
		<edge from-layer="780" from-port="1" to-layer="783" to-port="0" />
		<edge from-layer="781" from-port="0" to-layer="783" to-port="1" />
		<edge from-layer="782" from-port="0" to-layer="783" to-port="2" />
		<edge from-layer="783" from-port="3" to-layer="785" to-port="0" />
		<edge from-layer="784" from-port="0" to-layer="785" to-port="1" />
		<edge from-layer="785" from-port="2" to-layer="787" to-port="0" />
		<edge from-layer="786" from-port="0" to-layer="787" to-port="1" />
		<edge from-layer="787" from-port="2" to-layer="789" to-port="2" />
		<edge from-layer="787" from-port="2" to-layer="792" to-port="0" />
		<edge from-layer="788" from-port="0" to-layer="793" to-port="3" />
		<edge from-layer="788" from-port="0" to-layer="789" to-port="3" />
		<edge from-layer="789" from-port="4" to-layer="795" to-port="1" />
		<edge from-layer="790" from-port="0" to-layer="793" to-port="0" />
		<edge from-layer="791" from-port="0" to-layer="792" to-port="1" />
		<edge from-layer="792" from-port="2" to-layer="793" to-port="2" />
		<edge from-layer="793" from-port="4" to-layer="795" to-port="2" />
		<edge from-layer="794" from-port="0" to-layer="795" to-port="3" />
		<edge from-layer="795" from-port="4" to-layer="796" to-port="0" />
		<edge from-layer="797" from-port="0" to-layer="808" to-port="0" />
		<edge from-layer="798" from-port="0" to-layer="808" to-port="1" />
		<edge from-layer="798" from-port="0" to-layer="812" to-port="1" />
		<edge from-layer="799" from-port="1" to-layer="802" to-port="0" />
		<edge from-layer="800" from-port="0" to-layer="802" to-port="1" />
		<edge from-layer="801" from-port="0" to-layer="802" to-port="2" />
		<edge from-layer="802" from-port="3" to-layer="804" to-port="0" />
		<edge from-layer="803" from-port="0" to-layer="804" to-port="1" />
		<edge from-layer="804" from-port="2" to-layer="806" to-port="0" />
		<edge from-layer="805" from-port="0" to-layer="806" to-port="1" />
		<edge from-layer="806" from-port="2" to-layer="808" to-port="2" />
		<edge from-layer="806" from-port="2" to-layer="811" to-port="0" />
		<edge from-layer="807" from-port="0" to-layer="812" to-port="3" />
		<edge from-layer="807" from-port="0" to-layer="808" to-port="3" />
		<edge from-layer="808" from-port="4" to-layer="814" to-port="1" />
		<edge from-layer="809" from-port="0" to-layer="812" to-port="0" />
		<edge from-layer="810" from-port="0" to-layer="811" to-port="1" />
		<edge from-layer="811" from-port="2" to-layer="812" to-port="2" />
		<edge from-layer="812" from-port="4" to-layer="814" to-port="2" />
		<edge from-layer="813" from-port="0" to-layer="814" to-port="3" />
		<edge from-layer="814" from-port="4" to-layer="815" to-port="0" />
		<edge from-layer="816" from-port="0" to-layer="827" to-port="0" />
		<edge from-layer="817" from-port="0" to-layer="831" to-port="1" />
		<edge from-layer="817" from-port="0" to-layer="827" to-port="1" />
		<edge from-layer="818" from-port="1" to-layer="821" to-port="0" />
		<edge from-layer="819" from-port="0" to-layer="821" to-port="1" />
		<edge from-layer="820" from-port="0" to-layer="821" to-port="2" />
		<edge from-layer="821" from-port="3" to-layer="823" to-port="0" />
		<edge from-layer="822" from-port="0" to-layer="823" to-port="1" />
		<edge from-layer="823" from-port="2" to-layer="825" to-port="0" />
		<edge from-layer="824" from-port="0" to-layer="825" to-port="1" />
		<edge from-layer="825" from-port="2" to-layer="830" to-port="0" />
		<edge from-layer="825" from-port="2" to-layer="827" to-port="2" />
		<edge from-layer="826" from-port="0" to-layer="827" to-port="3" />
		<edge from-layer="826" from-port="0" to-layer="831" to-port="3" />
		<edge from-layer="827" from-port="4" to-layer="833" to-port="1" />
		<edge from-layer="828" from-port="0" to-layer="831" to-port="0" />
		<edge from-layer="829" from-port="0" to-layer="830" to-port="1" />
		<edge from-layer="830" from-port="2" to-layer="831" to-port="2" />
		<edge from-layer="831" from-port="4" to-layer="833" to-port="2" />
		<edge from-layer="832" from-port="0" to-layer="833" to-port="3" />
		<edge from-layer="833" from-port="4" to-layer="834" to-port="0" />
		<edge from-layer="835" from-port="0" to-layer="846" to-port="0" />
		<edge from-layer="836" from-port="0" to-layer="846" to-port="1" />
		<edge from-layer="836" from-port="0" to-layer="850" to-port="1" />
		<edge from-layer="837" from-port="1" to-layer="840" to-port="0" />
		<edge from-layer="838" from-port="0" to-layer="840" to-port="1" />
		<edge from-layer="839" from-port="0" to-layer="840" to-port="2" />
		<edge from-layer="840" from-port="3" to-layer="842" to-port="0" />
		<edge from-layer="841" from-port="0" to-layer="842" to-port="1" />
		<edge from-layer="842" from-port="2" to-layer="844" to-port="0" />
		<edge from-layer="843" from-port="0" to-layer="844" to-port="1" />
		<edge from-layer="844" from-port="2" to-layer="846" to-port="2" />
		<edge from-layer="844" from-port="2" to-layer="849" to-port="0" />
		<edge from-layer="845" from-port="0" to-layer="846" to-port="3" />
		<edge from-layer="845" from-port="0" to-layer="850" to-port="3" />
		<edge from-layer="846" from-port="4" to-layer="852" to-port="1" />
		<edge from-layer="847" from-port="0" to-layer="850" to-port="0" />
		<edge from-layer="848" from-port="0" to-layer="849" to-port="1" />
		<edge from-layer="849" from-port="2" to-layer="850" to-port="2" />
		<edge from-layer="850" from-port="4" to-layer="852" to-port="2" />
		<edge from-layer="851" from-port="0" to-layer="852" to-port="3" />
		<edge from-layer="852" from-port="4" to-layer="853" to-port="0" />
		<edge from-layer="854" from-port="0" to-layer="865" to-port="0" />
		<edge from-layer="855" from-port="0" to-layer="869" to-port="1" />
		<edge from-layer="855" from-port="0" to-layer="865" to-port="1" />
		<edge from-layer="856" from-port="1" to-layer="859" to-port="0" />
		<edge from-layer="857" from-port="0" to-layer="859" to-port="1" />
		<edge from-layer="858" from-port="0" to-layer="859" to-port="2" />
		<edge from-layer="859" from-port="3" to-layer="861" to-port="0" />
		<edge from-layer="860" from-port="0" to-layer="861" to-port="1" />
		<edge from-layer="861" from-port="2" to-layer="863" to-port="0" />
		<edge from-layer="862" from-port="0" to-layer="863" to-port="1" />
		<edge from-layer="863" from-port="2" to-layer="868" to-port="0" />
		<edge from-layer="863" from-port="2" to-layer="865" to-port="2" />
		<edge from-layer="864" from-port="0" to-layer="865" to-port="3" />
		<edge from-layer="864" from-port="0" to-layer="869" to-port="3" />
		<edge from-layer="865" from-port="4" to-layer="871" to-port="1" />
		<edge from-layer="866" from-port="0" to-layer="869" to-port="0" />
		<edge from-layer="867" from-port="0" to-layer="868" to-port="1" />
		<edge from-layer="868" from-port="2" to-layer="869" to-port="2" />
		<edge from-layer="869" from-port="4" to-layer="871" to-port="2" />
		<edge from-layer="870" from-port="0" to-layer="871" to-port="3" />
		<edge from-layer="871" from-port="4" to-layer="872" to-port="0" />
		<edge from-layer="873" from-port="0" to-layer="884" to-port="0" />
		<edge from-layer="874" from-port="0" to-layer="888" to-port="1" />
		<edge from-layer="874" from-port="0" to-layer="884" to-port="1" />
		<edge from-layer="875" from-port="1" to-layer="878" to-port="0" />
		<edge from-layer="876" from-port="0" to-layer="878" to-port="1" />
		<edge from-layer="877" from-port="0" to-layer="878" to-port="2" />
		<edge from-layer="878" from-port="3" to-layer="880" to-port="0" />
		<edge from-layer="879" from-port="0" to-layer="880" to-port="1" />
		<edge from-layer="880" from-port="2" to-layer="882" to-port="0" />
		<edge from-layer="881" from-port="0" to-layer="882" to-port="1" />
		<edge from-layer="882" from-port="2" to-layer="884" to-port="2" />
		<edge from-layer="882" from-port="2" to-layer="887" to-port="0" />
		<edge from-layer="883" from-port="0" to-layer="884" to-port="3" />
		<edge from-layer="883" from-port="0" to-layer="888" to-port="3" />
		<edge from-layer="884" from-port="4" to-layer="890" to-port="1" />
		<edge from-layer="885" from-port="0" to-layer="888" to-port="0" />
		<edge from-layer="886" from-port="0" to-layer="887" to-port="1" />
		<edge from-layer="887" from-port="2" to-layer="888" to-port="2" />
		<edge from-layer="888" from-port="4" to-layer="890" to-port="2" />
		<edge from-layer="889" from-port="0" to-layer="890" to-port="3" />
		<edge from-layer="890" from-port="4" to-layer="891" to-port="0" />
		<edge from-layer="892" from-port="0" to-layer="903" to-port="0" />
		<edge from-layer="893" from-port="0" to-layer="907" to-port="1" />
		<edge from-layer="893" from-port="0" to-layer="903" to-port="1" />
		<edge from-layer="894" from-port="1" to-layer="897" to-port="0" />
		<edge from-layer="895" from-port="0" to-layer="897" to-port="1" />
		<edge from-layer="896" from-port="0" to-layer="897" to-port="2" />
		<edge from-layer="897" from-port="3" to-layer="899" to-port="0" />
		<edge from-layer="898" from-port="0" to-layer="899" to-port="1" />
		<edge from-layer="899" from-port="2" to-layer="901" to-port="0" />
		<edge from-layer="900" from-port="0" to-layer="901" to-port="1" />
		<edge from-layer="901" from-port="2" to-layer="906" to-port="0" />
		<edge from-layer="901" from-port="2" to-layer="903" to-port="2" />
		<edge from-layer="902" from-port="0" to-layer="907" to-port="3" />
		<edge from-layer="902" from-port="0" to-layer="903" to-port="3" />
		<edge from-layer="903" from-port="4" to-layer="909" to-port="1" />
		<edge from-layer="904" from-port="0" to-layer="907" to-port="0" />
		<edge from-layer="905" from-port="0" to-layer="906" to-port="1" />
		<edge from-layer="906" from-port="2" to-layer="907" to-port="2" />
		<edge from-layer="907" from-port="4" to-layer="909" to-port="2" />
		<edge from-layer="908" from-port="0" to-layer="909" to-port="3" />
		<edge from-layer="909" from-port="4" to-layer="910" to-port="0" />
		<edge from-layer="911" from-port="0" to-layer="922" to-port="0" />
		<edge from-layer="912" from-port="0" to-layer="926" to-port="1" />
		<edge from-layer="912" from-port="0" to-layer="922" to-port="1" />
		<edge from-layer="913" from-port="1" to-layer="916" to-port="0" />
		<edge from-layer="914" from-port="0" to-layer="916" to-port="1" />
		<edge from-layer="915" from-port="0" to-layer="916" to-port="2" />
		<edge from-layer="916" from-port="3" to-layer="918" to-port="0" />
		<edge from-layer="917" from-port="0" to-layer="918" to-port="1" />
		<edge from-layer="918" from-port="2" to-layer="920" to-port="0" />
		<edge from-layer="919" from-port="0" to-layer="920" to-port="1" />
		<edge from-layer="920" from-port="2" to-layer="925" to-port="0" />
		<edge from-layer="920" from-port="2" to-layer="922" to-port="2" />
		<edge from-layer="921" from-port="0" to-layer="926" to-port="3" />
		<edge from-layer="921" from-port="0" to-layer="922" to-port="3" />
		<edge from-layer="922" from-port="4" to-layer="928" to-port="1" />
		<edge from-layer="923" from-port="0" to-layer="926" to-port="0" />
		<edge from-layer="924" from-port="0" to-layer="925" to-port="1" />
		<edge from-layer="925" from-port="2" to-layer="926" to-port="2" />
		<edge from-layer="926" from-port="4" to-layer="928" to-port="2" />
		<edge from-layer="927" from-port="0" to-layer="928" to-port="3" />
		<edge from-layer="928" from-port="4" to-layer="929" to-port="0" />
		<edge from-layer="930" from-port="0" to-layer="941" to-port="0" />
		<edge from-layer="931" from-port="0" to-layer="945" to-port="1" />
		<edge from-layer="931" from-port="0" to-layer="941" to-port="1" />
		<edge from-layer="932" from-port="1" to-layer="935" to-port="0" />
		<edge from-layer="933" from-port="0" to-layer="935" to-port="1" />
		<edge from-layer="934" from-port="0" to-layer="935" to-port="2" />
		<edge from-layer="935" from-port="3" to-layer="937" to-port="0" />
		<edge from-layer="936" from-port="0" to-layer="937" to-port="1" />
		<edge from-layer="937" from-port="2" to-layer="939" to-port="0" />
		<edge from-layer="938" from-port="0" to-layer="939" to-port="1" />
		<edge from-layer="939" from-port="2" to-layer="941" to-port="2" />
		<edge from-layer="939" from-port="2" to-layer="944" to-port="0" />
		<edge from-layer="940" from-port="0" to-layer="945" to-port="3" />
		<edge from-layer="940" from-port="0" to-layer="941" to-port="3" />
		<edge from-layer="941" from-port="4" to-layer="947" to-port="1" />
		<edge from-layer="942" from-port="0" to-layer="945" to-port="0" />
		<edge from-layer="943" from-port="0" to-layer="944" to-port="1" />
		<edge from-layer="944" from-port="2" to-layer="945" to-port="2" />
		<edge from-layer="945" from-port="4" to-layer="947" to-port="2" />
		<edge from-layer="946" from-port="0" to-layer="947" to-port="3" />
		<edge from-layer="947" from-port="4" to-layer="948" to-port="0" />
		<edge from-layer="949" from-port="0" to-layer="960" to-port="0" />
		<edge from-layer="950" from-port="0" to-layer="960" to-port="1" />
		<edge from-layer="950" from-port="0" to-layer="964" to-port="1" />
		<edge from-layer="951" from-port="1" to-layer="954" to-port="0" />
		<edge from-layer="952" from-port="0" to-layer="954" to-port="1" />
		<edge from-layer="953" from-port="0" to-layer="954" to-port="2" />
		<edge from-layer="954" from-port="3" to-layer="956" to-port="0" />
		<edge from-layer="955" from-port="0" to-layer="956" to-port="1" />
		<edge from-layer="956" from-port="2" to-layer="958" to-port="0" />
		<edge from-layer="957" from-port="0" to-layer="958" to-port="1" />
		<edge from-layer="958" from-port="2" to-layer="963" to-port="0" />
		<edge from-layer="958" from-port="2" to-layer="960" to-port="2" />
		<edge from-layer="959" from-port="0" to-layer="960" to-port="3" />
		<edge from-layer="959" from-port="0" to-layer="964" to-port="3" />
		<edge from-layer="960" from-port="4" to-layer="966" to-port="1" />
		<edge from-layer="961" from-port="0" to-layer="964" to-port="0" />
		<edge from-layer="962" from-port="0" to-layer="963" to-port="1" />
		<edge from-layer="963" from-port="2" to-layer="964" to-port="2" />
		<edge from-layer="964" from-port="4" to-layer="966" to-port="2" />
		<edge from-layer="965" from-port="0" to-layer="966" to-port="3" />
		<edge from-layer="966" from-port="4" to-layer="967" to-port="0" />
		<edge from-layer="968" from-port="0" to-layer="979" to-port="0" />
		<edge from-layer="969" from-port="0" to-layer="983" to-port="1" />
		<edge from-layer="969" from-port="0" to-layer="979" to-port="1" />
		<edge from-layer="970" from-port="1" to-layer="973" to-port="0" />
		<edge from-layer="971" from-port="0" to-layer="973" to-port="1" />
		<edge from-layer="972" from-port="0" to-layer="973" to-port="2" />
		<edge from-layer="973" from-port="3" to-layer="975" to-port="0" />
		<edge from-layer="974" from-port="0" to-layer="975" to-port="1" />
		<edge from-layer="975" from-port="2" to-layer="977" to-port="0" />
		<edge from-layer="976" from-port="0" to-layer="977" to-port="1" />
		<edge from-layer="977" from-port="2" to-layer="979" to-port="2" />
		<edge from-layer="977" from-port="2" to-layer="982" to-port="0" />
		<edge from-layer="978" from-port="0" to-layer="983" to-port="3" />
		<edge from-layer="978" from-port="0" to-layer="979" to-port="3" />
		<edge from-layer="979" from-port="4" to-layer="985" to-port="1" />
		<edge from-layer="980" from-port="0" to-layer="983" to-port="0" />
		<edge from-layer="981" from-port="0" to-layer="982" to-port="1" />
		<edge from-layer="982" from-port="2" to-layer="983" to-port="2" />
		<edge from-layer="983" from-port="4" to-layer="985" to-port="2" />
		<edge from-layer="984" from-port="0" to-layer="985" to-port="3" />
		<edge from-layer="985" from-port="4" to-layer="986" to-port="0" />
		<edge from-layer="987" from-port="0" to-layer="998" to-port="0" />
		<edge from-layer="988" from-port="0" to-layer="1002" to-port="1" />
		<edge from-layer="988" from-port="0" to-layer="998" to-port="1" />
		<edge from-layer="989" from-port="1" to-layer="992" to-port="0" />
		<edge from-layer="990" from-port="0" to-layer="992" to-port="1" />
		<edge from-layer="991" from-port="0" to-layer="992" to-port="2" />
		<edge from-layer="992" from-port="3" to-layer="994" to-port="0" />
		<edge from-layer="993" from-port="0" to-layer="994" to-port="1" />
		<edge from-layer="994" from-port="2" to-layer="996" to-port="0" />
		<edge from-layer="995" from-port="0" to-layer="996" to-port="1" />
		<edge from-layer="996" from-port="2" to-layer="1001" to-port="0" />
		<edge from-layer="996" from-port="2" to-layer="998" to-port="2" />
		<edge from-layer="997" from-port="0" to-layer="998" to-port="3" />
		<edge from-layer="997" from-port="0" to-layer="1002" to-port="3" />
		<edge from-layer="998" from-port="4" to-layer="1004" to-port="1" />
		<edge from-layer="999" from-port="0" to-layer="1002" to-port="0" />
		<edge from-layer="1000" from-port="0" to-layer="1001" to-port="1" />
		<edge from-layer="1001" from-port="2" to-layer="1002" to-port="2" />
		<edge from-layer="1002" from-port="4" to-layer="1004" to-port="2" />
		<edge from-layer="1003" from-port="0" to-layer="1004" to-port="3" />
		<edge from-layer="1004" from-port="4" to-layer="1005" to-port="0" />
		<edge from-layer="1006" from-port="0" to-layer="1017" to-port="0" />
		<edge from-layer="1007" from-port="0" to-layer="1021" to-port="1" />
		<edge from-layer="1007" from-port="0" to-layer="1017" to-port="1" />
		<edge from-layer="1008" from-port="1" to-layer="1011" to-port="0" />
		<edge from-layer="1009" from-port="0" to-layer="1011" to-port="1" />
		<edge from-layer="1010" from-port="0" to-layer="1011" to-port="2" />
		<edge from-layer="1011" from-port="3" to-layer="1013" to-port="0" />
		<edge from-layer="1012" from-port="0" to-layer="1013" to-port="1" />
		<edge from-layer="1013" from-port="2" to-layer="1015" to-port="0" />
		<edge from-layer="1014" from-port="0" to-layer="1015" to-port="1" />
		<edge from-layer="1015" from-port="2" to-layer="1020" to-port="0" />
		<edge from-layer="1015" from-port="2" to-layer="1017" to-port="2" />
		<edge from-layer="1016" from-port="0" to-layer="1021" to-port="3" />
		<edge from-layer="1016" from-port="0" to-layer="1017" to-port="3" />
		<edge from-layer="1017" from-port="4" to-layer="1023" to-port="1" />
		<edge from-layer="1018" from-port="0" to-layer="1021" to-port="0" />
		<edge from-layer="1019" from-port="0" to-layer="1020" to-port="1" />
		<edge from-layer="1020" from-port="2" to-layer="1021" to-port="2" />
		<edge from-layer="1021" from-port="4" to-layer="1023" to-port="2" />
		<edge from-layer="1022" from-port="0" to-layer="1023" to-port="3" />
		<edge from-layer="1023" from-port="4" to-layer="1024" to-port="0" />
		<edge from-layer="1025" from-port="0" to-layer="1036" to-port="0" />
		<edge from-layer="1026" from-port="0" to-layer="1036" to-port="1" />
		<edge from-layer="1026" from-port="0" to-layer="1040" to-port="1" />
		<edge from-layer="1027" from-port="1" to-layer="1030" to-port="0" />
		<edge from-layer="1028" from-port="0" to-layer="1030" to-port="1" />
		<edge from-layer="1029" from-port="0" to-layer="1030" to-port="2" />
		<edge from-layer="1030" from-port="3" to-layer="1032" to-port="0" />
		<edge from-layer="1031" from-port="0" to-layer="1032" to-port="1" />
		<edge from-layer="1032" from-port="2" to-layer="1034" to-port="0" />
		<edge from-layer="1033" from-port="0" to-layer="1034" to-port="1" />
		<edge from-layer="1034" from-port="2" to-layer="1039" to-port="0" />
		<edge from-layer="1034" from-port="2" to-layer="1036" to-port="2" />
		<edge from-layer="1035" from-port="0" to-layer="1040" to-port="3" />
		<edge from-layer="1035" from-port="0" to-layer="1036" to-port="3" />
		<edge from-layer="1036" from-port="4" to-layer="1042" to-port="1" />
		<edge from-layer="1037" from-port="0" to-layer="1040" to-port="0" />
		<edge from-layer="1038" from-port="0" to-layer="1039" to-port="1" />
		<edge from-layer="1039" from-port="2" to-layer="1040" to-port="2" />
		<edge from-layer="1040" from-port="4" to-layer="1042" to-port="2" />
		<edge from-layer="1041" from-port="0" to-layer="1042" to-port="3" />
		<edge from-layer="1042" from-port="4" to-layer="1043" to-port="0" />
		<edge from-layer="1044" from-port="0" to-layer="1055" to-port="0" />
		<edge from-layer="1045" from-port="0" to-layer="1059" to-port="1" />
		<edge from-layer="1045" from-port="0" to-layer="1055" to-port="1" />
		<edge from-layer="1046" from-port="1" to-layer="1049" to-port="0" />
		<edge from-layer="1047" from-port="0" to-layer="1049" to-port="1" />
		<edge from-layer="1048" from-port="0" to-layer="1049" to-port="2" />
		<edge from-layer="1049" from-port="3" to-layer="1051" to-port="0" />
		<edge from-layer="1050" from-port="0" to-layer="1051" to-port="1" />
		<edge from-layer="1051" from-port="2" to-layer="1053" to-port="0" />
		<edge from-layer="1052" from-port="0" to-layer="1053" to-port="1" />
		<edge from-layer="1053" from-port="2" to-layer="1058" to-port="0" />
		<edge from-layer="1053" from-port="2" to-layer="1055" to-port="2" />
		<edge from-layer="1054" from-port="0" to-layer="1059" to-port="3" />
		<edge from-layer="1054" from-port="0" to-layer="1055" to-port="3" />
		<edge from-layer="1055" from-port="4" to-layer="1061" to-port="1" />
		<edge from-layer="1056" from-port="0" to-layer="1059" to-port="0" />
		<edge from-layer="1057" from-port="0" to-layer="1058" to-port="1" />
		<edge from-layer="1058" from-port="2" to-layer="1059" to-port="2" />
		<edge from-layer="1059" from-port="4" to-layer="1061" to-port="2" />
		<edge from-layer="1060" from-port="0" to-layer="1061" to-port="3" />
		<edge from-layer="1061" from-port="4" to-layer="1062" to-port="0" />
		<edge from-layer="1063" from-port="0" to-layer="1074" to-port="0" />
		<edge from-layer="1064" from-port="0" to-layer="1078" to-port="1" />
		<edge from-layer="1064" from-port="0" to-layer="1074" to-port="1" />
		<edge from-layer="1065" from-port="1" to-layer="1068" to-port="0" />
		<edge from-layer="1066" from-port="0" to-layer="1068" to-port="1" />
		<edge from-layer="1067" from-port="0" to-layer="1068" to-port="2" />
		<edge from-layer="1068" from-port="3" to-layer="1070" to-port="0" />
		<edge from-layer="1069" from-port="0" to-layer="1070" to-port="1" />
		<edge from-layer="1070" from-port="2" to-layer="1072" to-port="0" />
		<edge from-layer="1071" from-port="0" to-layer="1072" to-port="1" />
		<edge from-layer="1072" from-port="2" to-layer="1074" to-port="2" />
		<edge from-layer="1072" from-port="2" to-layer="1077" to-port="0" />
		<edge from-layer="1073" from-port="0" to-layer="1074" to-port="3" />
		<edge from-layer="1073" from-port="0" to-layer="1078" to-port="3" />
		<edge from-layer="1074" from-port="4" to-layer="1080" to-port="1" />
		<edge from-layer="1075" from-port="0" to-layer="1078" to-port="0" />
		<edge from-layer="1076" from-port="0" to-layer="1077" to-port="1" />
		<edge from-layer="1077" from-port="2" to-layer="1078" to-port="2" />
		<edge from-layer="1078" from-port="4" to-layer="1080" to-port="2" />
		<edge from-layer="1079" from-port="0" to-layer="1080" to-port="3" />
		<edge from-layer="1080" from-port="4" to-layer="1081" to-port="0" />
		<edge from-layer="1082" from-port="0" to-layer="1093" to-port="0" />
		<edge from-layer="1083" from-port="0" to-layer="1097" to-port="1" />
		<edge from-layer="1083" from-port="0" to-layer="1093" to-port="1" />
		<edge from-layer="1084" from-port="1" to-layer="1087" to-port="0" />
		<edge from-layer="1085" from-port="0" to-layer="1087" to-port="1" />
		<edge from-layer="1086" from-port="0" to-layer="1087" to-port="2" />
		<edge from-layer="1087" from-port="3" to-layer="1089" to-port="0" />
		<edge from-layer="1088" from-port="0" to-layer="1089" to-port="1" />
		<edge from-layer="1089" from-port="2" to-layer="1091" to-port="0" />
		<edge from-layer="1090" from-port="0" to-layer="1091" to-port="1" />
		<edge from-layer="1091" from-port="2" to-layer="1093" to-port="2" />
		<edge from-layer="1091" from-port="2" to-layer="1096" to-port="0" />
		<edge from-layer="1092" from-port="0" to-layer="1097" to-port="3" />
		<edge from-layer="1092" from-port="0" to-layer="1093" to-port="3" />
		<edge from-layer="1093" from-port="4" to-layer="1099" to-port="1" />
		<edge from-layer="1094" from-port="0" to-layer="1097" to-port="0" />
		<edge from-layer="1095" from-port="0" to-layer="1096" to-port="1" />
		<edge from-layer="1096" from-port="2" to-layer="1097" to-port="2" />
		<edge from-layer="1097" from-port="4" to-layer="1099" to-port="2" />
		<edge from-layer="1098" from-port="0" to-layer="1099" to-port="3" />
		<edge from-layer="1099" from-port="4" to-layer="1100" to-port="0" />
		<edge from-layer="1101" from-port="0" to-layer="1112" to-port="0" />
		<edge from-layer="1102" from-port="0" to-layer="1112" to-port="1" />
		<edge from-layer="1102" from-port="0" to-layer="1116" to-port="1" />
		<edge from-layer="1103" from-port="1" to-layer="1106" to-port="0" />
		<edge from-layer="1104" from-port="0" to-layer="1106" to-port="1" />
		<edge from-layer="1105" from-port="0" to-layer="1106" to-port="2" />
		<edge from-layer="1106" from-port="3" to-layer="1108" to-port="0" />
		<edge from-layer="1107" from-port="0" to-layer="1108" to-port="1" />
		<edge from-layer="1108" from-port="2" to-layer="1110" to-port="0" />
		<edge from-layer="1109" from-port="0" to-layer="1110" to-port="1" />
		<edge from-layer="1110" from-port="2" to-layer="1115" to-port="0" />
		<edge from-layer="1110" from-port="2" to-layer="1112" to-port="2" />
		<edge from-layer="1111" from-port="0" to-layer="1112" to-port="3" />
		<edge from-layer="1111" from-port="0" to-layer="1116" to-port="3" />
		<edge from-layer="1112" from-port="4" to-layer="1118" to-port="1" />
		<edge from-layer="1113" from-port="0" to-layer="1116" to-port="0" />
		<edge from-layer="1114" from-port="0" to-layer="1115" to-port="1" />
		<edge from-layer="1115" from-port="2" to-layer="1116" to-port="2" />
		<edge from-layer="1116" from-port="4" to-layer="1118" to-port="2" />
		<edge from-layer="1117" from-port="0" to-layer="1118" to-port="3" />
		<edge from-layer="1118" from-port="4" to-layer="1119" to-port="0" />
		<edge from-layer="1120" from-port="0" to-layer="1131" to-port="0" />
		<edge from-layer="1121" from-port="0" to-layer="1135" to-port="1" />
		<edge from-layer="1121" from-port="0" to-layer="1131" to-port="1" />
		<edge from-layer="1122" from-port="1" to-layer="1125" to-port="0" />
		<edge from-layer="1123" from-port="0" to-layer="1125" to-port="1" />
		<edge from-layer="1124" from-port="0" to-layer="1125" to-port="2" />
		<edge from-layer="1125" from-port="3" to-layer="1127" to-port="0" />
		<edge from-layer="1126" from-port="0" to-layer="1127" to-port="1" />
		<edge from-layer="1127" from-port="2" to-layer="1129" to-port="0" />
		<edge from-layer="1128" from-port="0" to-layer="1129" to-port="1" />
		<edge from-layer="1129" from-port="2" to-layer="1131" to-port="2" />
		<edge from-layer="1129" from-port="2" to-layer="1134" to-port="0" />
		<edge from-layer="1130" from-port="0" to-layer="1131" to-port="3" />
		<edge from-layer="1130" from-port="0" to-layer="1135" to-port="3" />
		<edge from-layer="1131" from-port="4" to-layer="1137" to-port="1" />
		<edge from-layer="1132" from-port="0" to-layer="1135" to-port="0" />
		<edge from-layer="1133" from-port="0" to-layer="1134" to-port="1" />
		<edge from-layer="1134" from-port="2" to-layer="1135" to-port="2" />
		<edge from-layer="1135" from-port="4" to-layer="1137" to-port="2" />
		<edge from-layer="1136" from-port="0" to-layer="1137" to-port="3" />
		<edge from-layer="1137" from-port="4" to-layer="1138" to-port="0" />
		<edge from-layer="1139" from-port="0" to-layer="1150" to-port="0" />
		<edge from-layer="1140" from-port="0" to-layer="1150" to-port="1" />
		<edge from-layer="1140" from-port="0" to-layer="1154" to-port="1" />
		<edge from-layer="1141" from-port="1" to-layer="1144" to-port="0" />
		<edge from-layer="1142" from-port="0" to-layer="1144" to-port="1" />
		<edge from-layer="1143" from-port="0" to-layer="1144" to-port="2" />
		<edge from-layer="1144" from-port="3" to-layer="1146" to-port="0" />
		<edge from-layer="1145" from-port="0" to-layer="1146" to-port="1" />
		<edge from-layer="1146" from-port="2" to-layer="1148" to-port="0" />
		<edge from-layer="1147" from-port="0" to-layer="1148" to-port="1" />
		<edge from-layer="1148" from-port="2" to-layer="1150" to-port="2" />
		<edge from-layer="1148" from-port="2" to-layer="1153" to-port="0" />
		<edge from-layer="1149" from-port="0" to-layer="1150" to-port="3" />
		<edge from-layer="1149" from-port="0" to-layer="1154" to-port="3" />
		<edge from-layer="1150" from-port="4" to-layer="1156" to-port="1" />
		<edge from-layer="1151" from-port="0" to-layer="1154" to-port="0" />
		<edge from-layer="1152" from-port="0" to-layer="1153" to-port="1" />
		<edge from-layer="1153" from-port="2" to-layer="1154" to-port="2" />
		<edge from-layer="1154" from-port="4" to-layer="1156" to-port="2" />
		<edge from-layer="1155" from-port="0" to-layer="1156" to-port="3" />
		<edge from-layer="1156" from-port="4" to-layer="1157" to-port="0" />
		<edge from-layer="1158" from-port="0" to-layer="1169" to-port="0" />
		<edge from-layer="1159" from-port="0" to-layer="1173" to-port="1" />
		<edge from-layer="1159" from-port="0" to-layer="1169" to-port="1" />
		<edge from-layer="1160" from-port="1" to-layer="1163" to-port="0" />
		<edge from-layer="1161" from-port="0" to-layer="1163" to-port="1" />
		<edge from-layer="1162" from-port="0" to-layer="1163" to-port="2" />
		<edge from-layer="1163" from-port="3" to-layer="1165" to-port="0" />
		<edge from-layer="1164" from-port="0" to-layer="1165" to-port="1" />
		<edge from-layer="1165" from-port="2" to-layer="1167" to-port="0" />
		<edge from-layer="1166" from-port="0" to-layer="1167" to-port="1" />
		<edge from-layer="1167" from-port="2" to-layer="1172" to-port="0" />
		<edge from-layer="1167" from-port="2" to-layer="1169" to-port="2" />
		<edge from-layer="1168" from-port="0" to-layer="1173" to-port="3" />
		<edge from-layer="1168" from-port="0" to-layer="1169" to-port="3" />
		<edge from-layer="1169" from-port="4" to-layer="1175" to-port="1" />
		<edge from-layer="1170" from-port="0" to-layer="1173" to-port="0" />
		<edge from-layer="1171" from-port="0" to-layer="1172" to-port="1" />
		<edge from-layer="1172" from-port="2" to-layer="1173" to-port="2" />
		<edge from-layer="1173" from-port="4" to-layer="1175" to-port="2" />
		<edge from-layer="1174" from-port="0" to-layer="1175" to-port="3" />
		<edge from-layer="1175" from-port="4" to-layer="1176" to-port="0" />
		<edge from-layer="1177" from-port="0" to-layer="1188" to-port="0" />
		<edge from-layer="1178" from-port="0" to-layer="1188" to-port="1" />
		<edge from-layer="1178" from-port="0" to-layer="1192" to-port="1" />
		<edge from-layer="1179" from-port="1" to-layer="1182" to-port="0" />
		<edge from-layer="1180" from-port="0" to-layer="1182" to-port="1" />
		<edge from-layer="1181" from-port="0" to-layer="1182" to-port="2" />
		<edge from-layer="1182" from-port="3" to-layer="1184" to-port="0" />
		<edge from-layer="1183" from-port="0" to-layer="1184" to-port="1" />
		<edge from-layer="1184" from-port="2" to-layer="1186" to-port="0" />
		<edge from-layer="1185" from-port="0" to-layer="1186" to-port="1" />
		<edge from-layer="1186" from-port="2" to-layer="1188" to-port="2" />
		<edge from-layer="1186" from-port="2" to-layer="1191" to-port="0" />
		<edge from-layer="1187" from-port="0" to-layer="1192" to-port="3" />
		<edge from-layer="1187" from-port="0" to-layer="1188" to-port="3" />
		<edge from-layer="1188" from-port="4" to-layer="1194" to-port="1" />
		<edge from-layer="1189" from-port="0" to-layer="1192" to-port="0" />
		<edge from-layer="1190" from-port="0" to-layer="1191" to-port="1" />
		<edge from-layer="1191" from-port="2" to-layer="1192" to-port="2" />
		<edge from-layer="1192" from-port="4" to-layer="1194" to-port="2" />
		<edge from-layer="1193" from-port="0" to-layer="1194" to-port="3" />
		<edge from-layer="1194" from-port="4" to-layer="1195" to-port="0" />
		<edge from-layer="1196" from-port="0" to-layer="1207" to-port="0" />
		<edge from-layer="1197" from-port="0" to-layer="1207" to-port="1" />
		<edge from-layer="1197" from-port="0" to-layer="1211" to-port="1" />
		<edge from-layer="1198" from-port="1" to-layer="1201" to-port="0" />
		<edge from-layer="1199" from-port="0" to-layer="1201" to-port="1" />
		<edge from-layer="1200" from-port="0" to-layer="1201" to-port="2" />
		<edge from-layer="1201" from-port="3" to-layer="1203" to-port="0" />
		<edge from-layer="1202" from-port="0" to-layer="1203" to-port="1" />
		<edge from-layer="1203" from-port="2" to-layer="1205" to-port="0" />
		<edge from-layer="1204" from-port="0" to-layer="1205" to-port="1" />
		<edge from-layer="1205" from-port="2" to-layer="1207" to-port="2" />
		<edge from-layer="1205" from-port="2" to-layer="1210" to-port="0" />
		<edge from-layer="1206" from-port="0" to-layer="1207" to-port="3" />
		<edge from-layer="1206" from-port="0" to-layer="1211" to-port="3" />
		<edge from-layer="1207" from-port="4" to-layer="1213" to-port="1" />
		<edge from-layer="1208" from-port="0" to-layer="1211" to-port="0" />
		<edge from-layer="1209" from-port="0" to-layer="1210" to-port="1" />
		<edge from-layer="1210" from-port="2" to-layer="1211" to-port="2" />
		<edge from-layer="1211" from-port="4" to-layer="1213" to-port="2" />
		<edge from-layer="1212" from-port="0" to-layer="1213" to-port="3" />
		<edge from-layer="1213" from-port="4" to-layer="1214" to-port="0" />
		<edge from-layer="1215" from-port="0" to-layer="1226" to-port="0" />
		<edge from-layer="1216" from-port="0" to-layer="1230" to-port="1" />
		<edge from-layer="1216" from-port="0" to-layer="1226" to-port="1" />
		<edge from-layer="1217" from-port="1" to-layer="1220" to-port="0" />
		<edge from-layer="1218" from-port="0" to-layer="1220" to-port="1" />
		<edge from-layer="1219" from-port="0" to-layer="1220" to-port="2" />
		<edge from-layer="1220" from-port="3" to-layer="1222" to-port="0" />
		<edge from-layer="1221" from-port="0" to-layer="1222" to-port="1" />
		<edge from-layer="1222" from-port="2" to-layer="1224" to-port="0" />
		<edge from-layer="1223" from-port="0" to-layer="1224" to-port="1" />
		<edge from-layer="1224" from-port="2" to-layer="1229" to-port="0" />
		<edge from-layer="1224" from-port="2" to-layer="1226" to-port="2" />
		<edge from-layer="1225" from-port="0" to-layer="1226" to-port="3" />
		<edge from-layer="1225" from-port="0" to-layer="1230" to-port="3" />
		<edge from-layer="1226" from-port="4" to-layer="1232" to-port="1" />
		<edge from-layer="1227" from-port="0" to-layer="1230" to-port="0" />
		<edge from-layer="1228" from-port="0" to-layer="1229" to-port="1" />
		<edge from-layer="1229" from-port="2" to-layer="1230" to-port="2" />
		<edge from-layer="1230" from-port="4" to-layer="1232" to-port="2" />
		<edge from-layer="1231" from-port="0" to-layer="1232" to-port="3" />
		<edge from-layer="1232" from-port="4" to-layer="1233" to-port="0" />
		<edge from-layer="1234" from-port="0" to-layer="1245" to-port="0" />
		<edge from-layer="1235" from-port="0" to-layer="1245" to-port="1" />
		<edge from-layer="1235" from-port="0" to-layer="1249" to-port="1" />
		<edge from-layer="1236" from-port="1" to-layer="1239" to-port="0" />
		<edge from-layer="1237" from-port="0" to-layer="1239" to-port="1" />
		<edge from-layer="1238" from-port="0" to-layer="1239" to-port="2" />
		<edge from-layer="1239" from-port="3" to-layer="1241" to-port="0" />
		<edge from-layer="1240" from-port="0" to-layer="1241" to-port="1" />
		<edge from-layer="1241" from-port="2" to-layer="1243" to-port="0" />
		<edge from-layer="1242" from-port="0" to-layer="1243" to-port="1" />
		<edge from-layer="1243" from-port="2" to-layer="1245" to-port="2" />
		<edge from-layer="1243" from-port="2" to-layer="1248" to-port="0" />
		<edge from-layer="1244" from-port="0" to-layer="1249" to-port="3" />
		<edge from-layer="1244" from-port="0" to-layer="1245" to-port="3" />
		<edge from-layer="1245" from-port="4" to-layer="1251" to-port="1" />
		<edge from-layer="1246" from-port="0" to-layer="1249" to-port="0" />
		<edge from-layer="1247" from-port="0" to-layer="1248" to-port="1" />
		<edge from-layer="1248" from-port="2" to-layer="1249" to-port="2" />
		<edge from-layer="1249" from-port="4" to-layer="1251" to-port="2" />
		<edge from-layer="1250" from-port="0" to-layer="1251" to-port="3" />
		<edge from-layer="1251" from-port="4" to-layer="1252" to-port="0" />
		<edge from-layer="1253" from-port="0" to-layer="1264" to-port="0" />
		<edge from-layer="1254" from-port="0" to-layer="1264" to-port="1" />
		<edge from-layer="1254" from-port="0" to-layer="1268" to-port="1" />
		<edge from-layer="1255" from-port="1" to-layer="1258" to-port="0" />
		<edge from-layer="1256" from-port="0" to-layer="1258" to-port="1" />
		<edge from-layer="1257" from-port="0" to-layer="1258" to-port="2" />
		<edge from-layer="1258" from-port="3" to-layer="1260" to-port="0" />
		<edge from-layer="1259" from-port="0" to-layer="1260" to-port="1" />
		<edge from-layer="1260" from-port="2" to-layer="1262" to-port="0" />
		<edge from-layer="1261" from-port="0" to-layer="1262" to-port="1" />
		<edge from-layer="1262" from-port="2" to-layer="1264" to-port="2" />
		<edge from-layer="1262" from-port="2" to-layer="1267" to-port="0" />
		<edge from-layer="1263" from-port="0" to-layer="1268" to-port="3" />
		<edge from-layer="1263" from-port="0" to-layer="1264" to-port="3" />
		<edge from-layer="1264" from-port="4" to-layer="1270" to-port="1" />
		<edge from-layer="1265" from-port="0" to-layer="1268" to-port="0" />
		<edge from-layer="1266" from-port="0" to-layer="1267" to-port="1" />
		<edge from-layer="1267" from-port="2" to-layer="1268" to-port="2" />
		<edge from-layer="1268" from-port="4" to-layer="1270" to-port="2" />
		<edge from-layer="1269" from-port="0" to-layer="1270" to-port="3" />
		<edge from-layer="1270" from-port="4" to-layer="1271" to-port="0" />
		<edge from-layer="1272" from-port="0" to-layer="1283" to-port="0" />
		<edge from-layer="1273" from-port="0" to-layer="1283" to-port="1" />
		<edge from-layer="1273" from-port="0" to-layer="1287" to-port="1" />
		<edge from-layer="1274" from-port="1" to-layer="1277" to-port="0" />
		<edge from-layer="1275" from-port="0" to-layer="1277" to-port="1" />
		<edge from-layer="1276" from-port="0" to-layer="1277" to-port="2" />
		<edge from-layer="1277" from-port="3" to-layer="1279" to-port="0" />
		<edge from-layer="1278" from-port="0" to-layer="1279" to-port="1" />
		<edge from-layer="1279" from-port="2" to-layer="1281" to-port="0" />
		<edge from-layer="1280" from-port="0" to-layer="1281" to-port="1" />
		<edge from-layer="1281" from-port="2" to-layer="1286" to-port="0" />
		<edge from-layer="1281" from-port="2" to-layer="1283" to-port="2" />
		<edge from-layer="1282" from-port="0" to-layer="1283" to-port="3" />
		<edge from-layer="1282" from-port="0" to-layer="1287" to-port="3" />
		<edge from-layer="1283" from-port="4" to-layer="1289" to-port="1" />
		<edge from-layer="1284" from-port="0" to-layer="1287" to-port="0" />
		<edge from-layer="1285" from-port="0" to-layer="1286" to-port="1" />
		<edge from-layer="1286" from-port="2" to-layer="1287" to-port="2" />
		<edge from-layer="1287" from-port="4" to-layer="1289" to-port="2" />
		<edge from-layer="1288" from-port="0" to-layer="1289" to-port="3" />
		<edge from-layer="1289" from-port="4" to-layer="1290" to-port="0" />
		<edge from-layer="1291" from-port="0" to-layer="1302" to-port="0" />
		<edge from-layer="1292" from-port="0" to-layer="1306" to-port="1" />
		<edge from-layer="1292" from-port="0" to-layer="1302" to-port="1" />
		<edge from-layer="1293" from-port="1" to-layer="1296" to-port="0" />
		<edge from-layer="1294" from-port="0" to-layer="1296" to-port="1" />
		<edge from-layer="1295" from-port="0" to-layer="1296" to-port="2" />
		<edge from-layer="1296" from-port="3" to-layer="1298" to-port="0" />
		<edge from-layer="1297" from-port="0" to-layer="1298" to-port="1" />
		<edge from-layer="1298" from-port="2" to-layer="1300" to-port="0" />
		<edge from-layer="1299" from-port="0" to-layer="1300" to-port="1" />
		<edge from-layer="1300" from-port="2" to-layer="1302" to-port="2" />
		<edge from-layer="1300" from-port="2" to-layer="1305" to-port="0" />
		<edge from-layer="1301" from-port="0" to-layer="1302" to-port="3" />
		<edge from-layer="1301" from-port="0" to-layer="1306" to-port="3" />
		<edge from-layer="1302" from-port="4" to-layer="1308" to-port="1" />
		<edge from-layer="1303" from-port="0" to-layer="1306" to-port="0" />
		<edge from-layer="1304" from-port="0" to-layer="1305" to-port="1" />
		<edge from-layer="1305" from-port="2" to-layer="1306" to-port="2" />
		<edge from-layer="1306" from-port="4" to-layer="1308" to-port="2" />
		<edge from-layer="1307" from-port="0" to-layer="1308" to-port="3" />
		<edge from-layer="1308" from-port="4" to-layer="1309" to-port="0" />
		<edge from-layer="1310" from-port="0" to-layer="1311" to-port="0" />
		<edge from-layer="1313" from-port="0" to-layer="1315" to-port="1" />
		<edge from-layer="1314" from-port="0" to-layer="1315" to-port="2" />
		<edge from-layer="1315" from-port="3" to-layer="1316" to-port="1" />
		<edge from-layer="1316" from-port="2" to-layer="1317" to-port="0" />
	</edges>
	<rt_info>
		<MO_version value="custom_HEAD_f6ee6e92f846a8c665e4a7089c51481f9689a3b5" />
		<Runtime_version value="2023.0.0-10521-f6ee6e92f84-HEAD" />
		<conversion_parameters>
			<compress_to_fp16 value="False" />
			<framework value="onnx" />
			<input value="input,inp_state_000,inp_state_001,inp_state_002,inp_state_003,inp_state_004,inp_state_005,inp_state_006,inp_state_007,inp_state_008,inp_state_009,inp_state_010,inp_state_011,inp_state_012,inp_state_013,inp_state_014,inp_state_015,inp_state_016,inp_state_017,inp_state_018,inp_state_019,inp_state_020,inp_state_021,inp_state_022,inp_state_023,inp_state_024,inp_state_025,inp_state_026,inp_state_027,inp_state_028,inp_state_029,inp_state_030,inp_state_031,inp_state_032,inp_state_033,inp_state_034,inp_state_035,inp_state_036,inp_state_037,inp_state_038" />
			<input_model value="DIR/model.onnx" />
			<input_shape value="[1,128],[1,128],[1,2,129,2],[1,18,129,2],[1,34,129,2],[1,50,129,2],[1,32,129,1],[1,32,64,4],[1,48,64,4],[1,64,64,4],[1,80,64,4],[1,64,64,1],[1,64,32,8],[1,96,32,8],[1,128,32,8],[1,128,32,1],[1,128,16,16],[1,192,16,16],[1,256,16,1],[1,256,8,32],[1,384,8,32],[1,512,16,16],[1,256,16,16],[1,384,16,16],[1,256,32,8],[1,128,32,8],[1,192,32,8],[1,256,32,8],[1,128,64,4],[1,64,64,4],[1,96,64,4],[1,128,64,4],[1,160,64,4],[1,64,129,2],[1,32,129,2],[1,48,129,2],[1,64,129,2],[1,80,129,2],[1,2,129,2],[1,1,128]" />
			<layout value="input(nc),inp_state_000(nc),inp_state_001(nchw),inp_state_002(nchw),inp_state_003(nchw),inp_state_004(nchw),inp_state_005(nchw),inp_state_006(nchw),inp_state_007(nchw),inp_state_008(nchw),inp_state_009(nchw),inp_state_010(nchw),inp_state_011(nchw),inp_state_012(nchw),inp_state_013(nchw),inp_state_014(nchw),inp_state_015(nchw),inp_state_016(nchw),inp_state_017(nchw),inp_state_018(nchw),inp_state_019(nchw),inp_state_020(nchw),inp_state_021(nchw),inp_state_022(nchw),inp_state_023(nchw),inp_state_024(nchw),inp_state_025(nchw),inp_state_026(nchw),inp_state_027(nchw),inp_state_028(nchw),inp_state_029(nchw),inp_state_030(nchw),inp_state_031(nchw),inp_state_032(nchw),inp_state_033(nchw),inp_state_034(nchw),inp_state_035(nchw),inp_state_036(nchw),inp_state_037(nchw),inp_state_038(nhw)" />
			<model_name value="noise-suppression-denseunet-ll-0001" />
			<output value="output,Y,delay,out_state_000,out_state_001,out_state_002,out_state_003,out_state_004,out_state_005,out_state_006,out_state_007,out_state_008,out_state_009,out_state_010,out_state_011,out_state_012,out_state_013,out_state_014,out_state_015,out_state_016,out_state_017,out_state_018,out_state_019,out_state_020,out_state_021,out_state_022,out_state_023,out_state_024,out_state_025,out_state_026,out_state_027,out_state_028,out_state_029,out_state_030,out_state_031,out_state_032,out_state_033,out_state_034,out_state_035,out_state_036,out_state_037,out_state_038" />
			<output_dir value="DIR" />
		</conversion_parameters>
		<legacy_frontend value="False" />
	</rt_info>
</net>
