<?xml version="1.0"?>
<net name="torch-jit-export" version="11">
	<layers>
		<layer id="39" name="input" type="Parameter" version="opset1">
			<data shape="1,128" element_type="f32" />
			<rt_info>
				<attribute name="old_api_map_element_type" version="0" value="f16" />
			</rt_info>
			<output>
				<port id="0" precision="FP32" names="input">
					<dim>1</dim>
					<dim>128</dim>
					<rt_info>
						<attribute name="layout" version="0" layout="[N,C]" />
					</rt_info>
				</port>
			</output>
		</layer>
		<layer id="38" name="inp_state_000" type="Parameter" version="opset1">
			<data shape="1,128" element_type="f32" />
			<rt_info>
				<attribute name="old_api_map_element_type" version="0" value="f16" />
			</rt_info>
			<output>
				<port id="0" precision="FP32" names="inp_state_000">
					<dim>1</dim>
					<dim>128</dim>
					<rt_info>
						<attribute name="layout" version="0" layout="[N,C]" />
					</rt_info>
				</port>
			</output>
		</layer>
		<layer id="37" name="inp_state_001" type="Parameter" version="opset1">
			<data shape="1,2,129,2" element_type="f32" />
			<rt_info>
				<attribute name="old_api_map_element_type" version="0" value="f16" />
			</rt_info>
			<output>
				<port id="0" precision="FP32" names="inp_state_001">
					<dim>1</dim>
					<dim>2</dim>
					<dim>129</dim>
					<dim>2</dim>
					<rt_info>
						<attribute name="layout" version="0" layout="[N,C,H,W]" />
					</rt_info>
				</port>
			</output>
		</layer>
		<layer id="36" name="inp_state_002" type="Parameter" version="opset1">
			<data shape="1,18,129,2" element_type="f32" />
			<rt_info>
				<attribute name="old_api_map_element_type" version="0" value="f16" />
			</rt_info>
			<output>
				<port id="0" precision="FP32" names="inp_state_002">
					<dim>1</dim>
					<dim>18</dim>
					<dim>129</dim>
					<dim>2</dim>
					<rt_info>
						<attribute name="layout" version="0" layout="[N,C,H,W]" />
					</rt_info>
				</port>
			</output>
		</layer>
		<layer id="35" name="inp_state_003" type="Parameter" version="opset1">
			<data shape="1,34,129,2" element_type="f32" />
			<rt_info>
				<attribute name="old_api_map_element_type" version="0" value="f16" />
			</rt_info>
			<output>
				<port id="0" precision="FP32" names="inp_state_003">
					<dim>1</dim>
					<dim>34</dim>
					<dim>129</dim>
					<dim>2</dim>
					<rt_info>
						<attribute name="layout" version="0" layout="[N,C,H,W]" />
					</rt_info>
				</port>
			</output>
		</layer>
		<layer id="34" name="inp_state_004" type="Parameter" version="opset1">
			<data shape="1,50,129,2" element_type="f32" />
			<rt_info>
				<attribute name="old_api_map_element_type" version="0" value="f16" />
			</rt_info>
			<output>
				<port id="0" precision="FP32" names="inp_state_004">
					<dim>1</dim>
					<dim>50</dim>
					<dim>129</dim>
					<dim>2</dim>
					<rt_info>
						<attribute name="layout" version="0" layout="[N,C,H,W]" />
					</rt_info>
				</port>
			</output>
		</layer>
		<layer id="33" name="inp_state_005" type="Parameter" version="opset1">
			<data shape="1,32,129,1" element_type="f32" />
			<rt_info>
				<attribute name="old_api_map_element_type" version="0" value="f16" />
			</rt_info>
			<output>
				<port id="0" precision="FP32" names="inp_state_005">
					<dim>1</dim>
					<dim>32</dim>
					<dim>129</dim>
					<dim>1</dim>
					<rt_info>
						<attribute name="layout" version="0" layout="[N,C,H,W]" />
					</rt_info>
				</port>
			</output>
		</layer>
		<layer id="32" name="inp_state_006" type="Parameter" version="opset1">
			<data shape="1,32,64,4" element_type="f32" />
			<rt_info>
				<attribute name="old_api_map_element_type" version="0" value="f16" />
			</rt_info>
			<output>
				<port id="0" precision="FP32" names="inp_state_006">
					<dim>1</dim>
					<dim>32</dim>
					<dim>64</dim>
					<dim>4</dim>
					<rt_info>
						<attribute name="layout" version="0" layout="[N,C,H,W]" />
					</rt_info>
				</port>
			</output>
		</layer>
		<layer id="31" name="inp_state_007" type="Parameter" version="opset1">
			<data shape="1,48,64,4" element_type="f32" />
			<rt_info>
				<attribute name="old_api_map_element_type" version="0" value="f16" />
			</rt_info>
			<output>
				<port id="0" precision="FP32" names="inp_state_007">
					<dim>1</dim>
					<dim>48</dim>
					<dim>64</dim>
					<dim>4</dim>
					<rt_info>
						<attribute name="layout" version="0" layout="[N,C,H,W]" />
					</rt_info>
				</port>
			</output>
		</layer>
		<layer id="30" name="inp_state_008" type="Parameter" version="opset1">
			<data shape="1,64,64,4" element_type="f32" />
			<rt_info>
				<attribute name="old_api_map_element_type" version="0" value="f16" />
			</rt_info>
			<output>
				<port id="0" precision="FP32" names="inp_state_008">
					<dim>1</dim>
					<dim>64</dim>
					<dim>64</dim>
					<dim>4</dim>
					<rt_info>
						<attribute name="layout" version="0" layout="[N,C,H,W]" />
					</rt_info>
				</port>
			</output>
		</layer>
		<layer id="29" name="inp_state_009" type="Parameter" version="opset1">
			<data shape="1,80,64,4" element_type="f32" />
			<rt_info>
				<attribute name="old_api_map_element_type" version="0" value="f16" />
			</rt_info>
			<output>
				<port id="0" precision="FP32" names="inp_state_009">
					<dim>1</dim>
					<dim>80</dim>
					<dim>64</dim>
					<dim>4</dim>
					<rt_info>
						<attribute name="layout" version="0" layout="[N,C,H,W]" />
					</rt_info>
				</port>
			</output>
		</layer>
		<layer id="28" name="inp_state_010" type="Parameter" version="opset1">
			<data shape="1,64,64,1" element_type="f32" />
			<rt_info>
				<attribute name="old_api_map_element_type" version="0" value="f16" />
			</rt_info>
			<output>
				<port id="0" precision="FP32" names="inp_state_010">
					<dim>1</dim>
					<dim>64</dim>
					<dim>64</dim>
					<dim>1</dim>
					<rt_info>
						<attribute name="layout" version="0" layout="[N,C,H,W]" />
					</rt_info>
				</port>
			</output>
		</layer>
		<layer id="27" name="inp_state_011" type="Parameter" version="opset1">
			<data shape="1,64,32,8" element_type="f32" />
			<rt_info>
				<attribute name="old_api_map_element_type" version="0" value="f16" />
			</rt_info>
			<output>
				<port id="0" precision="FP32" names="inp_state_011">
					<dim>1</dim>
					<dim>64</dim>
					<dim>32</dim>
					<dim>8</dim>
					<rt_info>
						<attribute name="layout" version="0" layout="[N,C,H,W]" />
					</rt_info>
				</port>
			</output>
		</layer>
		<layer id="26" name="inp_state_012" type="Parameter" version="opset1">
			<data shape="1,96,32,8" element_type="f32" />
			<rt_info>
				<attribute name="old_api_map_element_type" version="0" value="f16" />
			</rt_info>
			<output>
				<port id="0" precision="FP32" names="inp_state_012">
					<dim>1</dim>
					<dim>96</dim>
					<dim>32</dim>
					<dim>8</dim>
					<rt_info>
						<attribute name="layout" version="0" layout="[N,C,H,W]" />
					</rt_info>
				</port>
			</output>
		</layer>
		<layer id="25" name="inp_state_013" type="Parameter" version="opset1">
			<data shape="1,128,32,8" element_type="f32" />
			<rt_info>
				<attribute name="old_api_map_element_type" version="0" value="f16" />
			</rt_info>
			<output>
				<port id="0" precision="FP32" names="inp_state_013">
					<dim>1</dim>
					<dim>128</dim>
					<dim>32</dim>
					<dim>8</dim>
					<rt_info>
						<attribute name="layout" version="0" layout="[N,C,H,W]" />
					</rt_info>
				</port>
			</output>
		</layer>
		<layer id="24" name="inp_state_014" type="Parameter" version="opset1">
			<data shape="1,128,32,1" element_type="f32" />
			<rt_info>
				<attribute name="old_api_map_element_type" version="0" value="f16" />
			</rt_info>
			<output>
				<port id="0" precision="FP32" names="inp_state_014">
					<dim>1</dim>
					<dim>128</dim>
					<dim>32</dim>
					<dim>1</dim>
					<rt_info>
						<attribute name="layout" version="0" layout="[N,C,H,W]" />
					</rt_info>
				</port>
			</output>
		</layer>
		<layer id="23" name="inp_state_015" type="Parameter" version="opset1">
			<data shape="1,128,16,16" element_type="f32" />
			<rt_info>
				<attribute name="old_api_map_element_type" version="0" value="f16" />
			</rt_info>
			<output>
				<port id="0" precision="FP32" names="inp_state_015">
					<dim>1</dim>
					<dim>128</dim>
					<dim>16</dim>
					<dim>16</dim>
					<rt_info>
						<attribute name="layout" version="0" layout="[N,C,H,W]" />
					</rt_info>
				</port>
			</output>
		</layer>
		<layer id="22" name="inp_state_016" type="Parameter" version="opset1">
			<data shape="1,192,16,16" element_type="f32" />
			<rt_info>
				<attribute name="old_api_map_element_type" version="0" value="f16" />
			</rt_info>
			<output>
				<port id="0" precision="FP32" names="inp_state_016">
					<dim>1</dim>
					<dim>192</dim>
					<dim>16</dim>
					<dim>16</dim>
					<rt_info>
						<attribute name="layout" version="0" layout="[N,C,H,W]" />
					</rt_info>
				</port>
			</output>
		</layer>
		<layer id="21" name="inp_state_017" type="Parameter" version="opset1">
			<data shape="1,256,16,1" element_type="f32" />
			<rt_info>
				<attribute name="old_api_map_element_type" version="0" value="f16" />
			</rt_info>
			<output>
				<port id="0" precision="FP32" names="inp_state_017">
					<dim>1</dim>
					<dim>256</dim>
					<dim>16</dim>
					<dim>1</dim>
					<rt_info>
						<attribute name="layout" version="0" layout="[N,C,H,W]" />
					</rt_info>
				</port>
			</output>
		</layer>
		<layer id="20" name="inp_state_018" type="Parameter" version="opset1">
			<data shape="1,256,8,32" element_type="f32" />
			<rt_info>
				<attribute name="old_api_map_element_type" version="0" value="f16" />
			</rt_info>
			<output>
				<port id="0" precision="FP32" names="inp_state_018">
					<dim>1</dim>
					<dim>256</dim>
					<dim>8</dim>
					<dim>32</dim>
					<rt_info>
						<attribute name="layout" version="0" layout="[N,C,H,W]" />
					</rt_info>
				</port>
			</output>
		</layer>
		<layer id="19" name="inp_state_019" type="Parameter" version="opset1">
			<data shape="1,384,8,32" element_type="f32" />
			<rt_info>
				<attribute name="old_api_map_element_type" version="0" value="f16" />
			</rt_info>
			<output>
				<port id="0" precision="FP32" names="inp_state_019">
					<dim>1</dim>
					<dim>384</dim>
					<dim>8</dim>
					<dim>32</dim>
					<rt_info>
						<attribute name="layout" version="0" layout="[N,C,H,W]" />
					</rt_info>
				</port>
			</output>
		</layer>
		<layer id="18" name="inp_state_020" type="Parameter" version="opset1">
			<data shape="1,512,16,16" element_type="f32" />
			<rt_info>
				<attribute name="old_api_map_element_type" version="0" value="f16" />
			</rt_info>
			<output>
				<port id="0" precision="FP32" names="inp_state_020">
					<dim>1</dim>
					<dim>512</dim>
					<dim>16</dim>
					<dim>16</dim>
					<rt_info>
						<attribute name="layout" version="0" layout="[N,C,H,W]" />
					</rt_info>
				</port>
			</output>
		</layer>
		<layer id="17" name="inp_state_021" type="Parameter" version="opset1">
			<data shape="1,256,16,16" element_type="f32" />
			<rt_info>
				<attribute name="old_api_map_element_type" version="0" value="f16" />
			</rt_info>
			<output>
				<port id="0" precision="FP32" names="inp_state_021">
					<dim>1</dim>
					<dim>256</dim>
					<dim>16</dim>
					<dim>16</dim>
					<rt_info>
						<attribute name="layout" version="0" layout="[N,C,H,W]" />
					</rt_info>
				</port>
			</output>
		</layer>
		<layer id="16" name="inp_state_022" type="Parameter" version="opset1">
			<data shape="1,384,16,16" element_type="f32" />
			<rt_info>
				<attribute name="old_api_map_element_type" version="0" value="f16" />
			</rt_info>
			<output>
				<port id="0" precision="FP32" names="inp_state_022">
					<dim>1</dim>
					<dim>384</dim>
					<dim>16</dim>
					<dim>16</dim>
					<rt_info>
						<attribute name="layout" version="0" layout="[N,C,H,W]" />
					</rt_info>
				</port>
			</output>
		</layer>
		<layer id="15" name="inp_state_023" type="Parameter" version="opset1">
			<data shape="1,256,32,8" element_type="f32" />
			<rt_info>
				<attribute name="old_api_map_element_type" version="0" value="f16" />
			</rt_info>
			<output>
				<port id="0" precision="FP32" names="inp_state_023">
					<dim>1</dim>
					<dim>256</dim>
					<dim>32</dim>
					<dim>8</dim>
					<rt_info>
						<attribute name="layout" version="0" layout="[N,C,H,W]" />
					</rt_info>
				</port>
			</output>
		</layer>
		<layer id="14" name="inp_state_024" type="Parameter" version="opset1">
			<data shape="1,128,32,8" element_type="f32" />
			<rt_info>
				<attribute name="old_api_map_element_type" version="0" value="f16" />
			</rt_info>
			<output>
				<port id="0" precision="FP32" names="inp_state_024">
					<dim>1</dim>
					<dim>128</dim>
					<dim>32</dim>
					<dim>8</dim>
					<rt_info>
						<attribute name="layout" version="0" layout="[N,C,H,W]" />
					</rt_info>
				</port>
			</output>
		</layer>
		<layer id="13" name="inp_state_025" type="Parameter" version="opset1">
			<data shape="1,192,32,8" element_type="f32" />
			<rt_info>
				<attribute name="old_api_map_element_type" version="0" value="f16" />
			</rt_info>
			<output>
				<port id="0" precision="FP32" names="inp_state_025">
					<dim>1</dim>
					<dim>192</dim>
					<dim>32</dim>
					<dim>8</dim>
					<rt_info>
						<attribute name="layout" version="0" layout="[N,C,H,W]" />
					</rt_info>
				</port>
			</output>
		</layer>
		<layer id="12" name="inp_state_026" type="Parameter" version="opset1">
			<data shape="1,256,32,8" element_type="f32" />
			<rt_info>
				<attribute name="old_api_map_element_type" version="0" value="f16" />
			</rt_info>
			<output>
				<port id="0" precision="FP32" names="inp_state_026">
					<dim>1</dim>
					<dim>256</dim>
					<dim>32</dim>
					<dim>8</dim>
					<rt_info>
						<attribute name="layout" version="0" layout="[N,C,H,W]" />
					</rt_info>
				</port>
			</output>
		</layer>
		<layer id="11" name="inp_state_027" type="Parameter" version="opset1">
			<data shape="1,128,64,4" element_type="f32" />
			<rt_info>
				<attribute name="old_api_map_element_type" version="0" value="f16" />
			</rt_info>
			<output>
				<port id="0" precision="FP32" names="inp_state_027">
					<dim>1</dim>
					<dim>128</dim>
					<dim>64</dim>
					<dim>4</dim>
					<rt_info>
						<attribute name="layout" version="0" layout="[N,C,H,W]" />
					</rt_info>
				</port>
			</output>
		</layer>
		<layer id="10" name="inp_state_028" type="Parameter" version="opset1">
			<data shape="1,64,64,4" element_type="f32" />
			<rt_info>
				<attribute name="old_api_map_element_type" version="0" value="f16" />
			</rt_info>
			<output>
				<port id="0" precision="FP32" names="inp_state_028">
					<dim>1</dim>
					<dim>64</dim>
					<dim>64</dim>
					<dim>4</dim>
					<rt_info>
						<attribute name="layout" version="0" layout="[N,C,H,W]" />
					</rt_info>
				</port>
			</output>
		</layer>
		<layer id="9" name="inp_state_029" type="Parameter" version="opset1">
			<data shape="1,96,64,4" element_type="f32" />
			<rt_info>
				<attribute name="old_api_map_element_type" version="0" value="f16" />
			</rt_info>
			<output>
				<port id="0" precision="FP32" names="inp_state_029">
					<dim>1</dim>
					<dim>96</dim>
					<dim>64</dim>
					<dim>4</dim>
					<rt_info>
						<attribute name="layout" version="0" layout="[N,C,H,W]" />
					</rt_info>
				</port>
			</output>
		</layer>
		<layer id="8" name="inp_state_030" type="Parameter" version="opset1">
			<data shape="1,128,64,4" element_type="f32" />
			<rt_info>
				<attribute name="old_api_map_element_type" version="0" value="f16" />
			</rt_info>
			<output>
				<port id="0" precision="FP32" names="inp_state_030">
					<dim>1</dim>
					<dim>128</dim>
					<dim>64</dim>
					<dim>4</dim>
					<rt_info>
						<attribute name="layout" version="0" layout="[N,C,H,W]" />
					</rt_info>
				</port>
			</output>
		</layer>
		<layer id="7" name="inp_state_031" type="Parameter" version="opset1">
			<data shape="1,160,64,4" element_type="f32" />
			<rt_info>
				<attribute name="old_api_map_element_type" version="0" value="f16" />
			</rt_info>
			<output>
				<port id="0" precision="FP32" names="inp_state_031">
					<dim>1</dim>
					<dim>160</dim>
					<dim>64</dim>
					<dim>4</dim>
					<rt_info>
						<attribute name="layout" version="0" layout="[N,C,H,W]" />
					</rt_info>
				</port>
			</output>
		</layer>
		<layer id="6" name="inp_state_032" type="Parameter" version="opset1">
			<data shape="1,64,129,2" element_type="f32" />
			<rt_info>
				<attribute name="old_api_map_element_type" version="0" value="f16" />
			</rt_info>
			<output>
				<port id="0" precision="FP32" names="inp_state_032">
					<dim>1</dim>
					<dim>64</dim>
					<dim>129</dim>
					<dim>2</dim>
					<rt_info>
						<attribute name="layout" version="0" layout="[N,C,H,W]" />
					</rt_info>
				</port>
			</output>
		</layer>
		<layer id="5" name="inp_state_033" type="Parameter" version="opset1">
			<data shape="1,32,129,2" element_type="f32" />
			<rt_info>
				<attribute name="old_api_map_element_type" version="0" value="f16" />
			</rt_info>
			<output>
				<port id="0" precision="FP32" names="inp_state_033">
					<dim>1</dim>
					<dim>32</dim>
					<dim>129</dim>
					<dim>2</dim>
					<rt_info>
						<attribute name="layout" version="0" layout="[N,C,H,W]" />
					</rt_info>
				</port>
			</output>
		</layer>
		<layer id="4" name="inp_state_034" type="Parameter" version="opset1">
			<data shape="1,48,129,2" element_type="f32" />
			<rt_info>
				<attribute name="old_api_map_element_type" version="0" value="f16" />
			</rt_info>
			<output>
				<port id="0" precision="FP32" names="inp_state_034">
					<dim>1</dim>
					<dim>48</dim>
					<dim>129</dim>
					<dim>2</dim>
					<rt_info>
						<attribute name="layout" version="0" layout="[N,C,H,W]" />
					</rt_info>
				</port>
			</output>
		</layer>
		<layer id="3" name="inp_state_035" type="Parameter" version="opset1">
			<data shape="1,64,129,2" element_type="f32" />
			<rt_info>
				<attribute name="old_api_map_element_type" version="0" value="f16" />
			</rt_info>
			<output>
				<port id="0" precision="FP32" names="inp_state_035">
					<dim>1</dim>
					<dim>64</dim>
					<dim>129</dim>
					<dim>2</dim>
					<rt_info>
						<attribute name="layout" version="0" layout="[N,C,H,W]" />
					</rt_info>
				</port>
			</output>
		</layer>
		<layer id="2" name="inp_state_036" type="Parameter" version="opset1">
			<data shape="1,80,129,2" element_type="f32" />
			<rt_info>
				<attribute name="old_api_map_element_type" version="0" value="f16" />
			</rt_info>
			<output>
				<port id="0" precision="FP32" names="inp_state_036">
					<dim>1</dim>
					<dim>80</dim>
					<dim>129</dim>
					<dim>2</dim>
					<rt_info>
						<attribute name="layout" version="0" layout="[N,C,H,W]" />
					</rt_info>
				</port>
			</output>
		</layer>
		<layer id="1" name="inp_state_037" type="Parameter" version="opset1">
			<data shape="1,2,129,2" element_type="f32" />
			<rt_info>
				<attribute name="old_api_map_element_type" version="0" value="f16" />
			</rt_info>
			<output>
				<port id="0" precision="FP32" names="inp_state_037">
					<dim>1</dim>
					<dim>2</dim>
					<dim>129</dim>
					<dim>2</dim>
					<rt_info>
						<attribute name="layout" version="0" layout="[N,C,H,W]" />
					</rt_info>
				</port>
			</output>
		</layer>
		<layer id="0" name="inp_state_038" type="Parameter" version="opset1">
			<data shape="1,1,128" element_type="f32" />
			<rt_info>
				<attribute name="old_api_map_element_type" version="0" value="f16" />
			</rt_info>
			<output>
				<port id="0" precision="FP32" names="inp_state_038">
					<dim>1</dim>
					<dim>1</dim>
					<dim>128</dim>
					<rt_info>
						<attribute name="layout" version="0" layout="[N,H,W]" />
					</rt_info>
				</port>
			</output>
		</layer>
		<layer id="40" name="Concat_0" type="Concat" version="opset1">
			<data axis="1" />
			<input>
				<port id="0" precision="FP32">
					<dim>1</dim>
					<dim>128</dim>
				</port>
				<port id="1" precision="FP32">
					<dim>1</dim>
					<dim>128</dim>
				</port>
			</input>
			<output>
				<port id="2" precision="FP32" names="308">
					<dim>1</dim>
					<dim>256</dim>
				</port>
			</output>
		</layer>
		<layer id="41" name="Constant_425" type="Const" version="opset1">
			<data element_type="i64" shape="1" offset="0" size="8" />
			<output>
				<port id="0" precision="I64">
					<dim>1</dim>
				</port>
			</output>
		</layer>
		<layer id="42" name="Unsqueeze_12" type="Unsqueeze" version="opset1">
			<input>
				<port id="0" precision="FP32">
					<dim>1</dim>
					<dim>256</dim>
				</port>
				<port id="1" precision="I64">
					<dim>1</dim>
				</port>
			</input>
			<output>
				<port id="2" precision="FP32" names="322">
					<dim>1</dim>
					<dim>1</dim>
					<dim>256</dim>
				</port>
			</output>
		</layer>
		<layer id="43" name="Constant_427" type="Const" version="opset1">
			<data element_type="i64" shape="1" offset="8" size="8" />
			<output>
				<port id="0" precision="I64">
					<dim>1</dim>
				</port>
			</output>
		</layer>
		<layer id="44" name="Unsqueeze_13" type="Unsqueeze" version="opset1">
			<input>
				<port id="0" precision="FP32">
					<dim>1</dim>
					<dim>1</dim>
					<dim>256</dim>
				</port>
				<port id="1" precision="I64">
					<dim>1</dim>
				</port>
			</input>
			<output>
				<port id="2" precision="FP32" names="323">
					<dim>1</dim>
					<dim>1</dim>
					<dim>1</dim>
					<dim>256</dim>
				</port>
			</output>
		</layer>
		<layer id="45" name="_encdec_matrix_compressed" type="Const" version="opset1">
			<data element_type="f16" shape="258, 1, 1, 256" offset="16" size="132096" />
			<output>
				<port id="0" precision="FP16">
					<dim>258</dim>
					<dim>1</dim>
					<dim>1</dim>
					<dim>256</dim>
				</port>
			</output>
		</layer>
		<layer id="46" name="_encdec_matrix" type="Convert" version="opset1">
			<data destination_type="f32" />
			<rt_info>
				<attribute name="decompression" version="0" />
			</rt_info>
			<input>
				<port id="0" precision="FP16">
					<dim>258</dim>
					<dim>1</dim>
					<dim>1</dim>
					<dim>256</dim>
				</port>
			</input>
			<output>
				<port id="1" precision="FP32" names="_encdec_matrix">
					<dim>258</dim>
					<dim>1</dim>
					<dim>1</dim>
					<dim>256</dim>
				</port>
			</output>
		</layer>
		<layer id="47" name="Conv_14" type="Convolution" version="opset1">
			<data strides="128, 128" dilations="1, 1" pads_begin="0, 0" pads_end="0, 0" auto_pad="explicit" />
			<input>
				<port id="0" precision="FP32">
					<dim>1</dim>
					<dim>1</dim>
					<dim>1</dim>
					<dim>256</dim>
				</port>
				<port id="1" precision="FP32">
					<dim>258</dim>
					<dim>1</dim>
					<dim>1</dim>
					<dim>256</dim>
				</port>
			</input>
			<output>
				<port id="2" precision="FP32" names="324">
					<dim>1</dim>
					<dim>258</dim>
					<dim>1</dim>
					<dim>1</dim>
				</port>
			</output>
		</layer>
		<layer id="48" name="Constant_32519" type="Const" version="opset1">
			<data element_type="i64" shape="1" offset="132112" size="8" />
			<output>
				<port id="0" precision="I64">
					<dim>1</dim>
				</port>
			</output>
		</layer>
		<layer id="49" name="2102" type="Const" version="opset1">
			<data element_type="i64" shape="1" offset="8" size="8" />
			<output>
				<port id="0" precision="I64" names="2102">
					<dim>1</dim>
				</port>
			</output>
		</layer>
		<layer id="50" name="Shape_15" type="ShapeOf" version="opset3">
			<data output_type="i64" />
			<input>
				<port id="0" precision="FP32">
					<dim>1</dim>
					<dim>258</dim>
					<dim>1</dim>
					<dim>1</dim>
				</port>
			</input>
			<output>
				<port id="1" precision="I64" names="325,328,331">
					<dim>4</dim>
				</port>
			</output>
		</layer>
		<layer id="51" name="Constant_19" type="Const" version="opset1">
			<data element_type="i64" shape="" offset="0" size="8" />
			<output>
				<port id="0" precision="I64" names="329" />
			</output>
		</layer>
		<layer id="52" name="Constant_437" type="Const" version="opset1">
			<data element_type="i64" shape="" offset="132112" size="8" />
			<output>
				<port id="0" precision="I64" />
			</output>
		</layer>
		<layer id="53" name="Gather_20" type="Gather" version="opset8">
			<data batch_dims="0" />
			<input>
				<port id="0" precision="I64">
					<dim>4</dim>
				</port>
				<port id="1" precision="I64" />
				<port id="2" precision="I64" />
			</input>
			<output>
				<port id="3" precision="I64" names="330" />
			</output>
		</layer>
		<layer id="54" name="Constant_24" type="Const" version="opset1">
			<data element_type="i64" shape="" offset="8" size="8" />
			<output>
				<port id="0" precision="I64" names="334" />
			</output>
		</layer>
		<layer id="55" name="Div_25" type="Divide" version="opset1">
			<data auto_broadcast="numpy" m_pythondiv="true" />
			<input>
				<port id="0" precision="I64" />
				<port id="1" precision="I64" />
			</input>
			<output>
				<port id="2" precision="I64" names="335,336,337" />
			</output>
		</layer>
		<layer id="56" name="Constant_449" type="Const" version="opset1">
			<data element_type="i64" shape="1" offset="132112" size="8" />
			<output>
				<port id="0" precision="I64">
					<dim>1</dim>
				</port>
			</output>
		</layer>
		<layer id="57" name="Unsqueeze_29" type="Unsqueeze" version="opset1">
			<input>
				<port id="0" precision="I64" />
				<port id="1" precision="I64">
					<dim>1</dim>
				</port>
			</input>
			<output>
				<port id="2" precision="I64" names="341">
					<dim>1</dim>
				</port>
			</output>
		</layer>
		<layer id="58" name="Constant_32520" type="Const" version="opset1">
			<data element_type="i64" shape="1" offset="132112" size="8" />
			<output>
				<port id="0" precision="I64">
					<dim>1</dim>
				</port>
			</output>
		</layer>
		<layer id="59" name="Concat_31" type="Concat" version="opset1">
			<data axis="0" />
			<input>
				<port id="0" precision="I64">
					<dim>1</dim>
				</port>
				<port id="1" precision="I64">
					<dim>1</dim>
				</port>
				<port id="2" precision="I64">
					<dim>1</dim>
				</port>
				<port id="3" precision="I64">
					<dim>1</dim>
				</port>
			</input>
			<output>
				<port id="4" precision="I64">
					<dim>4</dim>
				</port>
			</output>
		</layer>
		<layer id="60" name="Reshape_32" type="Reshape" version="opset1">
			<data special_zero="true" />
			<input>
				<port id="0" precision="FP32">
					<dim>1</dim>
					<dim>258</dim>
					<dim>1</dim>
					<dim>1</dim>
				</port>
				<port id="1" precision="I64">
					<dim>4</dim>
				</port>
			</input>
			<output>
				<port id="2" precision="FP32" names="344">
					<dim>1</dim>
					<dim>2</dim>
					<dim>129</dim>
					<dim>1</dim>
				</port>
			</output>
		</layer>
		<layer id="61" name="Concat_1261" type="Concat" version="opset1">
			<data axis="3" />
			<input>
				<port id="0" precision="FP32">
					<dim>1</dim>
					<dim>2</dim>
					<dim>129</dim>
					<dim>2</dim>
				</port>
				<port id="1" precision="FP32">
					<dim>1</dim>
					<dim>2</dim>
					<dim>129</dim>
					<dim>1</dim>
				</port>
			</input>
			<output>
				<port id="2" precision="FP32" names="2035">
					<dim>1</dim>
					<dim>2</dim>
					<dim>129</dim>
					<dim>3</dim>
				</port>
			</output>
		</layer>
		<layer id="62" name="Constant_43762" type="Const" version="opset1">
			<data element_type="i64" shape="4" offset="132120" size="32" />
			<output>
				<port id="0" precision="I64">
					<dim>4</dim>
				</port>
			</output>
		</layer>
		<layer id="63" name="Constant_43763" type="Const" version="opset1">
			<data element_type="i64" shape="4" offset="132120" size="32" />
			<output>
				<port id="0" precision="I64">
					<dim>4</dim>
				</port>
			</output>
		</layer>
		<layer id="64" name="Constant_43759" type="Const" version="opset1">
			<data element_type="i64" shape="1" offset="132152" size="8" />
			<output>
				<port id="0" precision="I64">
					<dim>1</dim>
				</port>
			</output>
		</layer>
		<layer id="65" name="Shape_1262" type="ShapeOf" version="opset3">
			<data output_type="i64" />
			<input>
				<port id="0" precision="FP32">
					<dim>1</dim>
					<dim>2</dim>
					<dim>129</dim>
					<dim>3</dim>
				</port>
			</input>
			<output>
				<port id="1" precision="I64" names="2036">
					<dim>4</dim>
				</port>
			</output>
		</layer>
		<layer id="66" name="Constant_1263" type="Const" version="opset1">
			<data element_type="i64" shape="" offset="132152" size="8" />
			<output>
				<port id="0" precision="I64" names="2037" />
			</output>
		</layer>
		<layer id="67" name="Constant_3680" type="Const" version="opset1">
			<data element_type="i64" shape="" offset="132112" size="8" />
			<output>
				<port id="0" precision="I64" />
			</output>
		</layer>
		<layer id="68" name="Gather_1264" type="Gather" version="opset8">
			<data batch_dims="0" />
			<input>
				<port id="0" precision="I64">
					<dim>4</dim>
				</port>
				<port id="1" precision="I64" />
				<port id="2" precision="I64" />
			</input>
			<output>
				<port id="3" precision="I64" names="2038" />
			</output>
		</layer>
		<layer id="69" name="Constant_1265" type="Const" version="opset1">
			<data element_type="i64" shape="" offset="8" size="8" />
			<output>
				<port id="0" precision="I64" names="2039" />
			</output>
		</layer>
		<layer id="70" name="Sub_1266" type="Subtract" version="opset1">
			<data auto_broadcast="numpy" />
			<input>
				<port id="0" precision="I64" />
				<port id="1" precision="I64" />
			</input>
			<output>
				<port id="2" precision="I64" names="2040" />
			</output>
		</layer>
		<layer id="71" name="Constant_3684" type="Const" version="opset1">
			<data element_type="i64" shape="1" offset="132112" size="8" />
			<output>
				<port id="0" precision="I64">
					<dim>1</dim>
				</port>
			</output>
		</layer>
		<layer id="72" name="Unsqueeze_1267" type="Unsqueeze" version="opset1">
			<input>
				<port id="0" precision="I64" />
				<port id="1" precision="I64">
					<dim>1</dim>
				</port>
			</input>
			<output>
				<port id="2" precision="I64" names="2042,2047">
					<dim>1</dim>
				</port>
			</output>
		</layer>
		<layer id="73" name="Constant_43758" type="Const" version="opset1">
			<data element_type="i32" shape="1" offset="132160" size="4" />
			<output>
				<port id="0" precision="I32">
					<dim>1</dim>
				</port>
			</output>
		</layer>
		<layer id="74" name="ScatterUpdate_43764" type="ScatterUpdate" version="opset3">
			<input>
				<port id="0" precision="I64">
					<dim>4</dim>
				</port>
				<port id="1" precision="I64">
					<dim>1</dim>
				</port>
				<port id="2" precision="I64">
					<dim>1</dim>
				</port>
				<port id="3" precision="I32">
					<dim>1</dim>
				</port>
			</input>
			<output>
				<port id="4" precision="I64">
					<dim>4</dim>
				</port>
			</output>
		</layer>
		<layer id="75" name="Constant_43767" type="Const" version="opset1">
			<data element_type="i64" shape="4" offset="132164" size="32" />
			<output>
				<port id="0" precision="I64">
					<dim>4</dim>
				</port>
			</output>
		</layer>
		<layer id="76" name="Slice_1272" type="StridedSlice" version="opset1">
			<data begin_mask="1, 1, 1, 0" end_mask="1, 1, 1, 0" new_axis_mask="" shrink_axis_mask="" ellipsis_mask="" />
			<input>
				<port id="0" precision="FP32">
					<dim>1</dim>
					<dim>2</dim>
					<dim>129</dim>
					<dim>3</dim>
				</port>
				<port id="1" precision="I64">
					<dim>4</dim>
				</port>
				<port id="2" precision="I64">
					<dim>4</dim>
				</port>
				<port id="3" precision="I64">
					<dim>4</dim>
				</port>
			</input>
			<output>
				<port id="4" precision="FP32" names="2048">
					<dim>1</dim>
					<dim>2</dim>
					<dim>129</dim>
					<dim>1</dim>
				</port>
			</output>
		</layer>
		<layer id="77" name="Constant_1279" type="Const" version="opset1">
			<data element_type="i64" shape="" offset="132112" size="8" />
			<output>
				<port id="0" precision="I64" names="2055" />
			</output>
		</layer>
		<layer id="78" name="Constant_3718" type="Const" version="opset1">
			<data element_type="i64" shape="" offset="0" size="8" />
			<output>
				<port id="0" precision="I64" />
			</output>
		</layer>
		<layer id="79" name="Gather_1280" type="Gather" version="opset8">
			<data batch_dims="0" />
			<input>
				<port id="0" precision="FP32">
					<dim>1</dim>
					<dim>2</dim>
					<dim>129</dim>
					<dim>1</dim>
				</port>
				<port id="1" precision="I64" />
				<port id="2" precision="I64" />
			</input>
			<output>
				<port id="3" precision="FP32" names="2056">
					<dim>1</dim>
					<dim>129</dim>
					<dim>1</dim>
				</port>
			</output>
		</layer>
		<layer id="80" name="Constant_67172_compressed" type="Const" version="opset1">
			<data element_type="f16" shape="1, 2, 1, 1" offset="132196" size="4" />
			<output>
				<port id="0" precision="FP16">
					<dim>1</dim>
					<dim>2</dim>
					<dim>1</dim>
					<dim>1</dim>
				</port>
			</output>
		</layer>
		<layer id="81" name="Constant_67172" type="Convert" version="opset1">
			<data destination_type="f32" />
			<rt_info>
				<attribute name="decompression" version="0" />
			</rt_info>
			<input>
				<port id="0" precision="FP16">
					<dim>1</dim>
					<dim>2</dim>
					<dim>1</dim>
					<dim>1</dim>
				</port>
			</input>
			<output>
				<port id="1" precision="FP32">
					<dim>1</dim>
					<dim>2</dim>
					<dim>1</dim>
					<dim>1</dim>
				</port>
			</output>
		</layer>
		<layer id="82" name="Multiply_69552" type="Multiply" version="opset1">
			<data auto_broadcast="numpy" />
			<input>
				<port id="0" precision="FP32">
					<dim>1</dim>
					<dim>2</dim>
					<dim>129</dim>
					<dim>1</dim>
				</port>
				<port id="1" precision="FP32">
					<dim>1</dim>
					<dim>2</dim>
					<dim>1</dim>
					<dim>1</dim>
				</port>
			</input>
			<output>
				<port id="2" precision="FP32">
					<dim>1</dim>
					<dim>2</dim>
					<dim>129</dim>
					<dim>1</dim>
				</port>
			</output>
		</layer>
		<layer id="83" name="Constant_69557_compressed" type="Const" version="opset1">
			<data element_type="f16" shape="1, 2, 1, 1" offset="132200" size="4" />
			<output>
				<port id="0" precision="FP16">
					<dim>1</dim>
					<dim>2</dim>
					<dim>1</dim>
					<dim>1</dim>
				</port>
			</output>
		</layer>
		<layer id="84" name="Constant_69557" type="Convert" version="opset1">
			<data destination_type="f32" />
			<rt_info>
				<attribute name="decompression" version="0" />
			</rt_info>
			<input>
				<port id="0" precision="FP16">
					<dim>1</dim>
					<dim>2</dim>
					<dim>1</dim>
					<dim>1</dim>
				</port>
			</input>
			<output>
				<port id="1" precision="FP32">
					<dim>1</dim>
					<dim>2</dim>
					<dim>1</dim>
					<dim>1</dim>
				</port>
			</output>
		</layer>
		<layer id="85" name="BatchNormalization_33" type="Add" version="opset1">
			<data auto_broadcast="numpy" />
			<input>
				<port id="0" precision="FP32">
					<dim>1</dim>
					<dim>2</dim>
					<dim>129</dim>
					<dim>1</dim>
				</port>
				<port id="1" precision="FP32">
					<dim>1</dim>
					<dim>2</dim>
					<dim>1</dim>
					<dim>1</dim>
				</port>
			</input>
			<output>
				<port id="2" precision="FP32" names="345">
					<dim>1</dim>
					<dim>2</dim>
					<dim>129</dim>
					<dim>1</dim>
				</port>
			</output>
		</layer>
		<layer id="86" name="Constant_512_compressed" type="Const" version="opset1">
			<data element_type="f16" shape="1" offset="132204" size="2" />
			<output>
				<port id="0" precision="FP16">
					<dim>1</dim>
				</port>
			</output>
		</layer>
		<layer id="87" name="Constant_512" type="Convert" version="opset1">
			<data destination_type="f32" />
			<rt_info>
				<attribute name="decompression" version="0" />
			</rt_info>
			<input>
				<port id="0" precision="FP16">
					<dim>1</dim>
				</port>
			</input>
			<output>
				<port id="1" precision="FP32">
					<dim>1</dim>
				</port>
			</output>
		</layer>
		<layer id="88" name="LeakyRelu_34" type="PReLU" version="opset1">
			<input>
				<port id="0" precision="FP32">
					<dim>1</dim>
					<dim>2</dim>
					<dim>129</dim>
					<dim>1</dim>
				</port>
				<port id="1" precision="FP32">
					<dim>1</dim>
				</port>
			</input>
			<output>
				<port id="2" precision="FP32" names="346">
					<dim>1</dim>
					<dim>2</dim>
					<dim>129</dim>
					<dim>1</dim>
				</port>
			</output>
		</layer>
		<layer id="89" name="Concat_35" type="Concat" version="opset1">
			<data axis="3" />
			<input>
				<port id="0" precision="FP32">
					<dim>1</dim>
					<dim>2</dim>
					<dim>129</dim>
					<dim>2</dim>
				</port>
				<port id="1" precision="FP32">
					<dim>1</dim>
					<dim>2</dim>
					<dim>129</dim>
					<dim>1</dim>
				</port>
			</input>
			<output>
				<port id="2" precision="FP32" names="347">
					<dim>1</dim>
					<dim>2</dim>
					<dim>129</dim>
					<dim>3</dim>
				</port>
			</output>
		</layer>
		<layer id="90" name="blocks_down.0.bd.0.conv.weight_compressed" type="Const" version="opset1">
			<data element_type="f16" shape="16, 2, 3, 3" offset="132206" size="576" />
			<output>
				<port id="0" precision="FP16">
					<dim>16</dim>
					<dim>2</dim>
					<dim>3</dim>
					<dim>3</dim>
				</port>
			</output>
		</layer>
		<layer id="91" name="blocks_down.0.bd.0.conv.weight" type="Convert" version="opset1">
			<data destination_type="f32" />
			<rt_info>
				<attribute name="decompression" version="0" />
			</rt_info>
			<input>
				<port id="0" precision="FP16">
					<dim>16</dim>
					<dim>2</dim>
					<dim>3</dim>
					<dim>3</dim>
				</port>
			</input>
			<output>
				<port id="1" precision="FP32" names="blocks_down.0.bd.0.conv.weight">
					<dim>16</dim>
					<dim>2</dim>
					<dim>3</dim>
					<dim>3</dim>
				</port>
			</output>
		</layer>
		<layer id="92" name="Conv_62/WithoutBiases" type="Convolution" version="opset1">
			<data strides="1, 1" dilations="1, 1" pads_begin="1, 0" pads_end="1, 0" auto_pad="explicit" />
			<input>
				<port id="0" precision="FP32">
					<dim>1</dim>
					<dim>2</dim>
					<dim>129</dim>
					<dim>3</dim>
				</port>
				<port id="1" precision="FP32">
					<dim>16</dim>
					<dim>2</dim>
					<dim>3</dim>
					<dim>3</dim>
				</port>
			</input>
			<output>
				<port id="2" precision="FP32">
					<dim>1</dim>
					<dim>16</dim>
					<dim>129</dim>
					<dim>1</dim>
				</port>
			</output>
		</layer>
		<layer id="93" name="Reshape_585_compressed" type="Const" version="opset1">
			<data element_type="f16" shape="1, 16, 1, 1" offset="132782" size="32" />
			<output>
				<port id="0" precision="FP16">
					<dim>1</dim>
					<dim>16</dim>
					<dim>1</dim>
					<dim>1</dim>
				</port>
			</output>
		</layer>
		<layer id="94" name="Reshape_585" type="Convert" version="opset1">
			<data destination_type="f32" />
			<rt_info>
				<attribute name="decompression" version="0" />
			</rt_info>
			<input>
				<port id="0" precision="FP16">
					<dim>1</dim>
					<dim>16</dim>
					<dim>1</dim>
					<dim>1</dim>
				</port>
			</input>
			<output>
				<port id="1" precision="FP32">
					<dim>1</dim>
					<dim>16</dim>
					<dim>1</dim>
					<dim>1</dim>
				</port>
			</output>
		</layer>
		<layer id="95" name="Conv_62" type="Add" version="opset1">
			<data auto_broadcast="numpy" />
			<input>
				<port id="0" precision="FP32">
					<dim>1</dim>
					<dim>16</dim>
					<dim>129</dim>
					<dim>1</dim>
				</port>
				<port id="1" precision="FP32">
					<dim>1</dim>
					<dim>16</dim>
					<dim>1</dim>
					<dim>1</dim>
				</port>
			</input>
			<output>
				<port id="2" precision="FP32" names="385">
					<dim>1</dim>
					<dim>16</dim>
					<dim>129</dim>
					<dim>1</dim>
				</port>
			</output>
		</layer>
		<layer id="96" name="Concat_63" type="Concat" version="opset1">
			<data axis="1" />
			<input>
				<port id="0" precision="FP32">
					<dim>1</dim>
					<dim>2</dim>
					<dim>129</dim>
					<dim>1</dim>
				</port>
				<port id="1" precision="FP32">
					<dim>1</dim>
					<dim>16</dim>
					<dim>129</dim>
					<dim>1</dim>
				</port>
			</input>
			<output>
				<port id="2" precision="FP32" names="386">
					<dim>1</dim>
					<dim>18</dim>
					<dim>129</dim>
					<dim>1</dim>
				</port>
			</output>
		</layer>
		<layer id="97" name="Constant_67238_compressed" type="Const" version="opset1">
			<data element_type="f16" shape="1, 18, 1, 1" offset="132814" size="36" />
			<output>
				<port id="0" precision="FP16">
					<dim>1</dim>
					<dim>18</dim>
					<dim>1</dim>
					<dim>1</dim>
				</port>
			</output>
		</layer>
		<layer id="98" name="Constant_67238" type="Convert" version="opset1">
			<data destination_type="f32" />
			<rt_info>
				<attribute name="decompression" version="0" />
			</rt_info>
			<input>
				<port id="0" precision="FP16">
					<dim>1</dim>
					<dim>18</dim>
					<dim>1</dim>
					<dim>1</dim>
				</port>
			</input>
			<output>
				<port id="1" precision="FP32">
					<dim>1</dim>
					<dim>18</dim>
					<dim>1</dim>
					<dim>1</dim>
				</port>
			</output>
		</layer>
		<layer id="99" name="Multiply_69559" type="Multiply" version="opset1">
			<data auto_broadcast="numpy" />
			<input>
				<port id="0" precision="FP32">
					<dim>1</dim>
					<dim>18</dim>
					<dim>129</dim>
					<dim>1</dim>
				</port>
				<port id="1" precision="FP32">
					<dim>1</dim>
					<dim>18</dim>
					<dim>1</dim>
					<dim>1</dim>
				</port>
			</input>
			<output>
				<port id="2" precision="FP32">
					<dim>1</dim>
					<dim>18</dim>
					<dim>129</dim>
					<dim>1</dim>
				</port>
			</output>
		</layer>
		<layer id="100" name="Constant_69564_compressed" type="Const" version="opset1">
			<data element_type="f16" shape="1, 18, 1, 1" offset="132850" size="36" />
			<output>
				<port id="0" precision="FP16">
					<dim>1</dim>
					<dim>18</dim>
					<dim>1</dim>
					<dim>1</dim>
				</port>
			</output>
		</layer>
		<layer id="101" name="Constant_69564" type="Convert" version="opset1">
			<data destination_type="f32" />
			<rt_info>
				<attribute name="decompression" version="0" />
			</rt_info>
			<input>
				<port id="0" precision="FP16">
					<dim>1</dim>
					<dim>18</dim>
					<dim>1</dim>
					<dim>1</dim>
				</port>
			</input>
			<output>
				<port id="1" precision="FP32">
					<dim>1</dim>
					<dim>18</dim>
					<dim>1</dim>
					<dim>1</dim>
				</port>
			</output>
		</layer>
		<layer id="102" name="BatchNormalization_64" type="Add" version="opset1">
			<data auto_broadcast="numpy" />
			<input>
				<port id="0" precision="FP32">
					<dim>1</dim>
					<dim>18</dim>
					<dim>129</dim>
					<dim>1</dim>
				</port>
				<port id="1" precision="FP32">
					<dim>1</dim>
					<dim>18</dim>
					<dim>1</dim>
					<dim>1</dim>
				</port>
			</input>
			<output>
				<port id="2" precision="FP32" names="387">
					<dim>1</dim>
					<dim>18</dim>
					<dim>129</dim>
					<dim>1</dim>
				</port>
			</output>
		</layer>
		<layer id="103" name="Constant_591_compressed" type="Const" version="opset1">
			<data element_type="f16" shape="1" offset="132204" size="2" />
			<output>
				<port id="0" precision="FP16">
					<dim>1</dim>
				</port>
			</output>
		</layer>
		<layer id="104" name="Constant_591" type="Convert" version="opset1">
			<data destination_type="f32" />
			<rt_info>
				<attribute name="decompression" version="0" />
			</rt_info>
			<input>
				<port id="0" precision="FP16">
					<dim>1</dim>
				</port>
			</input>
			<output>
				<port id="1" precision="FP32">
					<dim>1</dim>
				</port>
			</output>
		</layer>
		<layer id="105" name="LeakyRelu_65" type="PReLU" version="opset1">
			<input>
				<port id="0" precision="FP32">
					<dim>1</dim>
					<dim>18</dim>
					<dim>129</dim>
					<dim>1</dim>
				</port>
				<port id="1" precision="FP32">
					<dim>1</dim>
				</port>
			</input>
			<output>
				<port id="2" precision="FP32" names="388">
					<dim>1</dim>
					<dim>18</dim>
					<dim>129</dim>
					<dim>1</dim>
				</port>
			</output>
		</layer>
		<layer id="106" name="Concat_66" type="Concat" version="opset1">
			<data axis="3" />
			<input>
				<port id="0" precision="FP32">
					<dim>1</dim>
					<dim>18</dim>
					<dim>129</dim>
					<dim>2</dim>
				</port>
				<port id="1" precision="FP32">
					<dim>1</dim>
					<dim>18</dim>
					<dim>129</dim>
					<dim>1</dim>
				</port>
			</input>
			<output>
				<port id="2" precision="FP32" names="389">
					<dim>1</dim>
					<dim>18</dim>
					<dim>129</dim>
					<dim>3</dim>
				</port>
			</output>
		</layer>
		<layer id="107" name="blocks_down.0.bd.1.conv.weight_compressed" type="Const" version="opset1">
			<data element_type="f16" shape="16, 18, 3, 3" offset="132886" size="5184" />
			<output>
				<port id="0" precision="FP16">
					<dim>16</dim>
					<dim>18</dim>
					<dim>3</dim>
					<dim>3</dim>
				</port>
			</output>
		</layer>
		<layer id="108" name="blocks_down.0.bd.1.conv.weight" type="Convert" version="opset1">
			<data destination_type="f32" />
			<rt_info>
				<attribute name="decompression" version="0" />
			</rt_info>
			<input>
				<port id="0" precision="FP16">
					<dim>16</dim>
					<dim>18</dim>
					<dim>3</dim>
					<dim>3</dim>
				</port>
			</input>
			<output>
				<port id="1" precision="FP32" names="blocks_down.0.bd.1.conv.weight">
					<dim>16</dim>
					<dim>18</dim>
					<dim>3</dim>
					<dim>3</dim>
				</port>
			</output>
		</layer>
		<layer id="109" name="Conv_93/WithoutBiases" type="Convolution" version="opset1">
			<data strides="1, 1" dilations="1, 1" pads_begin="1, 0" pads_end="1, 0" auto_pad="explicit" />
			<input>
				<port id="0" precision="FP32">
					<dim>1</dim>
					<dim>18</dim>
					<dim>129</dim>
					<dim>3</dim>
				</port>
				<port id="1" precision="FP32">
					<dim>16</dim>
					<dim>18</dim>
					<dim>3</dim>
					<dim>3</dim>
				</port>
			</input>
			<output>
				<port id="2" precision="FP32">
					<dim>1</dim>
					<dim>16</dim>
					<dim>129</dim>
					<dim>1</dim>
				</port>
			</output>
		</layer>
		<layer id="110" name="Reshape_664_compressed" type="Const" version="opset1">
			<data element_type="f16" shape="1, 16, 1, 1" offset="138070" size="32" />
			<output>
				<port id="0" precision="FP16">
					<dim>1</dim>
					<dim>16</dim>
					<dim>1</dim>
					<dim>1</dim>
				</port>
			</output>
		</layer>
		<layer id="111" name="Reshape_664" type="Convert" version="opset1">
			<data destination_type="f32" />
			<rt_info>
				<attribute name="decompression" version="0" />
			</rt_info>
			<input>
				<port id="0" precision="FP16">
					<dim>1</dim>
					<dim>16</dim>
					<dim>1</dim>
					<dim>1</dim>
				</port>
			</input>
			<output>
				<port id="1" precision="FP32">
					<dim>1</dim>
					<dim>16</dim>
					<dim>1</dim>
					<dim>1</dim>
				</port>
			</output>
		</layer>
		<layer id="112" name="Conv_93" type="Add" version="opset1">
			<data auto_broadcast="numpy" />
			<input>
				<port id="0" precision="FP32">
					<dim>1</dim>
					<dim>16</dim>
					<dim>129</dim>
					<dim>1</dim>
				</port>
				<port id="1" precision="FP32">
					<dim>1</dim>
					<dim>16</dim>
					<dim>1</dim>
					<dim>1</dim>
				</port>
			</input>
			<output>
				<port id="2" precision="FP32" names="427">
					<dim>1</dim>
					<dim>16</dim>
					<dim>129</dim>
					<dim>1</dim>
				</port>
			</output>
		</layer>
		<layer id="113" name="Concat_94" type="Concat" version="opset1">
			<data axis="1" />
			<input>
				<port id="0" precision="FP32">
					<dim>1</dim>
					<dim>18</dim>
					<dim>129</dim>
					<dim>1</dim>
				</port>
				<port id="1" precision="FP32">
					<dim>1</dim>
					<dim>16</dim>
					<dim>129</dim>
					<dim>1</dim>
				</port>
			</input>
			<output>
				<port id="2" precision="FP32" names="428">
					<dim>1</dim>
					<dim>34</dim>
					<dim>129</dim>
					<dim>1</dim>
				</port>
			</output>
		</layer>
		<layer id="114" name="Constant_67304_compressed" type="Const" version="opset1">
			<data element_type="f16" shape="1, 34, 1, 1" offset="138102" size="68" />
			<output>
				<port id="0" precision="FP16">
					<dim>1</dim>
					<dim>34</dim>
					<dim>1</dim>
					<dim>1</dim>
				</port>
			</output>
		</layer>
		<layer id="115" name="Constant_67304" type="Convert" version="opset1">
			<data destination_type="f32" />
			<rt_info>
				<attribute name="decompression" version="0" />
			</rt_info>
			<input>
				<port id="0" precision="FP16">
					<dim>1</dim>
					<dim>34</dim>
					<dim>1</dim>
					<dim>1</dim>
				</port>
			</input>
			<output>
				<port id="1" precision="FP32">
					<dim>1</dim>
					<dim>34</dim>
					<dim>1</dim>
					<dim>1</dim>
				</port>
			</output>
		</layer>
		<layer id="116" name="Multiply_69566" type="Multiply" version="opset1">
			<data auto_broadcast="numpy" />
			<input>
				<port id="0" precision="FP32">
					<dim>1</dim>
					<dim>34</dim>
					<dim>129</dim>
					<dim>1</dim>
				</port>
				<port id="1" precision="FP32">
					<dim>1</dim>
					<dim>34</dim>
					<dim>1</dim>
					<dim>1</dim>
				</port>
			</input>
			<output>
				<port id="2" precision="FP32">
					<dim>1</dim>
					<dim>34</dim>
					<dim>129</dim>
					<dim>1</dim>
				</port>
			</output>
		</layer>
		<layer id="117" name="Constant_69571_compressed" type="Const" version="opset1">
			<data element_type="f16" shape="1, 34, 1, 1" offset="138170" size="68" />
			<output>
				<port id="0" precision="FP16">
					<dim>1</dim>
					<dim>34</dim>
					<dim>1</dim>
					<dim>1</dim>
				</port>
			</output>
		</layer>
		<layer id="118" name="Constant_69571" type="Convert" version="opset1">
			<data destination_type="f32" />
			<rt_info>
				<attribute name="decompression" version="0" />
			</rt_info>
			<input>
				<port id="0" precision="FP16">
					<dim>1</dim>
					<dim>34</dim>
					<dim>1</dim>
					<dim>1</dim>
				</port>
			</input>
			<output>
				<port id="1" precision="FP32">
					<dim>1</dim>
					<dim>34</dim>
					<dim>1</dim>
					<dim>1</dim>
				</port>
			</output>
		</layer>
		<layer id="119" name="BatchNormalization_95" type="Add" version="opset1">
			<data auto_broadcast="numpy" />
			<input>
				<port id="0" precision="FP32">
					<dim>1</dim>
					<dim>34</dim>
					<dim>129</dim>
					<dim>1</dim>
				</port>
				<port id="1" precision="FP32">
					<dim>1</dim>
					<dim>34</dim>
					<dim>1</dim>
					<dim>1</dim>
				</port>
			</input>
			<output>
				<port id="2" precision="FP32" names="429">
					<dim>1</dim>
					<dim>34</dim>
					<dim>129</dim>
					<dim>1</dim>
				</port>
			</output>
		</layer>
		<layer id="120" name="Constant_670_compressed" type="Const" version="opset1">
			<data element_type="f16" shape="1" offset="132204" size="2" />
			<output>
				<port id="0" precision="FP16">
					<dim>1</dim>
				</port>
			</output>
		</layer>
		<layer id="121" name="Constant_670" type="Convert" version="opset1">
			<data destination_type="f32" />
			<rt_info>
				<attribute name="decompression" version="0" />
			</rt_info>
			<input>
				<port id="0" precision="FP16">
					<dim>1</dim>
				</port>
			</input>
			<output>
				<port id="1" precision="FP32">
					<dim>1</dim>
				</port>
			</output>
		</layer>
		<layer id="122" name="LeakyRelu_96" type="PReLU" version="opset1">
			<input>
				<port id="0" precision="FP32">
					<dim>1</dim>
					<dim>34</dim>
					<dim>129</dim>
					<dim>1</dim>
				</port>
				<port id="1" precision="FP32">
					<dim>1</dim>
				</port>
			</input>
			<output>
				<port id="2" precision="FP32" names="430">
					<dim>1</dim>
					<dim>34</dim>
					<dim>129</dim>
					<dim>1</dim>
				</port>
			</output>
		</layer>
		<layer id="123" name="Concat_97" type="Concat" version="opset1">
			<data axis="3" />
			<input>
				<port id="0" precision="FP32">
					<dim>1</dim>
					<dim>34</dim>
					<dim>129</dim>
					<dim>2</dim>
				</port>
				<port id="1" precision="FP32">
					<dim>1</dim>
					<dim>34</dim>
					<dim>129</dim>
					<dim>1</dim>
				</port>
			</input>
			<output>
				<port id="2" precision="FP32" names="431">
					<dim>1</dim>
					<dim>34</dim>
					<dim>129</dim>
					<dim>3</dim>
				</port>
			</output>
		</layer>
		<layer id="124" name="blocks_down.0.bd.2.conv.weight_compressed" type="Const" version="opset1">
			<data element_type="f16" shape="16, 34, 3, 3" offset="138238" size="9792" />
			<output>
				<port id="0" precision="FP16">
					<dim>16</dim>
					<dim>34</dim>
					<dim>3</dim>
					<dim>3</dim>
				</port>
			</output>
		</layer>
		<layer id="125" name="blocks_down.0.bd.2.conv.weight" type="Convert" version="opset1">
			<data destination_type="f32" />
			<rt_info>
				<attribute name="decompression" version="0" />
			</rt_info>
			<input>
				<port id="0" precision="FP16">
					<dim>16</dim>
					<dim>34</dim>
					<dim>3</dim>
					<dim>3</dim>
				</port>
			</input>
			<output>
				<port id="1" precision="FP32" names="blocks_down.0.bd.2.conv.weight">
					<dim>16</dim>
					<dim>34</dim>
					<dim>3</dim>
					<dim>3</dim>
				</port>
			</output>
		</layer>
		<layer id="126" name="Conv_124/WithoutBiases" type="Convolution" version="opset1">
			<data strides="1, 1" dilations="1, 1" pads_begin="1, 0" pads_end="1, 0" auto_pad="explicit" />
			<input>
				<port id="0" precision="FP32">
					<dim>1</dim>
					<dim>34</dim>
					<dim>129</dim>
					<dim>3</dim>
				</port>
				<port id="1" precision="FP32">
					<dim>16</dim>
					<dim>34</dim>
					<dim>3</dim>
					<dim>3</dim>
				</port>
			</input>
			<output>
				<port id="2" precision="FP32">
					<dim>1</dim>
					<dim>16</dim>
					<dim>129</dim>
					<dim>1</dim>
				</port>
			</output>
		</layer>
		<layer id="127" name="Reshape_743_compressed" type="Const" version="opset1">
			<data element_type="f16" shape="1, 16, 1, 1" offset="148030" size="32" />
			<output>
				<port id="0" precision="FP16">
					<dim>1</dim>
					<dim>16</dim>
					<dim>1</dim>
					<dim>1</dim>
				</port>
			</output>
		</layer>
		<layer id="128" name="Reshape_743" type="Convert" version="opset1">
			<data destination_type="f32" />
			<rt_info>
				<attribute name="decompression" version="0" />
			</rt_info>
			<input>
				<port id="0" precision="FP16">
					<dim>1</dim>
					<dim>16</dim>
					<dim>1</dim>
					<dim>1</dim>
				</port>
			</input>
			<output>
				<port id="1" precision="FP32">
					<dim>1</dim>
					<dim>16</dim>
					<dim>1</dim>
					<dim>1</dim>
				</port>
			</output>
		</layer>
		<layer id="129" name="Conv_124" type="Add" version="opset1">
			<data auto_broadcast="numpy" />
			<input>
				<port id="0" precision="FP32">
					<dim>1</dim>
					<dim>16</dim>
					<dim>129</dim>
					<dim>1</dim>
				</port>
				<port id="1" precision="FP32">
					<dim>1</dim>
					<dim>16</dim>
					<dim>1</dim>
					<dim>1</dim>
				</port>
			</input>
			<output>
				<port id="2" precision="FP32" names="469">
					<dim>1</dim>
					<dim>16</dim>
					<dim>129</dim>
					<dim>1</dim>
				</port>
			</output>
		</layer>
		<layer id="130" name="Concat_125" type="Concat" version="opset1">
			<data axis="1" />
			<input>
				<port id="0" precision="FP32">
					<dim>1</dim>
					<dim>34</dim>
					<dim>129</dim>
					<dim>1</dim>
				</port>
				<port id="1" precision="FP32">
					<dim>1</dim>
					<dim>16</dim>
					<dim>129</dim>
					<dim>1</dim>
				</port>
			</input>
			<output>
				<port id="2" precision="FP32" names="470">
					<dim>1</dim>
					<dim>50</dim>
					<dim>129</dim>
					<dim>1</dim>
				</port>
			</output>
		</layer>
		<layer id="131" name="Constant_67370_compressed" type="Const" version="opset1">
			<data element_type="f16" shape="1, 50, 1, 1" offset="148062" size="100" />
			<output>
				<port id="0" precision="FP16">
					<dim>1</dim>
					<dim>50</dim>
					<dim>1</dim>
					<dim>1</dim>
				</port>
			</output>
		</layer>
		<layer id="132" name="Constant_67370" type="Convert" version="opset1">
			<data destination_type="f32" />
			<rt_info>
				<attribute name="decompression" version="0" />
			</rt_info>
			<input>
				<port id="0" precision="FP16">
					<dim>1</dim>
					<dim>50</dim>
					<dim>1</dim>
					<dim>1</dim>
				</port>
			</input>
			<output>
				<port id="1" precision="FP32">
					<dim>1</dim>
					<dim>50</dim>
					<dim>1</dim>
					<dim>1</dim>
				</port>
			</output>
		</layer>
		<layer id="133" name="Multiply_69573" type="Multiply" version="opset1">
			<data auto_broadcast="numpy" />
			<input>
				<port id="0" precision="FP32">
					<dim>1</dim>
					<dim>50</dim>
					<dim>129</dim>
					<dim>1</dim>
				</port>
				<port id="1" precision="FP32">
					<dim>1</dim>
					<dim>50</dim>
					<dim>1</dim>
					<dim>1</dim>
				</port>
			</input>
			<output>
				<port id="2" precision="FP32">
					<dim>1</dim>
					<dim>50</dim>
					<dim>129</dim>
					<dim>1</dim>
				</port>
			</output>
		</layer>
		<layer id="134" name="Constant_69578_compressed" type="Const" version="opset1">
			<data element_type="f16" shape="1, 50, 1, 1" offset="148162" size="100" />
			<output>
				<port id="0" precision="FP16">
					<dim>1</dim>
					<dim>50</dim>
					<dim>1</dim>
					<dim>1</dim>
				</port>
			</output>
		</layer>
		<layer id="135" name="Constant_69578" type="Convert" version="opset1">
			<data destination_type="f32" />
			<rt_info>
				<attribute name="decompression" version="0" />
			</rt_info>
			<input>
				<port id="0" precision="FP16">
					<dim>1</dim>
					<dim>50</dim>
					<dim>1</dim>
					<dim>1</dim>
				</port>
			</input>
			<output>
				<port id="1" precision="FP32">
					<dim>1</dim>
					<dim>50</dim>
					<dim>1</dim>
					<dim>1</dim>
				</port>
			</output>
		</layer>
		<layer id="136" name="BatchNormalization_126" type="Add" version="opset1">
			<data auto_broadcast="numpy" />
			<input>
				<port id="0" precision="FP32">
					<dim>1</dim>
					<dim>50</dim>
					<dim>129</dim>
					<dim>1</dim>
				</port>
				<port id="1" precision="FP32">
					<dim>1</dim>
					<dim>50</dim>
					<dim>1</dim>
					<dim>1</dim>
				</port>
			</input>
			<output>
				<port id="2" precision="FP32" names="471">
					<dim>1</dim>
					<dim>50</dim>
					<dim>129</dim>
					<dim>1</dim>
				</port>
			</output>
		</layer>
		<layer id="137" name="Constant_749_compressed" type="Const" version="opset1">
			<data element_type="f16" shape="1" offset="132204" size="2" />
			<output>
				<port id="0" precision="FP16">
					<dim>1</dim>
				</port>
			</output>
		</layer>
		<layer id="138" name="Constant_749" type="Convert" version="opset1">
			<data destination_type="f32" />
			<rt_info>
				<attribute name="decompression" version="0" />
			</rt_info>
			<input>
				<port id="0" precision="FP16">
					<dim>1</dim>
				</port>
			</input>
			<output>
				<port id="1" precision="FP32">
					<dim>1</dim>
				</port>
			</output>
		</layer>
		<layer id="139" name="LeakyRelu_127" type="PReLU" version="opset1">
			<input>
				<port id="0" precision="FP32">
					<dim>1</dim>
					<dim>50</dim>
					<dim>129</dim>
					<dim>1</dim>
				</port>
				<port id="1" precision="FP32">
					<dim>1</dim>
				</port>
			</input>
			<output>
				<port id="2" precision="FP32" names="472">
					<dim>1</dim>
					<dim>50</dim>
					<dim>129</dim>
					<dim>1</dim>
				</port>
			</output>
		</layer>
		<layer id="140" name="Concat_128" type="Concat" version="opset1">
			<data axis="3" />
			<input>
				<port id="0" precision="FP32">
					<dim>1</dim>
					<dim>50</dim>
					<dim>129</dim>
					<dim>2</dim>
				</port>
				<port id="1" precision="FP32">
					<dim>1</dim>
					<dim>50</dim>
					<dim>129</dim>
					<dim>1</dim>
				</port>
			</input>
			<output>
				<port id="2" precision="FP32" names="473">
					<dim>1</dim>
					<dim>50</dim>
					<dim>129</dim>
					<dim>3</dim>
				</port>
			</output>
		</layer>
		<layer id="141" name="blocks_down.0.bd.3.conv.weight_compressed" type="Const" version="opset1">
			<data element_type="f16" shape="16, 50, 3, 3" offset="148262" size="14400" />
			<output>
				<port id="0" precision="FP16">
					<dim>16</dim>
					<dim>50</dim>
					<dim>3</dim>
					<dim>3</dim>
				</port>
			</output>
		</layer>
		<layer id="142" name="blocks_down.0.bd.3.conv.weight" type="Convert" version="opset1">
			<data destination_type="f32" />
			<rt_info>
				<attribute name="decompression" version="0" />
			</rt_info>
			<input>
				<port id="0" precision="FP16">
					<dim>16</dim>
					<dim>50</dim>
					<dim>3</dim>
					<dim>3</dim>
				</port>
			</input>
			<output>
				<port id="1" precision="FP32" names="blocks_down.0.bd.3.conv.weight">
					<dim>16</dim>
					<dim>50</dim>
					<dim>3</dim>
					<dim>3</dim>
				</port>
			</output>
		</layer>
		<layer id="143" name="Conv_155/WithoutBiases" type="Convolution" version="opset1">
			<data strides="1, 1" dilations="1, 1" pads_begin="1, 0" pads_end="1, 0" auto_pad="explicit" />
			<input>
				<port id="0" precision="FP32">
					<dim>1</dim>
					<dim>50</dim>
					<dim>129</dim>
					<dim>3</dim>
				</port>
				<port id="1" precision="FP32">
					<dim>16</dim>
					<dim>50</dim>
					<dim>3</dim>
					<dim>3</dim>
				</port>
			</input>
			<output>
				<port id="2" precision="FP32">
					<dim>1</dim>
					<dim>16</dim>
					<dim>129</dim>
					<dim>1</dim>
				</port>
			</output>
		</layer>
		<layer id="144" name="Reshape_822_compressed" type="Const" version="opset1">
			<data element_type="f16" shape="1, 16, 1, 1" offset="162662" size="32" />
			<output>
				<port id="0" precision="FP16">
					<dim>1</dim>
					<dim>16</dim>
					<dim>1</dim>
					<dim>1</dim>
				</port>
			</output>
		</layer>
		<layer id="145" name="Reshape_822" type="Convert" version="opset1">
			<data destination_type="f32" />
			<rt_info>
				<attribute name="decompression" version="0" />
			</rt_info>
			<input>
				<port id="0" precision="FP16">
					<dim>1</dim>
					<dim>16</dim>
					<dim>1</dim>
					<dim>1</dim>
				</port>
			</input>
			<output>
				<port id="1" precision="FP32">
					<dim>1</dim>
					<dim>16</dim>
					<dim>1</dim>
					<dim>1</dim>
				</port>
			</output>
		</layer>
		<layer id="146" name="Conv_155" type="Add" version="opset1">
			<data auto_broadcast="numpy" />
			<input>
				<port id="0" precision="FP32">
					<dim>1</dim>
					<dim>16</dim>
					<dim>129</dim>
					<dim>1</dim>
				</port>
				<port id="1" precision="FP32">
					<dim>1</dim>
					<dim>16</dim>
					<dim>1</dim>
					<dim>1</dim>
				</port>
			</input>
			<output>
				<port id="2" precision="FP32" names="511">
					<dim>1</dim>
					<dim>16</dim>
					<dim>129</dim>
					<dim>1</dim>
				</port>
			</output>
		</layer>
		<layer id="147" name="Concat_156" type="Concat" version="opset1">
			<data axis="1" />
			<input>
				<port id="0" precision="FP32">
					<dim>1</dim>
					<dim>50</dim>
					<dim>129</dim>
					<dim>1</dim>
				</port>
				<port id="1" precision="FP32">
					<dim>1</dim>
					<dim>16</dim>
					<dim>129</dim>
					<dim>1</dim>
				</port>
			</input>
			<output>
				<port id="2" precision="FP32" names="512">
					<dim>1</dim>
					<dim>66</dim>
					<dim>129</dim>
					<dim>1</dim>
				</port>
			</output>
		</layer>
		<layer id="148" name="Constant_67436_compressed" type="Const" version="opset1">
			<data element_type="f16" shape="1, 66, 1, 1" offset="162694" size="132" />
			<output>
				<port id="0" precision="FP16">
					<dim>1</dim>
					<dim>66</dim>
					<dim>1</dim>
					<dim>1</dim>
				</port>
			</output>
		</layer>
		<layer id="149" name="Constant_67436" type="Convert" version="opset1">
			<data destination_type="f32" />
			<rt_info>
				<attribute name="decompression" version="0" />
			</rt_info>
			<input>
				<port id="0" precision="FP16">
					<dim>1</dim>
					<dim>66</dim>
					<dim>1</dim>
					<dim>1</dim>
				</port>
			</input>
			<output>
				<port id="1" precision="FP32">
					<dim>1</dim>
					<dim>66</dim>
					<dim>1</dim>
					<dim>1</dim>
				</port>
			</output>
		</layer>
		<layer id="150" name="Multiply_69580" type="Multiply" version="opset1">
			<data auto_broadcast="numpy" />
			<input>
				<port id="0" precision="FP32">
					<dim>1</dim>
					<dim>66</dim>
					<dim>129</dim>
					<dim>1</dim>
				</port>
				<port id="1" precision="FP32">
					<dim>1</dim>
					<dim>66</dim>
					<dim>1</dim>
					<dim>1</dim>
				</port>
			</input>
			<output>
				<port id="2" precision="FP32">
					<dim>1</dim>
					<dim>66</dim>
					<dim>129</dim>
					<dim>1</dim>
				</port>
			</output>
		</layer>
		<layer id="151" name="Constant_69585_compressed" type="Const" version="opset1">
			<data element_type="f16" shape="1, 66, 1, 1" offset="162826" size="132" />
			<output>
				<port id="0" precision="FP16">
					<dim>1</dim>
					<dim>66</dim>
					<dim>1</dim>
					<dim>1</dim>
				</port>
			</output>
		</layer>
		<layer id="152" name="Constant_69585" type="Convert" version="opset1">
			<data destination_type="f32" />
			<rt_info>
				<attribute name="decompression" version="0" />
			</rt_info>
			<input>
				<port id="0" precision="FP16">
					<dim>1</dim>
					<dim>66</dim>
					<dim>1</dim>
					<dim>1</dim>
				</port>
			</input>
			<output>
				<port id="1" precision="FP32">
					<dim>1</dim>
					<dim>66</dim>
					<dim>1</dim>
					<dim>1</dim>
				</port>
			</output>
		</layer>
		<layer id="153" name="BatchNormalization_157" type="Add" version="opset1">
			<data auto_broadcast="numpy" />
			<input>
				<port id="0" precision="FP32">
					<dim>1</dim>
					<dim>66</dim>
					<dim>129</dim>
					<dim>1</dim>
				</port>
				<port id="1" precision="FP32">
					<dim>1</dim>
					<dim>66</dim>
					<dim>1</dim>
					<dim>1</dim>
				</port>
			</input>
			<output>
				<port id="2" precision="FP32" names="513">
					<dim>1</dim>
					<dim>66</dim>
					<dim>129</dim>
					<dim>1</dim>
				</port>
			</output>
		</layer>
		<layer id="154" name="Constant_828_compressed" type="Const" version="opset1">
			<data element_type="f16" shape="1" offset="132204" size="2" />
			<output>
				<port id="0" precision="FP16">
					<dim>1</dim>
				</port>
			</output>
		</layer>
		<layer id="155" name="Constant_828" type="Convert" version="opset1">
			<data destination_type="f32" />
			<rt_info>
				<attribute name="decompression" version="0" />
			</rt_info>
			<input>
				<port id="0" precision="FP16">
					<dim>1</dim>
				</port>
			</input>
			<output>
				<port id="1" precision="FP32">
					<dim>1</dim>
				</port>
			</output>
		</layer>
		<layer id="156" name="LeakyRelu_158" type="PReLU" version="opset1">
			<input>
				<port id="0" precision="FP32">
					<dim>1</dim>
					<dim>66</dim>
					<dim>129</dim>
					<dim>1</dim>
				</port>
				<port id="1" precision="FP32">
					<dim>1</dim>
				</port>
			</input>
			<output>
				<port id="2" precision="FP32" names="514,538">
					<dim>1</dim>
					<dim>66</dim>
					<dim>129</dim>
					<dim>1</dim>
				</port>
			</output>
		</layer>
		<layer id="157" name="blocks_down.0.bd_out.conv.weight_compressed" type="Const" version="opset1">
			<data element_type="f16" shape="32, 66, 1, 1" offset="162958" size="4224" />
			<output>
				<port id="0" precision="FP16">
					<dim>32</dim>
					<dim>66</dim>
					<dim>1</dim>
					<dim>1</dim>
				</port>
			</output>
		</layer>
		<layer id="158" name="blocks_down.0.bd_out.conv.weight" type="Convert" version="opset1">
			<data destination_type="f32" />
			<rt_info>
				<attribute name="decompression" version="0" />
			</rt_info>
			<input>
				<port id="0" precision="FP16">
					<dim>32</dim>
					<dim>66</dim>
					<dim>1</dim>
					<dim>1</dim>
				</port>
			</input>
			<output>
				<port id="1" precision="FP32" names="blocks_down.0.bd_out.conv.weight">
					<dim>32</dim>
					<dim>66</dim>
					<dim>1</dim>
					<dim>1</dim>
				</port>
			</output>
		</layer>
		<layer id="159" name="Conv_174/WithoutBiases" type="Convolution" version="opset1">
			<data strides="1, 1" dilations="1, 1" pads_begin="0, 0" pads_end="0, 0" auto_pad="explicit" />
			<input>
				<port id="0" precision="FP32">
					<dim>1</dim>
					<dim>66</dim>
					<dim>129</dim>
					<dim>1</dim>
				</port>
				<port id="1" precision="FP32">
					<dim>32</dim>
					<dim>66</dim>
					<dim>1</dim>
					<dim>1</dim>
				</port>
			</input>
			<output>
				<port id="2" precision="FP32">
					<dim>1</dim>
					<dim>32</dim>
					<dim>129</dim>
					<dim>1</dim>
				</port>
			</output>
		</layer>
		<layer id="160" name="Reshape_877_compressed" type="Const" version="opset1">
			<data element_type="f16" shape="1, 32, 1, 1" offset="167182" size="64" />
			<output>
				<port id="0" precision="FP16">
					<dim>1</dim>
					<dim>32</dim>
					<dim>1</dim>
					<dim>1</dim>
				</port>
			</output>
		</layer>
		<layer id="161" name="Reshape_877" type="Convert" version="opset1">
			<data destination_type="f32" />
			<rt_info>
				<attribute name="decompression" version="0" />
			</rt_info>
			<input>
				<port id="0" precision="FP16">
					<dim>1</dim>
					<dim>32</dim>
					<dim>1</dim>
					<dim>1</dim>
				</port>
			</input>
			<output>
				<port id="1" precision="FP32">
					<dim>1</dim>
					<dim>32</dim>
					<dim>1</dim>
					<dim>1</dim>
				</port>
			</output>
		</layer>
		<layer id="162" name="Conv_174" type="Add" version="opset1">
			<data auto_broadcast="numpy" />
			<input>
				<port id="0" precision="FP32">
					<dim>1</dim>
					<dim>32</dim>
					<dim>129</dim>
					<dim>1</dim>
				</port>
				<port id="1" precision="FP32">
					<dim>1</dim>
					<dim>32</dim>
					<dim>1</dim>
					<dim>1</dim>
				</port>
			</input>
			<output>
				<port id="2" precision="FP32" names="539">
					<dim>1</dim>
					<dim>32</dim>
					<dim>129</dim>
					<dim>1</dim>
				</port>
			</output>
		</layer>
		<layer id="163" name="Concat_175" type="Concat" version="opset1">
			<data axis="3" />
			<input>
				<port id="0" precision="FP32">
					<dim>1</dim>
					<dim>32</dim>
					<dim>129</dim>
					<dim>1</dim>
				</port>
				<port id="1" precision="FP32">
					<dim>1</dim>
					<dim>32</dim>
					<dim>129</dim>
					<dim>1</dim>
				</port>
			</input>
			<output>
				<port id="2" precision="FP32" names="540,555">
					<dim>1</dim>
					<dim>32</dim>
					<dim>129</dim>
					<dim>2</dim>
				</port>
			</output>
		</layer>
		<layer id="164" name="AveragePool_189" type="AvgPool" version="opset1">
			<data kernel="2, 2" strides="2, 1" pads_begin="0, 0" pads_end="0, 0" exclude-pad="true" auto_pad="explicit" rounding_type="floor" />
			<input>
				<port id="0" precision="FP32">
					<dim>1</dim>
					<dim>32</dim>
					<dim>129</dim>
					<dim>2</dim>
				</port>
			</input>
			<output>
				<port id="1" precision="FP32" names="556">
					<dim>1</dim>
					<dim>32</dim>
					<dim>64</dim>
					<dim>1</dim>
				</port>
			</output>
		</layer>
		<layer id="165" name="Constant_67502_compressed" type="Const" version="opset1">
			<data element_type="f16" shape="1, 32, 1, 1" offset="167246" size="64" />
			<output>
				<port id="0" precision="FP16">
					<dim>1</dim>
					<dim>32</dim>
					<dim>1</dim>
					<dim>1</dim>
				</port>
			</output>
		</layer>
		<layer id="166" name="Constant_67502" type="Convert" version="opset1">
			<data destination_type="f32" />
			<rt_info>
				<attribute name="decompression" version="0" />
			</rt_info>
			<input>
				<port id="0" precision="FP16">
					<dim>1</dim>
					<dim>32</dim>
					<dim>1</dim>
					<dim>1</dim>
				</port>
			</input>
			<output>
				<port id="1" precision="FP32">
					<dim>1</dim>
					<dim>32</dim>
					<dim>1</dim>
					<dim>1</dim>
				</port>
			</output>
		</layer>
		<layer id="167" name="Multiply_69587" type="Multiply" version="opset1">
			<data auto_broadcast="numpy" />
			<input>
				<port id="0" precision="FP32">
					<dim>1</dim>
					<dim>32</dim>
					<dim>64</dim>
					<dim>1</dim>
				</port>
				<port id="1" precision="FP32">
					<dim>1</dim>
					<dim>32</dim>
					<dim>1</dim>
					<dim>1</dim>
				</port>
			</input>
			<output>
				<port id="2" precision="FP32">
					<dim>1</dim>
					<dim>32</dim>
					<dim>64</dim>
					<dim>1</dim>
				</port>
			</output>
		</layer>
		<layer id="168" name="Constant_69592_compressed" type="Const" version="opset1">
			<data element_type="f16" shape="1, 32, 1, 1" offset="167310" size="64" />
			<output>
				<port id="0" precision="FP16">
					<dim>1</dim>
					<dim>32</dim>
					<dim>1</dim>
					<dim>1</dim>
				</port>
			</output>
		</layer>
		<layer id="169" name="Constant_69592" type="Convert" version="opset1">
			<data destination_type="f32" />
			<rt_info>
				<attribute name="decompression" version="0" />
			</rt_info>
			<input>
				<port id="0" precision="FP16">
					<dim>1</dim>
					<dim>32</dim>
					<dim>1</dim>
					<dim>1</dim>
				</port>
			</input>
			<output>
				<port id="1" precision="FP32">
					<dim>1</dim>
					<dim>32</dim>
					<dim>1</dim>
					<dim>1</dim>
				</port>
			</output>
		</layer>
		<layer id="170" name="BatchNormalization_190" type="Add" version="opset1">
			<data auto_broadcast="numpy" />
			<input>
				<port id="0" precision="FP32">
					<dim>1</dim>
					<dim>32</dim>
					<dim>64</dim>
					<dim>1</dim>
				</port>
				<port id="1" precision="FP32">
					<dim>1</dim>
					<dim>32</dim>
					<dim>1</dim>
					<dim>1</dim>
				</port>
			</input>
			<output>
				<port id="2" precision="FP32" names="557">
					<dim>1</dim>
					<dim>32</dim>
					<dim>64</dim>
					<dim>1</dim>
				</port>
			</output>
		</layer>
		<layer id="171" name="Constant_912_compressed" type="Const" version="opset1">
			<data element_type="f16" shape="1" offset="132204" size="2" />
			<output>
				<port id="0" precision="FP16">
					<dim>1</dim>
				</port>
			</output>
		</layer>
		<layer id="172" name="Constant_912" type="Convert" version="opset1">
			<data destination_type="f32" />
			<rt_info>
				<attribute name="decompression" version="0" />
			</rt_info>
			<input>
				<port id="0" precision="FP16">
					<dim>1</dim>
				</port>
			</input>
			<output>
				<port id="1" precision="FP32">
					<dim>1</dim>
				</port>
			</output>
		</layer>
		<layer id="173" name="LeakyRelu_191" type="PReLU" version="opset1">
			<input>
				<port id="0" precision="FP32">
					<dim>1</dim>
					<dim>32</dim>
					<dim>64</dim>
					<dim>1</dim>
				</port>
				<port id="1" precision="FP32">
					<dim>1</dim>
				</port>
			</input>
			<output>
				<port id="2" precision="FP32" names="558">
					<dim>1</dim>
					<dim>32</dim>
					<dim>64</dim>
					<dim>1</dim>
				</port>
			</output>
		</layer>
		<layer id="174" name="Concat_192" type="Concat" version="opset1">
			<data axis="3" />
			<input>
				<port id="0" precision="FP32">
					<dim>1</dim>
					<dim>32</dim>
					<dim>64</dim>
					<dim>4</dim>
				</port>
				<port id="1" precision="FP32">
					<dim>1</dim>
					<dim>32</dim>
					<dim>64</dim>
					<dim>1</dim>
				</port>
			</input>
			<output>
				<port id="2" precision="FP32" names="559">
					<dim>1</dim>
					<dim>32</dim>
					<dim>64</dim>
					<dim>5</dim>
				</port>
			</output>
		</layer>
		<layer id="175" name="blocks_down.1.bd.0.conv.weight_compressed" type="Const" version="opset1">
			<data element_type="f16" shape="16, 32, 3, 3" offset="167374" size="9216" />
			<output>
				<port id="0" precision="FP16">
					<dim>16</dim>
					<dim>32</dim>
					<dim>3</dim>
					<dim>3</dim>
				</port>
			</output>
		</layer>
		<layer id="176" name="blocks_down.1.bd.0.conv.weight" type="Convert" version="opset1">
			<data destination_type="f32" />
			<rt_info>
				<attribute name="decompression" version="0" />
			</rt_info>
			<input>
				<port id="0" precision="FP16">
					<dim>16</dim>
					<dim>32</dim>
					<dim>3</dim>
					<dim>3</dim>
				</port>
			</input>
			<output>
				<port id="1" precision="FP32" names="blocks_down.1.bd.0.conv.weight">
					<dim>16</dim>
					<dim>32</dim>
					<dim>3</dim>
					<dim>3</dim>
				</port>
			</output>
		</layer>
		<layer id="177" name="Conv_219/WithoutBiases" type="Convolution" version="opset1">
			<data strides="1, 1" dilations="1, 2" pads_begin="1, 0" pads_end="1, 0" auto_pad="explicit" />
			<input>
				<port id="0" precision="FP32">
					<dim>1</dim>
					<dim>32</dim>
					<dim>64</dim>
					<dim>5</dim>
				</port>
				<port id="1" precision="FP32">
					<dim>16</dim>
					<dim>32</dim>
					<dim>3</dim>
					<dim>3</dim>
				</port>
			</input>
			<output>
				<port id="2" precision="FP32">
					<dim>1</dim>
					<dim>16</dim>
					<dim>64</dim>
					<dim>1</dim>
				</port>
			</output>
		</layer>
		<layer id="178" name="Reshape_985_compressed" type="Const" version="opset1">
			<data element_type="f16" shape="1, 16, 1, 1" offset="176590" size="32" />
			<output>
				<port id="0" precision="FP16">
					<dim>1</dim>
					<dim>16</dim>
					<dim>1</dim>
					<dim>1</dim>
				</port>
			</output>
		</layer>
		<layer id="179" name="Reshape_985" type="Convert" version="opset1">
			<data destination_type="f32" />
			<rt_info>
				<attribute name="decompression" version="0" />
			</rt_info>
			<input>
				<port id="0" precision="FP16">
					<dim>1</dim>
					<dim>16</dim>
					<dim>1</dim>
					<dim>1</dim>
				</port>
			</input>
			<output>
				<port id="1" precision="FP32">
					<dim>1</dim>
					<dim>16</dim>
					<dim>1</dim>
					<dim>1</dim>
				</port>
			</output>
		</layer>
		<layer id="180" name="Conv_219" type="Add" version="opset1">
			<data auto_broadcast="numpy" />
			<input>
				<port id="0" precision="FP32">
					<dim>1</dim>
					<dim>16</dim>
					<dim>64</dim>
					<dim>1</dim>
				</port>
				<port id="1" precision="FP32">
					<dim>1</dim>
					<dim>16</dim>
					<dim>1</dim>
					<dim>1</dim>
				</port>
			</input>
			<output>
				<port id="2" precision="FP32" names="597">
					<dim>1</dim>
					<dim>16</dim>
					<dim>64</dim>
					<dim>1</dim>
				</port>
			</output>
		</layer>
		<layer id="181" name="Concat_220" type="Concat" version="opset1">
			<data axis="1" />
			<input>
				<port id="0" precision="FP32">
					<dim>1</dim>
					<dim>32</dim>
					<dim>64</dim>
					<dim>1</dim>
				</port>
				<port id="1" precision="FP32">
					<dim>1</dim>
					<dim>16</dim>
					<dim>64</dim>
					<dim>1</dim>
				</port>
			</input>
			<output>
				<port id="2" precision="FP32" names="598">
					<dim>1</dim>
					<dim>48</dim>
					<dim>64</dim>
					<dim>1</dim>
				</port>
			</output>
		</layer>
		<layer id="182" name="Constant_67568_compressed" type="Const" version="opset1">
			<data element_type="f16" shape="1, 48, 1, 1" offset="176622" size="96" />
			<output>
				<port id="0" precision="FP16">
					<dim>1</dim>
					<dim>48</dim>
					<dim>1</dim>
					<dim>1</dim>
				</port>
			</output>
		</layer>
		<layer id="183" name="Constant_67568" type="Convert" version="opset1">
			<data destination_type="f32" />
			<rt_info>
				<attribute name="decompression" version="0" />
			</rt_info>
			<input>
				<port id="0" precision="FP16">
					<dim>1</dim>
					<dim>48</dim>
					<dim>1</dim>
					<dim>1</dim>
				</port>
			</input>
			<output>
				<port id="1" precision="FP32">
					<dim>1</dim>
					<dim>48</dim>
					<dim>1</dim>
					<dim>1</dim>
				</port>
			</output>
		</layer>
		<layer id="184" name="Multiply_69594" type="Multiply" version="opset1">
			<data auto_broadcast="numpy" />
			<input>
				<port id="0" precision="FP32">
					<dim>1</dim>
					<dim>48</dim>
					<dim>64</dim>
					<dim>1</dim>
				</port>
				<port id="1" precision="FP32">
					<dim>1</dim>
					<dim>48</dim>
					<dim>1</dim>
					<dim>1</dim>
				</port>
			</input>
			<output>
				<port id="2" precision="FP32">
					<dim>1</dim>
					<dim>48</dim>
					<dim>64</dim>
					<dim>1</dim>
				</port>
			</output>
		</layer>
		<layer id="185" name="Constant_69599_compressed" type="Const" version="opset1">
			<data element_type="f16" shape="1, 48, 1, 1" offset="176718" size="96" />
			<output>
				<port id="0" precision="FP16">
					<dim>1</dim>
					<dim>48</dim>
					<dim>1</dim>
					<dim>1</dim>
				</port>
			</output>
		</layer>
		<layer id="186" name="Constant_69599" type="Convert" version="opset1">
			<data destination_type="f32" />
			<rt_info>
				<attribute name="decompression" version="0" />
			</rt_info>
			<input>
				<port id="0" precision="FP16">
					<dim>1</dim>
					<dim>48</dim>
					<dim>1</dim>
					<dim>1</dim>
				</port>
			</input>
			<output>
				<port id="1" precision="FP32">
					<dim>1</dim>
					<dim>48</dim>
					<dim>1</dim>
					<dim>1</dim>
				</port>
			</output>
		</layer>
		<layer id="187" name="BatchNormalization_221" type="Add" version="opset1">
			<data auto_broadcast="numpy" />
			<input>
				<port id="0" precision="FP32">
					<dim>1</dim>
					<dim>48</dim>
					<dim>64</dim>
					<dim>1</dim>
				</port>
				<port id="1" precision="FP32">
					<dim>1</dim>
					<dim>48</dim>
					<dim>1</dim>
					<dim>1</dim>
				</port>
			</input>
			<output>
				<port id="2" precision="FP32" names="599">
					<dim>1</dim>
					<dim>48</dim>
					<dim>64</dim>
					<dim>1</dim>
				</port>
			</output>
		</layer>
		<layer id="188" name="Constant_991_compressed" type="Const" version="opset1">
			<data element_type="f16" shape="1" offset="132204" size="2" />
			<output>
				<port id="0" precision="FP16">
					<dim>1</dim>
				</port>
			</output>
		</layer>
		<layer id="189" name="Constant_991" type="Convert" version="opset1">
			<data destination_type="f32" />
			<rt_info>
				<attribute name="decompression" version="0" />
			</rt_info>
			<input>
				<port id="0" precision="FP16">
					<dim>1</dim>
				</port>
			</input>
			<output>
				<port id="1" precision="FP32">
					<dim>1</dim>
				</port>
			</output>
		</layer>
		<layer id="190" name="LeakyRelu_222" type="PReLU" version="opset1">
			<input>
				<port id="0" precision="FP32">
					<dim>1</dim>
					<dim>48</dim>
					<dim>64</dim>
					<dim>1</dim>
				</port>
				<port id="1" precision="FP32">
					<dim>1</dim>
				</port>
			</input>
			<output>
				<port id="2" precision="FP32" names="600">
					<dim>1</dim>
					<dim>48</dim>
					<dim>64</dim>
					<dim>1</dim>
				</port>
			</output>
		</layer>
		<layer id="191" name="Concat_223" type="Concat" version="opset1">
			<data axis="3" />
			<input>
				<port id="0" precision="FP32">
					<dim>1</dim>
					<dim>48</dim>
					<dim>64</dim>
					<dim>4</dim>
				</port>
				<port id="1" precision="FP32">
					<dim>1</dim>
					<dim>48</dim>
					<dim>64</dim>
					<dim>1</dim>
				</port>
			</input>
			<output>
				<port id="2" precision="FP32" names="601">
					<dim>1</dim>
					<dim>48</dim>
					<dim>64</dim>
					<dim>5</dim>
				</port>
			</output>
		</layer>
		<layer id="192" name="blocks_down.1.bd.1.conv.weight_compressed" type="Const" version="opset1">
			<data element_type="f16" shape="16, 48, 3, 3" offset="176814" size="13824" />
			<output>
				<port id="0" precision="FP16">
					<dim>16</dim>
					<dim>48</dim>
					<dim>3</dim>
					<dim>3</dim>
				</port>
			</output>
		</layer>
		<layer id="193" name="blocks_down.1.bd.1.conv.weight" type="Convert" version="opset1">
			<data destination_type="f32" />
			<rt_info>
				<attribute name="decompression" version="0" />
			</rt_info>
			<input>
				<port id="0" precision="FP16">
					<dim>16</dim>
					<dim>48</dim>
					<dim>3</dim>
					<dim>3</dim>
				</port>
			</input>
			<output>
				<port id="1" precision="FP32" names="blocks_down.1.bd.1.conv.weight">
					<dim>16</dim>
					<dim>48</dim>
					<dim>3</dim>
					<dim>3</dim>
				</port>
			</output>
		</layer>
		<layer id="194" name="Conv_250/WithoutBiases" type="Convolution" version="opset1">
			<data strides="1, 1" dilations="1, 2" pads_begin="1, 0" pads_end="1, 0" auto_pad="explicit" />
			<input>
				<port id="0" precision="FP32">
					<dim>1</dim>
					<dim>48</dim>
					<dim>64</dim>
					<dim>5</dim>
				</port>
				<port id="1" precision="FP32">
					<dim>16</dim>
					<dim>48</dim>
					<dim>3</dim>
					<dim>3</dim>
				</port>
			</input>
			<output>
				<port id="2" precision="FP32">
					<dim>1</dim>
					<dim>16</dim>
					<dim>64</dim>
					<dim>1</dim>
				</port>
			</output>
		</layer>
		<layer id="195" name="Reshape_1064_compressed" type="Const" version="opset1">
			<data element_type="f16" shape="1, 16, 1, 1" offset="190638" size="32" />
			<output>
				<port id="0" precision="FP16">
					<dim>1</dim>
					<dim>16</dim>
					<dim>1</dim>
					<dim>1</dim>
				</port>
			</output>
		</layer>
		<layer id="196" name="Reshape_1064" type="Convert" version="opset1">
			<data destination_type="f32" />
			<rt_info>
				<attribute name="decompression" version="0" />
			</rt_info>
			<input>
				<port id="0" precision="FP16">
					<dim>1</dim>
					<dim>16</dim>
					<dim>1</dim>
					<dim>1</dim>
				</port>
			</input>
			<output>
				<port id="1" precision="FP32">
					<dim>1</dim>
					<dim>16</dim>
					<dim>1</dim>
					<dim>1</dim>
				</port>
			</output>
		</layer>
		<layer id="197" name="Conv_250" type="Add" version="opset1">
			<data auto_broadcast="numpy" />
			<input>
				<port id="0" precision="FP32">
					<dim>1</dim>
					<dim>16</dim>
					<dim>64</dim>
					<dim>1</dim>
				</port>
				<port id="1" precision="FP32">
					<dim>1</dim>
					<dim>16</dim>
					<dim>1</dim>
					<dim>1</dim>
				</port>
			</input>
			<output>
				<port id="2" precision="FP32" names="639">
					<dim>1</dim>
					<dim>16</dim>
					<dim>64</dim>
					<dim>1</dim>
				</port>
			</output>
		</layer>
		<layer id="198" name="Concat_251" type="Concat" version="opset1">
			<data axis="1" />
			<input>
				<port id="0" precision="FP32">
					<dim>1</dim>
					<dim>48</dim>
					<dim>64</dim>
					<dim>1</dim>
				</port>
				<port id="1" precision="FP32">
					<dim>1</dim>
					<dim>16</dim>
					<dim>64</dim>
					<dim>1</dim>
				</port>
			</input>
			<output>
				<port id="2" precision="FP32" names="640">
					<dim>1</dim>
					<dim>64</dim>
					<dim>64</dim>
					<dim>1</dim>
				</port>
			</output>
		</layer>
		<layer id="199" name="Constant_67634_compressed" type="Const" version="opset1">
			<data element_type="f16" shape="1, 64, 1, 1" offset="190670" size="128" />
			<output>
				<port id="0" precision="FP16">
					<dim>1</dim>
					<dim>64</dim>
					<dim>1</dim>
					<dim>1</dim>
				</port>
			</output>
		</layer>
		<layer id="200" name="Constant_67634" type="Convert" version="opset1">
			<data destination_type="f32" />
			<rt_info>
				<attribute name="decompression" version="0" />
			</rt_info>
			<input>
				<port id="0" precision="FP16">
					<dim>1</dim>
					<dim>64</dim>
					<dim>1</dim>
					<dim>1</dim>
				</port>
			</input>
			<output>
				<port id="1" precision="FP32">
					<dim>1</dim>
					<dim>64</dim>
					<dim>1</dim>
					<dim>1</dim>
				</port>
			</output>
		</layer>
		<layer id="201" name="Multiply_69601" type="Multiply" version="opset1">
			<data auto_broadcast="numpy" />
			<input>
				<port id="0" precision="FP32">
					<dim>1</dim>
					<dim>64</dim>
					<dim>64</dim>
					<dim>1</dim>
				</port>
				<port id="1" precision="FP32">
					<dim>1</dim>
					<dim>64</dim>
					<dim>1</dim>
					<dim>1</dim>
				</port>
			</input>
			<output>
				<port id="2" precision="FP32">
					<dim>1</dim>
					<dim>64</dim>
					<dim>64</dim>
					<dim>1</dim>
				</port>
			</output>
		</layer>
		<layer id="202" name="Constant_69606_compressed" type="Const" version="opset1">
			<data element_type="f16" shape="1, 64, 1, 1" offset="190798" size="128" />
			<output>
				<port id="0" precision="FP16">
					<dim>1</dim>
					<dim>64</dim>
					<dim>1</dim>
					<dim>1</dim>
				</port>
			</output>
		</layer>
		<layer id="203" name="Constant_69606" type="Convert" version="opset1">
			<data destination_type="f32" />
			<rt_info>
				<attribute name="decompression" version="0" />
			</rt_info>
			<input>
				<port id="0" precision="FP16">
					<dim>1</dim>
					<dim>64</dim>
					<dim>1</dim>
					<dim>1</dim>
				</port>
			</input>
			<output>
				<port id="1" precision="FP32">
					<dim>1</dim>
					<dim>64</dim>
					<dim>1</dim>
					<dim>1</dim>
				</port>
			</output>
		</layer>
		<layer id="204" name="BatchNormalization_252" type="Add" version="opset1">
			<data auto_broadcast="numpy" />
			<input>
				<port id="0" precision="FP32">
					<dim>1</dim>
					<dim>64</dim>
					<dim>64</dim>
					<dim>1</dim>
				</port>
				<port id="1" precision="FP32">
					<dim>1</dim>
					<dim>64</dim>
					<dim>1</dim>
					<dim>1</dim>
				</port>
			</input>
			<output>
				<port id="2" precision="FP32" names="641">
					<dim>1</dim>
					<dim>64</dim>
					<dim>64</dim>
					<dim>1</dim>
				</port>
			</output>
		</layer>
		<layer id="205" name="Constant_1070_compressed" type="Const" version="opset1">
			<data element_type="f16" shape="1" offset="132204" size="2" />
			<output>
				<port id="0" precision="FP16">
					<dim>1</dim>
				</port>
			</output>
		</layer>
		<layer id="206" name="Constant_1070" type="Convert" version="opset1">
			<data destination_type="f32" />
			<rt_info>
				<attribute name="decompression" version="0" />
			</rt_info>
			<input>
				<port id="0" precision="FP16">
					<dim>1</dim>
				</port>
			</input>
			<output>
				<port id="1" precision="FP32">
					<dim>1</dim>
				</port>
			</output>
		</layer>
		<layer id="207" name="LeakyRelu_253" type="PReLU" version="opset1">
			<input>
				<port id="0" precision="FP32">
					<dim>1</dim>
					<dim>64</dim>
					<dim>64</dim>
					<dim>1</dim>
				</port>
				<port id="1" precision="FP32">
					<dim>1</dim>
				</port>
			</input>
			<output>
				<port id="2" precision="FP32" names="642">
					<dim>1</dim>
					<dim>64</dim>
					<dim>64</dim>
					<dim>1</dim>
				</port>
			</output>
		</layer>
		<layer id="208" name="Concat_254" type="Concat" version="opset1">
			<data axis="3" />
			<input>
				<port id="0" precision="FP32">
					<dim>1</dim>
					<dim>64</dim>
					<dim>64</dim>
					<dim>4</dim>
				</port>
				<port id="1" precision="FP32">
					<dim>1</dim>
					<dim>64</dim>
					<dim>64</dim>
					<dim>1</dim>
				</port>
			</input>
			<output>
				<port id="2" precision="FP32" names="643">
					<dim>1</dim>
					<dim>64</dim>
					<dim>64</dim>
					<dim>5</dim>
				</port>
			</output>
		</layer>
		<layer id="209" name="blocks_down.1.bd.2.conv.weight_compressed" type="Const" version="opset1">
			<data element_type="f16" shape="16, 64, 3, 3" offset="190926" size="18432" />
			<output>
				<port id="0" precision="FP16">
					<dim>16</dim>
					<dim>64</dim>
					<dim>3</dim>
					<dim>3</dim>
				</port>
			</output>
		</layer>
		<layer id="210" name="blocks_down.1.bd.2.conv.weight" type="Convert" version="opset1">
			<data destination_type="f32" />
			<rt_info>
				<attribute name="decompression" version="0" />
			</rt_info>
			<input>
				<port id="0" precision="FP16">
					<dim>16</dim>
					<dim>64</dim>
					<dim>3</dim>
					<dim>3</dim>
				</port>
			</input>
			<output>
				<port id="1" precision="FP32" names="blocks_down.1.bd.2.conv.weight">
					<dim>16</dim>
					<dim>64</dim>
					<dim>3</dim>
					<dim>3</dim>
				</port>
			</output>
		</layer>
		<layer id="211" name="Conv_281/WithoutBiases" type="Convolution" version="opset1">
			<data strides="1, 1" dilations="1, 2" pads_begin="1, 0" pads_end="1, 0" auto_pad="explicit" />
			<input>
				<port id="0" precision="FP32">
					<dim>1</dim>
					<dim>64</dim>
					<dim>64</dim>
					<dim>5</dim>
				</port>
				<port id="1" precision="FP32">
					<dim>16</dim>
					<dim>64</dim>
					<dim>3</dim>
					<dim>3</dim>
				</port>
			</input>
			<output>
				<port id="2" precision="FP32">
					<dim>1</dim>
					<dim>16</dim>
					<dim>64</dim>
					<dim>1</dim>
				</port>
			</output>
		</layer>
		<layer id="212" name="Reshape_1143_compressed" type="Const" version="opset1">
			<data element_type="f16" shape="1, 16, 1, 1" offset="209358" size="32" />
			<output>
				<port id="0" precision="FP16">
					<dim>1</dim>
					<dim>16</dim>
					<dim>1</dim>
					<dim>1</dim>
				</port>
			</output>
		</layer>
		<layer id="213" name="Reshape_1143" type="Convert" version="opset1">
			<data destination_type="f32" />
			<rt_info>
				<attribute name="decompression" version="0" />
			</rt_info>
			<input>
				<port id="0" precision="FP16">
					<dim>1</dim>
					<dim>16</dim>
					<dim>1</dim>
					<dim>1</dim>
				</port>
			</input>
			<output>
				<port id="1" precision="FP32">
					<dim>1</dim>
					<dim>16</dim>
					<dim>1</dim>
					<dim>1</dim>
				</port>
			</output>
		</layer>
		<layer id="214" name="Conv_281" type="Add" version="opset1">
			<data auto_broadcast="numpy" />
			<input>
				<port id="0" precision="FP32">
					<dim>1</dim>
					<dim>16</dim>
					<dim>64</dim>
					<dim>1</dim>
				</port>
				<port id="1" precision="FP32">
					<dim>1</dim>
					<dim>16</dim>
					<dim>1</dim>
					<dim>1</dim>
				</port>
			</input>
			<output>
				<port id="2" precision="FP32" names="681">
					<dim>1</dim>
					<dim>16</dim>
					<dim>64</dim>
					<dim>1</dim>
				</port>
			</output>
		</layer>
		<layer id="215" name="Concat_282" type="Concat" version="opset1">
			<data axis="1" />
			<input>
				<port id="0" precision="FP32">
					<dim>1</dim>
					<dim>64</dim>
					<dim>64</dim>
					<dim>1</dim>
				</port>
				<port id="1" precision="FP32">
					<dim>1</dim>
					<dim>16</dim>
					<dim>64</dim>
					<dim>1</dim>
				</port>
			</input>
			<output>
				<port id="2" precision="FP32" names="682">
					<dim>1</dim>
					<dim>80</dim>
					<dim>64</dim>
					<dim>1</dim>
				</port>
			</output>
		</layer>
		<layer id="216" name="Constant_67700_compressed" type="Const" version="opset1">
			<data element_type="f16" shape="1, 80, 1, 1" offset="209390" size="160" />
			<output>
				<port id="0" precision="FP16">
					<dim>1</dim>
					<dim>80</dim>
					<dim>1</dim>
					<dim>1</dim>
				</port>
			</output>
		</layer>
		<layer id="217" name="Constant_67700" type="Convert" version="opset1">
			<data destination_type="f32" />
			<rt_info>
				<attribute name="decompression" version="0" />
			</rt_info>
			<input>
				<port id="0" precision="FP16">
					<dim>1</dim>
					<dim>80</dim>
					<dim>1</dim>
					<dim>1</dim>
				</port>
			</input>
			<output>
				<port id="1" precision="FP32">
					<dim>1</dim>
					<dim>80</dim>
					<dim>1</dim>
					<dim>1</dim>
				</port>
			</output>
		</layer>
		<layer id="218" name="Multiply_69608" type="Multiply" version="opset1">
			<data auto_broadcast="numpy" />
			<input>
				<port id="0" precision="FP32">
					<dim>1</dim>
					<dim>80</dim>
					<dim>64</dim>
					<dim>1</dim>
				</port>
				<port id="1" precision="FP32">
					<dim>1</dim>
					<dim>80</dim>
					<dim>1</dim>
					<dim>1</dim>
				</port>
			</input>
			<output>
				<port id="2" precision="FP32">
					<dim>1</dim>
					<dim>80</dim>
					<dim>64</dim>
					<dim>1</dim>
				</port>
			</output>
		</layer>
		<layer id="219" name="Constant_69613_compressed" type="Const" version="opset1">
			<data element_type="f16" shape="1, 80, 1, 1" offset="209550" size="160" />
			<output>
				<port id="0" precision="FP16">
					<dim>1</dim>
					<dim>80</dim>
					<dim>1</dim>
					<dim>1</dim>
				</port>
			</output>
		</layer>
		<layer id="220" name="Constant_69613" type="Convert" version="opset1">
			<data destination_type="f32" />
			<rt_info>
				<attribute name="decompression" version="0" />
			</rt_info>
			<input>
				<port id="0" precision="FP16">
					<dim>1</dim>
					<dim>80</dim>
					<dim>1</dim>
					<dim>1</dim>
				</port>
			</input>
			<output>
				<port id="1" precision="FP32">
					<dim>1</dim>
					<dim>80</dim>
					<dim>1</dim>
					<dim>1</dim>
				</port>
			</output>
		</layer>
		<layer id="221" name="BatchNormalization_283" type="Add" version="opset1">
			<data auto_broadcast="numpy" />
			<input>
				<port id="0" precision="FP32">
					<dim>1</dim>
					<dim>80</dim>
					<dim>64</dim>
					<dim>1</dim>
				</port>
				<port id="1" precision="FP32">
					<dim>1</dim>
					<dim>80</dim>
					<dim>1</dim>
					<dim>1</dim>
				</port>
			</input>
			<output>
				<port id="2" precision="FP32" names="683">
					<dim>1</dim>
					<dim>80</dim>
					<dim>64</dim>
					<dim>1</dim>
				</port>
			</output>
		</layer>
		<layer id="222" name="Constant_1149_compressed" type="Const" version="opset1">
			<data element_type="f16" shape="1" offset="132204" size="2" />
			<output>
				<port id="0" precision="FP16">
					<dim>1</dim>
				</port>
			</output>
		</layer>
		<layer id="223" name="Constant_1149" type="Convert" version="opset1">
			<data destination_type="f32" />
			<rt_info>
				<attribute name="decompression" version="0" />
			</rt_info>
			<input>
				<port id="0" precision="FP16">
					<dim>1</dim>
				</port>
			</input>
			<output>
				<port id="1" precision="FP32">
					<dim>1</dim>
				</port>
			</output>
		</layer>
		<layer id="224" name="LeakyRelu_284" type="PReLU" version="opset1">
			<input>
				<port id="0" precision="FP32">
					<dim>1</dim>
					<dim>80</dim>
					<dim>64</dim>
					<dim>1</dim>
				</port>
				<port id="1" precision="FP32">
					<dim>1</dim>
				</port>
			</input>
			<output>
				<port id="2" precision="FP32" names="684">
					<dim>1</dim>
					<dim>80</dim>
					<dim>64</dim>
					<dim>1</dim>
				</port>
			</output>
		</layer>
		<layer id="225" name="Concat_285" type="Concat" version="opset1">
			<data axis="3" />
			<input>
				<port id="0" precision="FP32">
					<dim>1</dim>
					<dim>80</dim>
					<dim>64</dim>
					<dim>4</dim>
				</port>
				<port id="1" precision="FP32">
					<dim>1</dim>
					<dim>80</dim>
					<dim>64</dim>
					<dim>1</dim>
				</port>
			</input>
			<output>
				<port id="2" precision="FP32" names="685">
					<dim>1</dim>
					<dim>80</dim>
					<dim>64</dim>
					<dim>5</dim>
				</port>
			</output>
		</layer>
		<layer id="226" name="blocks_down.1.bd.3.conv.weight_compressed" type="Const" version="opset1">
			<data element_type="f16" shape="16, 80, 3, 3" offset="209710" size="23040" />
			<output>
				<port id="0" precision="FP16">
					<dim>16</dim>
					<dim>80</dim>
					<dim>3</dim>
					<dim>3</dim>
				</port>
			</output>
		</layer>
		<layer id="227" name="blocks_down.1.bd.3.conv.weight" type="Convert" version="opset1">
			<data destination_type="f32" />
			<rt_info>
				<attribute name="decompression" version="0" />
			</rt_info>
			<input>
				<port id="0" precision="FP16">
					<dim>16</dim>
					<dim>80</dim>
					<dim>3</dim>
					<dim>3</dim>
				</port>
			</input>
			<output>
				<port id="1" precision="FP32" names="blocks_down.1.bd.3.conv.weight">
					<dim>16</dim>
					<dim>80</dim>
					<dim>3</dim>
					<dim>3</dim>
				</port>
			</output>
		</layer>
		<layer id="228" name="Conv_312/WithoutBiases" type="Convolution" version="opset1">
			<data strides="1, 1" dilations="1, 2" pads_begin="1, 0" pads_end="1, 0" auto_pad="explicit" />
			<input>
				<port id="0" precision="FP32">
					<dim>1</dim>
					<dim>80</dim>
					<dim>64</dim>
					<dim>5</dim>
				</port>
				<port id="1" precision="FP32">
					<dim>16</dim>
					<dim>80</dim>
					<dim>3</dim>
					<dim>3</dim>
				</port>
			</input>
			<output>
				<port id="2" precision="FP32">
					<dim>1</dim>
					<dim>16</dim>
					<dim>64</dim>
					<dim>1</dim>
				</port>
			</output>
		</layer>
		<layer id="229" name="Reshape_1222_compressed" type="Const" version="opset1">
			<data element_type="f16" shape="1, 16, 1, 1" offset="232750" size="32" />
			<output>
				<port id="0" precision="FP16">
					<dim>1</dim>
					<dim>16</dim>
					<dim>1</dim>
					<dim>1</dim>
				</port>
			</output>
		</layer>
		<layer id="230" name="Reshape_1222" type="Convert" version="opset1">
			<data destination_type="f32" />
			<rt_info>
				<attribute name="decompression" version="0" />
			</rt_info>
			<input>
				<port id="0" precision="FP16">
					<dim>1</dim>
					<dim>16</dim>
					<dim>1</dim>
					<dim>1</dim>
				</port>
			</input>
			<output>
				<port id="1" precision="FP32">
					<dim>1</dim>
					<dim>16</dim>
					<dim>1</dim>
					<dim>1</dim>
				</port>
			</output>
		</layer>
		<layer id="231" name="Conv_312" type="Add" version="opset1">
			<data auto_broadcast="numpy" />
			<input>
				<port id="0" precision="FP32">
					<dim>1</dim>
					<dim>16</dim>
					<dim>64</dim>
					<dim>1</dim>
				</port>
				<port id="1" precision="FP32">
					<dim>1</dim>
					<dim>16</dim>
					<dim>1</dim>
					<dim>1</dim>
				</port>
			</input>
			<output>
				<port id="2" precision="FP32" names="723">
					<dim>1</dim>
					<dim>16</dim>
					<dim>64</dim>
					<dim>1</dim>
				</port>
			</output>
		</layer>
		<layer id="232" name="Concat_313" type="Concat" version="opset1">
			<data axis="1" />
			<input>
				<port id="0" precision="FP32">
					<dim>1</dim>
					<dim>80</dim>
					<dim>64</dim>
					<dim>1</dim>
				</port>
				<port id="1" precision="FP32">
					<dim>1</dim>
					<dim>16</dim>
					<dim>64</dim>
					<dim>1</dim>
				</port>
			</input>
			<output>
				<port id="2" precision="FP32" names="724">
					<dim>1</dim>
					<dim>96</dim>
					<dim>64</dim>
					<dim>1</dim>
				</port>
			</output>
		</layer>
		<layer id="233" name="Constant_67766_compressed" type="Const" version="opset1">
			<data element_type="f16" shape="1, 96, 1, 1" offset="232782" size="192" />
			<output>
				<port id="0" precision="FP16">
					<dim>1</dim>
					<dim>96</dim>
					<dim>1</dim>
					<dim>1</dim>
				</port>
			</output>
		</layer>
		<layer id="234" name="Constant_67766" type="Convert" version="opset1">
			<data destination_type="f32" />
			<rt_info>
				<attribute name="decompression" version="0" />
			</rt_info>
			<input>
				<port id="0" precision="FP16">
					<dim>1</dim>
					<dim>96</dim>
					<dim>1</dim>
					<dim>1</dim>
				</port>
			</input>
			<output>
				<port id="1" precision="FP32">
					<dim>1</dim>
					<dim>96</dim>
					<dim>1</dim>
					<dim>1</dim>
				</port>
			</output>
		</layer>
		<layer id="235" name="Multiply_69615" type="Multiply" version="opset1">
			<data auto_broadcast="numpy" />
			<input>
				<port id="0" precision="FP32">
					<dim>1</dim>
					<dim>96</dim>
					<dim>64</dim>
					<dim>1</dim>
				</port>
				<port id="1" precision="FP32">
					<dim>1</dim>
					<dim>96</dim>
					<dim>1</dim>
					<dim>1</dim>
				</port>
			</input>
			<output>
				<port id="2" precision="FP32">
					<dim>1</dim>
					<dim>96</dim>
					<dim>64</dim>
					<dim>1</dim>
				</port>
			</output>
		</layer>
		<layer id="236" name="Constant_69620_compressed" type="Const" version="opset1">
			<data element_type="f16" shape="1, 96, 1, 1" offset="232974" size="192" />
			<output>
				<port id="0" precision="FP16">
					<dim>1</dim>
					<dim>96</dim>
					<dim>1</dim>
					<dim>1</dim>
				</port>
			</output>
		</layer>
		<layer id="237" name="Constant_69620" type="Convert" version="opset1">
			<data destination_type="f32" />
			<rt_info>
				<attribute name="decompression" version="0" />
			</rt_info>
			<input>
				<port id="0" precision="FP16">
					<dim>1</dim>
					<dim>96</dim>
					<dim>1</dim>
					<dim>1</dim>
				</port>
			</input>
			<output>
				<port id="1" precision="FP32">
					<dim>1</dim>
					<dim>96</dim>
					<dim>1</dim>
					<dim>1</dim>
				</port>
			</output>
		</layer>
		<layer id="238" name="BatchNormalization_314" type="Add" version="opset1">
			<data auto_broadcast="numpy" />
			<input>
				<port id="0" precision="FP32">
					<dim>1</dim>
					<dim>96</dim>
					<dim>64</dim>
					<dim>1</dim>
				</port>
				<port id="1" precision="FP32">
					<dim>1</dim>
					<dim>96</dim>
					<dim>1</dim>
					<dim>1</dim>
				</port>
			</input>
			<output>
				<port id="2" precision="FP32" names="725">
					<dim>1</dim>
					<dim>96</dim>
					<dim>64</dim>
					<dim>1</dim>
				</port>
			</output>
		</layer>
		<layer id="239" name="Constant_1228_compressed" type="Const" version="opset1">
			<data element_type="f16" shape="1" offset="132204" size="2" />
			<output>
				<port id="0" precision="FP16">
					<dim>1</dim>
				</port>
			</output>
		</layer>
		<layer id="240" name="Constant_1228" type="Convert" version="opset1">
			<data destination_type="f32" />
			<rt_info>
				<attribute name="decompression" version="0" />
			</rt_info>
			<input>
				<port id="0" precision="FP16">
					<dim>1</dim>
				</port>
			</input>
			<output>
				<port id="1" precision="FP32">
					<dim>1</dim>
				</port>
			</output>
		</layer>
		<layer id="241" name="LeakyRelu_315" type="PReLU" version="opset1">
			<input>
				<port id="0" precision="FP32">
					<dim>1</dim>
					<dim>96</dim>
					<dim>64</dim>
					<dim>1</dim>
				</port>
				<port id="1" precision="FP32">
					<dim>1</dim>
				</port>
			</input>
			<output>
				<port id="2" precision="FP32" names="726,750">
					<dim>1</dim>
					<dim>96</dim>
					<dim>64</dim>
					<dim>1</dim>
				</port>
			</output>
		</layer>
		<layer id="242" name="blocks_down.1.bd_out.conv.weight_compressed" type="Const" version="opset1">
			<data element_type="f16" shape="64, 96, 1, 1" offset="233166" size="12288" />
			<output>
				<port id="0" precision="FP16">
					<dim>64</dim>
					<dim>96</dim>
					<dim>1</dim>
					<dim>1</dim>
				</port>
			</output>
		</layer>
		<layer id="243" name="blocks_down.1.bd_out.conv.weight" type="Convert" version="opset1">
			<data destination_type="f32" />
			<rt_info>
				<attribute name="decompression" version="0" />
			</rt_info>
			<input>
				<port id="0" precision="FP16">
					<dim>64</dim>
					<dim>96</dim>
					<dim>1</dim>
					<dim>1</dim>
				</port>
			</input>
			<output>
				<port id="1" precision="FP32" names="blocks_down.1.bd_out.conv.weight">
					<dim>64</dim>
					<dim>96</dim>
					<dim>1</dim>
					<dim>1</dim>
				</port>
			</output>
		</layer>
		<layer id="244" name="Conv_331/WithoutBiases" type="Convolution" version="opset1">
			<data strides="1, 1" dilations="1, 2" pads_begin="0, 0" pads_end="0, 0" auto_pad="explicit" />
			<input>
				<port id="0" precision="FP32">
					<dim>1</dim>
					<dim>96</dim>
					<dim>64</dim>
					<dim>1</dim>
				</port>
				<port id="1" precision="FP32">
					<dim>64</dim>
					<dim>96</dim>
					<dim>1</dim>
					<dim>1</dim>
				</port>
			</input>
			<output>
				<port id="2" precision="FP32">
					<dim>1</dim>
					<dim>64</dim>
					<dim>64</dim>
					<dim>1</dim>
				</port>
			</output>
		</layer>
		<layer id="245" name="Reshape_1277_compressed" type="Const" version="opset1">
			<data element_type="f16" shape="1, 64, 1, 1" offset="245454" size="128" />
			<output>
				<port id="0" precision="FP16">
					<dim>1</dim>
					<dim>64</dim>
					<dim>1</dim>
					<dim>1</dim>
				</port>
			</output>
		</layer>
		<layer id="246" name="Reshape_1277" type="Convert" version="opset1">
			<data destination_type="f32" />
			<rt_info>
				<attribute name="decompression" version="0" />
			</rt_info>
			<input>
				<port id="0" precision="FP16">
					<dim>1</dim>
					<dim>64</dim>
					<dim>1</dim>
					<dim>1</dim>
				</port>
			</input>
			<output>
				<port id="1" precision="FP32">
					<dim>1</dim>
					<dim>64</dim>
					<dim>1</dim>
					<dim>1</dim>
				</port>
			</output>
		</layer>
		<layer id="247" name="Conv_331" type="Add" version="opset1">
			<data auto_broadcast="numpy" />
			<input>
				<port id="0" precision="FP32">
					<dim>1</dim>
					<dim>64</dim>
					<dim>64</dim>
					<dim>1</dim>
				</port>
				<port id="1" precision="FP32">
					<dim>1</dim>
					<dim>64</dim>
					<dim>1</dim>
					<dim>1</dim>
				</port>
			</input>
			<output>
				<port id="2" precision="FP32" names="751">
					<dim>1</dim>
					<dim>64</dim>
					<dim>64</dim>
					<dim>1</dim>
				</port>
			</output>
		</layer>
		<layer id="248" name="Concat_332" type="Concat" version="opset1">
			<data axis="3" />
			<input>
				<port id="0" precision="FP32">
					<dim>1</dim>
					<dim>64</dim>
					<dim>64</dim>
					<dim>1</dim>
				</port>
				<port id="1" precision="FP32">
					<dim>1</dim>
					<dim>64</dim>
					<dim>64</dim>
					<dim>1</dim>
				</port>
			</input>
			<output>
				<port id="2" precision="FP32" names="752,767">
					<dim>1</dim>
					<dim>64</dim>
					<dim>64</dim>
					<dim>2</dim>
				</port>
			</output>
		</layer>
		<layer id="249" name="AveragePool_346" type="AvgPool" version="opset1">
			<data kernel="2, 2" strides="2, 1" pads_begin="0, 0" pads_end="0, 0" exclude-pad="true" auto_pad="explicit" rounding_type="floor" />
			<input>
				<port id="0" precision="FP32">
					<dim>1</dim>
					<dim>64</dim>
					<dim>64</dim>
					<dim>2</dim>
				</port>
			</input>
			<output>
				<port id="1" precision="FP32" names="768">
					<dim>1</dim>
					<dim>64</dim>
					<dim>32</dim>
					<dim>1</dim>
				</port>
			</output>
		</layer>
		<layer id="250" name="Constant_67832_compressed" type="Const" version="opset1">
			<data element_type="f16" shape="1, 64, 1, 1" offset="245582" size="128" />
			<output>
				<port id="0" precision="FP16">
					<dim>1</dim>
					<dim>64</dim>
					<dim>1</dim>
					<dim>1</dim>
				</port>
			</output>
		</layer>
		<layer id="251" name="Constant_67832" type="Convert" version="opset1">
			<data destination_type="f32" />
			<rt_info>
				<attribute name="decompression" version="0" />
			</rt_info>
			<input>
				<port id="0" precision="FP16">
					<dim>1</dim>
					<dim>64</dim>
					<dim>1</dim>
					<dim>1</dim>
				</port>
			</input>
			<output>
				<port id="1" precision="FP32">
					<dim>1</dim>
					<dim>64</dim>
					<dim>1</dim>
					<dim>1</dim>
				</port>
			</output>
		</layer>
		<layer id="252" name="Multiply_69622" type="Multiply" version="opset1">
			<data auto_broadcast="numpy" />
			<input>
				<port id="0" precision="FP32">
					<dim>1</dim>
					<dim>64</dim>
					<dim>32</dim>
					<dim>1</dim>
				</port>
				<port id="1" precision="FP32">
					<dim>1</dim>
					<dim>64</dim>
					<dim>1</dim>
					<dim>1</dim>
				</port>
			</input>
			<output>
				<port id="2" precision="FP32">
					<dim>1</dim>
					<dim>64</dim>
					<dim>32</dim>
					<dim>1</dim>
				</port>
			</output>
		</layer>
		<layer id="253" name="Constant_69627_compressed" type="Const" version="opset1">
			<data element_type="f16" shape="1, 64, 1, 1" offset="245710" size="128" />
			<output>
				<port id="0" precision="FP16">
					<dim>1</dim>
					<dim>64</dim>
					<dim>1</dim>
					<dim>1</dim>
				</port>
			</output>
		</layer>
		<layer id="254" name="Constant_69627" type="Convert" version="opset1">
			<data destination_type="f32" />
			<rt_info>
				<attribute name="decompression" version="0" />
			</rt_info>
			<input>
				<port id="0" precision="FP16">
					<dim>1</dim>
					<dim>64</dim>
					<dim>1</dim>
					<dim>1</dim>
				</port>
			</input>
			<output>
				<port id="1" precision="FP32">
					<dim>1</dim>
					<dim>64</dim>
					<dim>1</dim>
					<dim>1</dim>
				</port>
			</output>
		</layer>
		<layer id="255" name="BatchNormalization_347" type="Add" version="opset1">
			<data auto_broadcast="numpy" />
			<input>
				<port id="0" precision="FP32">
					<dim>1</dim>
					<dim>64</dim>
					<dim>32</dim>
					<dim>1</dim>
				</port>
				<port id="1" precision="FP32">
					<dim>1</dim>
					<dim>64</dim>
					<dim>1</dim>
					<dim>1</dim>
				</port>
			</input>
			<output>
				<port id="2" precision="FP32" names="769">
					<dim>1</dim>
					<dim>64</dim>
					<dim>32</dim>
					<dim>1</dim>
				</port>
			</output>
		</layer>
		<layer id="256" name="Constant_1312_compressed" type="Const" version="opset1">
			<data element_type="f16" shape="1" offset="132204" size="2" />
			<output>
				<port id="0" precision="FP16">
					<dim>1</dim>
				</port>
			</output>
		</layer>
		<layer id="257" name="Constant_1312" type="Convert" version="opset1">
			<data destination_type="f32" />
			<rt_info>
				<attribute name="decompression" version="0" />
			</rt_info>
			<input>
				<port id="0" precision="FP16">
					<dim>1</dim>
				</port>
			</input>
			<output>
				<port id="1" precision="FP32">
					<dim>1</dim>
				</port>
			</output>
		</layer>
		<layer id="258" name="LeakyRelu_348" type="PReLU" version="opset1">
			<input>
				<port id="0" precision="FP32">
					<dim>1</dim>
					<dim>64</dim>
					<dim>32</dim>
					<dim>1</dim>
				</port>
				<port id="1" precision="FP32">
					<dim>1</dim>
				</port>
			</input>
			<output>
				<port id="2" precision="FP32" names="770">
					<dim>1</dim>
					<dim>64</dim>
					<dim>32</dim>
					<dim>1</dim>
				</port>
			</output>
		</layer>
		<layer id="259" name="Concat_349" type="Concat" version="opset1">
			<data axis="3" />
			<input>
				<port id="0" precision="FP32">
					<dim>1</dim>
					<dim>64</dim>
					<dim>32</dim>
					<dim>8</dim>
				</port>
				<port id="1" precision="FP32">
					<dim>1</dim>
					<dim>64</dim>
					<dim>32</dim>
					<dim>1</dim>
				</port>
			</input>
			<output>
				<port id="2" precision="FP32" names="771">
					<dim>1</dim>
					<dim>64</dim>
					<dim>32</dim>
					<dim>9</dim>
				</port>
			</output>
		</layer>
		<layer id="260" name="blocks_down.2.bd.0.conv.weight_compressed" type="Const" version="opset1">
			<data element_type="f16" shape="32, 64, 3, 3" offset="245838" size="36864" />
			<output>
				<port id="0" precision="FP16">
					<dim>32</dim>
					<dim>64</dim>
					<dim>3</dim>
					<dim>3</dim>
				</port>
			</output>
		</layer>
		<layer id="261" name="blocks_down.2.bd.0.conv.weight" type="Convert" version="opset1">
			<data destination_type="f32" />
			<rt_info>
				<attribute name="decompression" version="0" />
			</rt_info>
			<input>
				<port id="0" precision="FP16">
					<dim>32</dim>
					<dim>64</dim>
					<dim>3</dim>
					<dim>3</dim>
				</port>
			</input>
			<output>
				<port id="1" precision="FP32" names="blocks_down.2.bd.0.conv.weight">
					<dim>32</dim>
					<dim>64</dim>
					<dim>3</dim>
					<dim>3</dim>
				</port>
			</output>
		</layer>
		<layer id="262" name="Conv_376/WithoutBiases" type="Convolution" version="opset1">
			<data strides="1, 1" dilations="1, 4" pads_begin="1, 0" pads_end="1, 0" auto_pad="explicit" />
			<input>
				<port id="0" precision="FP32">
					<dim>1</dim>
					<dim>64</dim>
					<dim>32</dim>
					<dim>9</dim>
				</port>
				<port id="1" precision="FP32">
					<dim>32</dim>
					<dim>64</dim>
					<dim>3</dim>
					<dim>3</dim>
				</port>
			</input>
			<output>
				<port id="2" precision="FP32">
					<dim>1</dim>
					<dim>32</dim>
					<dim>32</dim>
					<dim>1</dim>
				</port>
			</output>
		</layer>
		<layer id="263" name="Reshape_1385_compressed" type="Const" version="opset1">
			<data element_type="f16" shape="1, 32, 1, 1" offset="282702" size="64" />
			<output>
				<port id="0" precision="FP16">
					<dim>1</dim>
					<dim>32</dim>
					<dim>1</dim>
					<dim>1</dim>
				</port>
			</output>
		</layer>
		<layer id="264" name="Reshape_1385" type="Convert" version="opset1">
			<data destination_type="f32" />
			<rt_info>
				<attribute name="decompression" version="0" />
			</rt_info>
			<input>
				<port id="0" precision="FP16">
					<dim>1</dim>
					<dim>32</dim>
					<dim>1</dim>
					<dim>1</dim>
				</port>
			</input>
			<output>
				<port id="1" precision="FP32">
					<dim>1</dim>
					<dim>32</dim>
					<dim>1</dim>
					<dim>1</dim>
				</port>
			</output>
		</layer>
		<layer id="265" name="Conv_376" type="Add" version="opset1">
			<data auto_broadcast="numpy" />
			<input>
				<port id="0" precision="FP32">
					<dim>1</dim>
					<dim>32</dim>
					<dim>32</dim>
					<dim>1</dim>
				</port>
				<port id="1" precision="FP32">
					<dim>1</dim>
					<dim>32</dim>
					<dim>1</dim>
					<dim>1</dim>
				</port>
			</input>
			<output>
				<port id="2" precision="FP32" names="809">
					<dim>1</dim>
					<dim>32</dim>
					<dim>32</dim>
					<dim>1</dim>
				</port>
			</output>
		</layer>
		<layer id="266" name="Concat_377" type="Concat" version="opset1">
			<data axis="1" />
			<input>
				<port id="0" precision="FP32">
					<dim>1</dim>
					<dim>64</dim>
					<dim>32</dim>
					<dim>1</dim>
				</port>
				<port id="1" precision="FP32">
					<dim>1</dim>
					<dim>32</dim>
					<dim>32</dim>
					<dim>1</dim>
				</port>
			</input>
			<output>
				<port id="2" precision="FP32" names="810">
					<dim>1</dim>
					<dim>96</dim>
					<dim>32</dim>
					<dim>1</dim>
				</port>
			</output>
		</layer>
		<layer id="267" name="Constant_67898_compressed" type="Const" version="opset1">
			<data element_type="f16" shape="1, 96, 1, 1" offset="282766" size="192" />
			<output>
				<port id="0" precision="FP16">
					<dim>1</dim>
					<dim>96</dim>
					<dim>1</dim>
					<dim>1</dim>
				</port>
			</output>
		</layer>
		<layer id="268" name="Constant_67898" type="Convert" version="opset1">
			<data destination_type="f32" />
			<rt_info>
				<attribute name="decompression" version="0" />
			</rt_info>
			<input>
				<port id="0" precision="FP16">
					<dim>1</dim>
					<dim>96</dim>
					<dim>1</dim>
					<dim>1</dim>
				</port>
			</input>
			<output>
				<port id="1" precision="FP32">
					<dim>1</dim>
					<dim>96</dim>
					<dim>1</dim>
					<dim>1</dim>
				</port>
			</output>
		</layer>
		<layer id="269" name="Multiply_69629" type="Multiply" version="opset1">
			<data auto_broadcast="numpy" />
			<input>
				<port id="0" precision="FP32">
					<dim>1</dim>
					<dim>96</dim>
					<dim>32</dim>
					<dim>1</dim>
				</port>
				<port id="1" precision="FP32">
					<dim>1</dim>
					<dim>96</dim>
					<dim>1</dim>
					<dim>1</dim>
				</port>
			</input>
			<output>
				<port id="2" precision="FP32">
					<dim>1</dim>
					<dim>96</dim>
					<dim>32</dim>
					<dim>1</dim>
				</port>
			</output>
		</layer>
		<layer id="270" name="Constant_69634_compressed" type="Const" version="opset1">
			<data element_type="f16" shape="1, 96, 1, 1" offset="282958" size="192" />
			<output>
				<port id="0" precision="FP16">
					<dim>1</dim>
					<dim>96</dim>
					<dim>1</dim>
					<dim>1</dim>
				</port>
			</output>
		</layer>
		<layer id="271" name="Constant_69634" type="Convert" version="opset1">
			<data destination_type="f32" />
			<rt_info>
				<attribute name="decompression" version="0" />
			</rt_info>
			<input>
				<port id="0" precision="FP16">
					<dim>1</dim>
					<dim>96</dim>
					<dim>1</dim>
					<dim>1</dim>
				</port>
			</input>
			<output>
				<port id="1" precision="FP32">
					<dim>1</dim>
					<dim>96</dim>
					<dim>1</dim>
					<dim>1</dim>
				</port>
			</output>
		</layer>
		<layer id="272" name="BatchNormalization_378" type="Add" version="opset1">
			<data auto_broadcast="numpy" />
			<input>
				<port id="0" precision="FP32">
					<dim>1</dim>
					<dim>96</dim>
					<dim>32</dim>
					<dim>1</dim>
				</port>
				<port id="1" precision="FP32">
					<dim>1</dim>
					<dim>96</dim>
					<dim>1</dim>
					<dim>1</dim>
				</port>
			</input>
			<output>
				<port id="2" precision="FP32" names="811">
					<dim>1</dim>
					<dim>96</dim>
					<dim>32</dim>
					<dim>1</dim>
				</port>
			</output>
		</layer>
		<layer id="273" name="Constant_1391_compressed" type="Const" version="opset1">
			<data element_type="f16" shape="1" offset="132204" size="2" />
			<output>
				<port id="0" precision="FP16">
					<dim>1</dim>
				</port>
			</output>
		</layer>
		<layer id="274" name="Constant_1391" type="Convert" version="opset1">
			<data destination_type="f32" />
			<rt_info>
				<attribute name="decompression" version="0" />
			</rt_info>
			<input>
				<port id="0" precision="FP16">
					<dim>1</dim>
				</port>
			</input>
			<output>
				<port id="1" precision="FP32">
					<dim>1</dim>
				</port>
			</output>
		</layer>
		<layer id="275" name="LeakyRelu_379" type="PReLU" version="opset1">
			<input>
				<port id="0" precision="FP32">
					<dim>1</dim>
					<dim>96</dim>
					<dim>32</dim>
					<dim>1</dim>
				</port>
				<port id="1" precision="FP32">
					<dim>1</dim>
				</port>
			</input>
			<output>
				<port id="2" precision="FP32" names="812">
					<dim>1</dim>
					<dim>96</dim>
					<dim>32</dim>
					<dim>1</dim>
				</port>
			</output>
		</layer>
		<layer id="276" name="Concat_380" type="Concat" version="opset1">
			<data axis="3" />
			<input>
				<port id="0" precision="FP32">
					<dim>1</dim>
					<dim>96</dim>
					<dim>32</dim>
					<dim>8</dim>
				</port>
				<port id="1" precision="FP32">
					<dim>1</dim>
					<dim>96</dim>
					<dim>32</dim>
					<dim>1</dim>
				</port>
			</input>
			<output>
				<port id="2" precision="FP32" names="813">
					<dim>1</dim>
					<dim>96</dim>
					<dim>32</dim>
					<dim>9</dim>
				</port>
			</output>
		</layer>
		<layer id="277" name="blocks_down.2.bd.1.conv.weight_compressed" type="Const" version="opset1">
			<data element_type="f16" shape="32, 96, 3, 3" offset="283150" size="55296" />
			<output>
				<port id="0" precision="FP16">
					<dim>32</dim>
					<dim>96</dim>
					<dim>3</dim>
					<dim>3</dim>
				</port>
			</output>
		</layer>
		<layer id="278" name="blocks_down.2.bd.1.conv.weight" type="Convert" version="opset1">
			<data destination_type="f32" />
			<rt_info>
				<attribute name="decompression" version="0" />
			</rt_info>
			<input>
				<port id="0" precision="FP16">
					<dim>32</dim>
					<dim>96</dim>
					<dim>3</dim>
					<dim>3</dim>
				</port>
			</input>
			<output>
				<port id="1" precision="FP32" names="blocks_down.2.bd.1.conv.weight">
					<dim>32</dim>
					<dim>96</dim>
					<dim>3</dim>
					<dim>3</dim>
				</port>
			</output>
		</layer>
		<layer id="279" name="Conv_407/WithoutBiases" type="Convolution" version="opset1">
			<data strides="1, 1" dilations="1, 4" pads_begin="1, 0" pads_end="1, 0" auto_pad="explicit" />
			<input>
				<port id="0" precision="FP32">
					<dim>1</dim>
					<dim>96</dim>
					<dim>32</dim>
					<dim>9</dim>
				</port>
				<port id="1" precision="FP32">
					<dim>32</dim>
					<dim>96</dim>
					<dim>3</dim>
					<dim>3</dim>
				</port>
			</input>
			<output>
				<port id="2" precision="FP32">
					<dim>1</dim>
					<dim>32</dim>
					<dim>32</dim>
					<dim>1</dim>
				</port>
			</output>
		</layer>
		<layer id="280" name="Reshape_1464_compressed" type="Const" version="opset1">
			<data element_type="f16" shape="1, 32, 1, 1" offset="338446" size="64" />
			<output>
				<port id="0" precision="FP16">
					<dim>1</dim>
					<dim>32</dim>
					<dim>1</dim>
					<dim>1</dim>
				</port>
			</output>
		</layer>
		<layer id="281" name="Reshape_1464" type="Convert" version="opset1">
			<data destination_type="f32" />
			<rt_info>
				<attribute name="decompression" version="0" />
			</rt_info>
			<input>
				<port id="0" precision="FP16">
					<dim>1</dim>
					<dim>32</dim>
					<dim>1</dim>
					<dim>1</dim>
				</port>
			</input>
			<output>
				<port id="1" precision="FP32">
					<dim>1</dim>
					<dim>32</dim>
					<dim>1</dim>
					<dim>1</dim>
				</port>
			</output>
		</layer>
		<layer id="282" name="Conv_407" type="Add" version="opset1">
			<data auto_broadcast="numpy" />
			<input>
				<port id="0" precision="FP32">
					<dim>1</dim>
					<dim>32</dim>
					<dim>32</dim>
					<dim>1</dim>
				</port>
				<port id="1" precision="FP32">
					<dim>1</dim>
					<dim>32</dim>
					<dim>1</dim>
					<dim>1</dim>
				</port>
			</input>
			<output>
				<port id="2" precision="FP32" names="851">
					<dim>1</dim>
					<dim>32</dim>
					<dim>32</dim>
					<dim>1</dim>
				</port>
			</output>
		</layer>
		<layer id="283" name="Concat_408" type="Concat" version="opset1">
			<data axis="1" />
			<input>
				<port id="0" precision="FP32">
					<dim>1</dim>
					<dim>96</dim>
					<dim>32</dim>
					<dim>1</dim>
				</port>
				<port id="1" precision="FP32">
					<dim>1</dim>
					<dim>32</dim>
					<dim>32</dim>
					<dim>1</dim>
				</port>
			</input>
			<output>
				<port id="2" precision="FP32" names="852">
					<dim>1</dim>
					<dim>128</dim>
					<dim>32</dim>
					<dim>1</dim>
				</port>
			</output>
		</layer>
		<layer id="284" name="Constant_67964_compressed" type="Const" version="opset1">
			<data element_type="f16" shape="1, 128, 1, 1" offset="338510" size="256" />
			<output>
				<port id="0" precision="FP16">
					<dim>1</dim>
					<dim>128</dim>
					<dim>1</dim>
					<dim>1</dim>
				</port>
			</output>
		</layer>
		<layer id="285" name="Constant_67964" type="Convert" version="opset1">
			<data destination_type="f32" />
			<rt_info>
				<attribute name="decompression" version="0" />
			</rt_info>
			<input>
				<port id="0" precision="FP16">
					<dim>1</dim>
					<dim>128</dim>
					<dim>1</dim>
					<dim>1</dim>
				</port>
			</input>
			<output>
				<port id="1" precision="FP32">
					<dim>1</dim>
					<dim>128</dim>
					<dim>1</dim>
					<dim>1</dim>
				</port>
			</output>
		</layer>
		<layer id="286" name="Multiply_69636" type="Multiply" version="opset1">
			<data auto_broadcast="numpy" />
			<input>
				<port id="0" precision="FP32">
					<dim>1</dim>
					<dim>128</dim>
					<dim>32</dim>
					<dim>1</dim>
				</port>
				<port id="1" precision="FP32">
					<dim>1</dim>
					<dim>128</dim>
					<dim>1</dim>
					<dim>1</dim>
				</port>
			</input>
			<output>
				<port id="2" precision="FP32">
					<dim>1</dim>
					<dim>128</dim>
					<dim>32</dim>
					<dim>1</dim>
				</port>
			</output>
		</layer>
		<layer id="287" name="Constant_69641_compressed" type="Const" version="opset1">
			<data element_type="f16" shape="1, 128, 1, 1" offset="338766" size="256" />
			<output>
				<port id="0" precision="FP16">
					<dim>1</dim>
					<dim>128</dim>
					<dim>1</dim>
					<dim>1</dim>
				</port>
			</output>
		</layer>
		<layer id="288" name="Constant_69641" type="Convert" version="opset1">
			<data destination_type="f32" />
			<rt_info>
				<attribute name="decompression" version="0" />
			</rt_info>
			<input>
				<port id="0" precision="FP16">
					<dim>1</dim>
					<dim>128</dim>
					<dim>1</dim>
					<dim>1</dim>
				</port>
			</input>
			<output>
				<port id="1" precision="FP32">
					<dim>1</dim>
					<dim>128</dim>
					<dim>1</dim>
					<dim>1</dim>
				</port>
			</output>
		</layer>
		<layer id="289" name="BatchNormalization_409" type="Add" version="opset1">
			<data auto_broadcast="numpy" />
			<input>
				<port id="0" precision="FP32">
					<dim>1</dim>
					<dim>128</dim>
					<dim>32</dim>
					<dim>1</dim>
				</port>
				<port id="1" precision="FP32">
					<dim>1</dim>
					<dim>128</dim>
					<dim>1</dim>
					<dim>1</dim>
				</port>
			</input>
			<output>
				<port id="2" precision="FP32" names="853">
					<dim>1</dim>
					<dim>128</dim>
					<dim>32</dim>
					<dim>1</dim>
				</port>
			</output>
		</layer>
		<layer id="290" name="Constant_1470_compressed" type="Const" version="opset1">
			<data element_type="f16" shape="1" offset="132204" size="2" />
			<output>
				<port id="0" precision="FP16">
					<dim>1</dim>
				</port>
			</output>
		</layer>
		<layer id="291" name="Constant_1470" type="Convert" version="opset1">
			<data destination_type="f32" />
			<rt_info>
				<attribute name="decompression" version="0" />
			</rt_info>
			<input>
				<port id="0" precision="FP16">
					<dim>1</dim>
				</port>
			</input>
			<output>
				<port id="1" precision="FP32">
					<dim>1</dim>
				</port>
			</output>
		</layer>
		<layer id="292" name="LeakyRelu_410" type="PReLU" version="opset1">
			<input>
				<port id="0" precision="FP32">
					<dim>1</dim>
					<dim>128</dim>
					<dim>32</dim>
					<dim>1</dim>
				</port>
				<port id="1" precision="FP32">
					<dim>1</dim>
				</port>
			</input>
			<output>
				<port id="2" precision="FP32" names="854">
					<dim>1</dim>
					<dim>128</dim>
					<dim>32</dim>
					<dim>1</dim>
				</port>
			</output>
		</layer>
		<layer id="293" name="Concat_411" type="Concat" version="opset1">
			<data axis="3" />
			<input>
				<port id="0" precision="FP32">
					<dim>1</dim>
					<dim>128</dim>
					<dim>32</dim>
					<dim>8</dim>
				</port>
				<port id="1" precision="FP32">
					<dim>1</dim>
					<dim>128</dim>
					<dim>32</dim>
					<dim>1</dim>
				</port>
			</input>
			<output>
				<port id="2" precision="FP32" names="855">
					<dim>1</dim>
					<dim>128</dim>
					<dim>32</dim>
					<dim>9</dim>
				</port>
			</output>
		</layer>
		<layer id="294" name="blocks_down.2.bd.2.conv.weight_compressed" type="Const" version="opset1">
			<data element_type="f16" shape="32, 128, 3, 3" offset="339022" size="73728" />
			<output>
				<port id="0" precision="FP16">
					<dim>32</dim>
					<dim>128</dim>
					<dim>3</dim>
					<dim>3</dim>
				</port>
			</output>
		</layer>
		<layer id="295" name="blocks_down.2.bd.2.conv.weight" type="Convert" version="opset1">
			<data destination_type="f32" />
			<rt_info>
				<attribute name="decompression" version="0" />
			</rt_info>
			<input>
				<port id="0" precision="FP16">
					<dim>32</dim>
					<dim>128</dim>
					<dim>3</dim>
					<dim>3</dim>
				</port>
			</input>
			<output>
				<port id="1" precision="FP32" names="blocks_down.2.bd.2.conv.weight">
					<dim>32</dim>
					<dim>128</dim>
					<dim>3</dim>
					<dim>3</dim>
				</port>
			</output>
		</layer>
		<layer id="296" name="Conv_438/WithoutBiases" type="Convolution" version="opset1">
			<data strides="1, 1" dilations="1, 4" pads_begin="1, 0" pads_end="1, 0" auto_pad="explicit" />
			<input>
				<port id="0" precision="FP32">
					<dim>1</dim>
					<dim>128</dim>
					<dim>32</dim>
					<dim>9</dim>
				</port>
				<port id="1" precision="FP32">
					<dim>32</dim>
					<dim>128</dim>
					<dim>3</dim>
					<dim>3</dim>
				</port>
			</input>
			<output>
				<port id="2" precision="FP32">
					<dim>1</dim>
					<dim>32</dim>
					<dim>32</dim>
					<dim>1</dim>
				</port>
			</output>
		</layer>
		<layer id="297" name="Reshape_1543_compressed" type="Const" version="opset1">
			<data element_type="f16" shape="1, 32, 1, 1" offset="412750" size="64" />
			<output>
				<port id="0" precision="FP16">
					<dim>1</dim>
					<dim>32</dim>
					<dim>1</dim>
					<dim>1</dim>
				</port>
			</output>
		</layer>
		<layer id="298" name="Reshape_1543" type="Convert" version="opset1">
			<data destination_type="f32" />
			<rt_info>
				<attribute name="decompression" version="0" />
			</rt_info>
			<input>
				<port id="0" precision="FP16">
					<dim>1</dim>
					<dim>32</dim>
					<dim>1</dim>
					<dim>1</dim>
				</port>
			</input>
			<output>
				<port id="1" precision="FP32">
					<dim>1</dim>
					<dim>32</dim>
					<dim>1</dim>
					<dim>1</dim>
				</port>
			</output>
		</layer>
		<layer id="299" name="Conv_438" type="Add" version="opset1">
			<data auto_broadcast="numpy" />
			<input>
				<port id="0" precision="FP32">
					<dim>1</dim>
					<dim>32</dim>
					<dim>32</dim>
					<dim>1</dim>
				</port>
				<port id="1" precision="FP32">
					<dim>1</dim>
					<dim>32</dim>
					<dim>1</dim>
					<dim>1</dim>
				</port>
			</input>
			<output>
				<port id="2" precision="FP32" names="893">
					<dim>1</dim>
					<dim>32</dim>
					<dim>32</dim>
					<dim>1</dim>
				</port>
			</output>
		</layer>
		<layer id="300" name="Concat_439" type="Concat" version="opset1">
			<data axis="1" />
			<input>
				<port id="0" precision="FP32">
					<dim>1</dim>
					<dim>128</dim>
					<dim>32</dim>
					<dim>1</dim>
				</port>
				<port id="1" precision="FP32">
					<dim>1</dim>
					<dim>32</dim>
					<dim>32</dim>
					<dim>1</dim>
				</port>
			</input>
			<output>
				<port id="2" precision="FP32" names="894">
					<dim>1</dim>
					<dim>160</dim>
					<dim>32</dim>
					<dim>1</dim>
				</port>
			</output>
		</layer>
		<layer id="301" name="Constant_68030_compressed" type="Const" version="opset1">
			<data element_type="f16" shape="1, 160, 1, 1" offset="412814" size="320" />
			<output>
				<port id="0" precision="FP16">
					<dim>1</dim>
					<dim>160</dim>
					<dim>1</dim>
					<dim>1</dim>
				</port>
			</output>
		</layer>
		<layer id="302" name="Constant_68030" type="Convert" version="opset1">
			<data destination_type="f32" />
			<rt_info>
				<attribute name="decompression" version="0" />
			</rt_info>
			<input>
				<port id="0" precision="FP16">
					<dim>1</dim>
					<dim>160</dim>
					<dim>1</dim>
					<dim>1</dim>
				</port>
			</input>
			<output>
				<port id="1" precision="FP32">
					<dim>1</dim>
					<dim>160</dim>
					<dim>1</dim>
					<dim>1</dim>
				</port>
			</output>
		</layer>
		<layer id="303" name="Multiply_69643" type="Multiply" version="opset1">
			<data auto_broadcast="numpy" />
			<input>
				<port id="0" precision="FP32">
					<dim>1</dim>
					<dim>160</dim>
					<dim>32</dim>
					<dim>1</dim>
				</port>
				<port id="1" precision="FP32">
					<dim>1</dim>
					<dim>160</dim>
					<dim>1</dim>
					<dim>1</dim>
				</port>
			</input>
			<output>
				<port id="2" precision="FP32">
					<dim>1</dim>
					<dim>160</dim>
					<dim>32</dim>
					<dim>1</dim>
				</port>
			</output>
		</layer>
		<layer id="304" name="Constant_69648_compressed" type="Const" version="opset1">
			<data element_type="f16" shape="1, 160, 1, 1" offset="413134" size="320" />
			<output>
				<port id="0" precision="FP16">
					<dim>1</dim>
					<dim>160</dim>
					<dim>1</dim>
					<dim>1</dim>
				</port>
			</output>
		</layer>
		<layer id="305" name="Constant_69648" type="Convert" version="opset1">
			<data destination_type="f32" />
			<rt_info>
				<attribute name="decompression" version="0" />
			</rt_info>
			<input>
				<port id="0" precision="FP16">
					<dim>1</dim>
					<dim>160</dim>
					<dim>1</dim>
					<dim>1</dim>
				</port>
			</input>
			<output>
				<port id="1" precision="FP32">
					<dim>1</dim>
					<dim>160</dim>
					<dim>1</dim>
					<dim>1</dim>
				</port>
			</output>
		</layer>
		<layer id="306" name="BatchNormalization_440" type="Add" version="opset1">
			<data auto_broadcast="numpy" />
			<input>
				<port id="0" precision="FP32">
					<dim>1</dim>
					<dim>160</dim>
					<dim>32</dim>
					<dim>1</dim>
				</port>
				<port id="1" precision="FP32">
					<dim>1</dim>
					<dim>160</dim>
					<dim>1</dim>
					<dim>1</dim>
				</port>
			</input>
			<output>
				<port id="2" precision="FP32" names="895">
					<dim>1</dim>
					<dim>160</dim>
					<dim>32</dim>
					<dim>1</dim>
				</port>
			</output>
		</layer>
		<layer id="307" name="Constant_1549_compressed" type="Const" version="opset1">
			<data element_type="f16" shape="1" offset="132204" size="2" />
			<output>
				<port id="0" precision="FP16">
					<dim>1</dim>
				</port>
			</output>
		</layer>
		<layer id="308" name="Constant_1549" type="Convert" version="opset1">
			<data destination_type="f32" />
			<rt_info>
				<attribute name="decompression" version="0" />
			</rt_info>
			<input>
				<port id="0" precision="FP16">
					<dim>1</dim>
				</port>
			</input>
			<output>
				<port id="1" precision="FP32">
					<dim>1</dim>
				</port>
			</output>
		</layer>
		<layer id="309" name="LeakyRelu_441" type="PReLU" version="opset1">
			<input>
				<port id="0" precision="FP32">
					<dim>1</dim>
					<dim>160</dim>
					<dim>32</dim>
					<dim>1</dim>
				</port>
				<port id="1" precision="FP32">
					<dim>1</dim>
				</port>
			</input>
			<output>
				<port id="2" precision="FP32" names="896,920">
					<dim>1</dim>
					<dim>160</dim>
					<dim>32</dim>
					<dim>1</dim>
				</port>
			</output>
		</layer>
		<layer id="310" name="blocks_down.2.bd_out.conv.weight_compressed" type="Const" version="opset1">
			<data element_type="f16" shape="128, 160, 1, 1" offset="413454" size="40960" />
			<output>
				<port id="0" precision="FP16">
					<dim>128</dim>
					<dim>160</dim>
					<dim>1</dim>
					<dim>1</dim>
				</port>
			</output>
		</layer>
		<layer id="311" name="blocks_down.2.bd_out.conv.weight" type="Convert" version="opset1">
			<data destination_type="f32" />
			<rt_info>
				<attribute name="decompression" version="0" />
			</rt_info>
			<input>
				<port id="0" precision="FP16">
					<dim>128</dim>
					<dim>160</dim>
					<dim>1</dim>
					<dim>1</dim>
				</port>
			</input>
			<output>
				<port id="1" precision="FP32" names="blocks_down.2.bd_out.conv.weight">
					<dim>128</dim>
					<dim>160</dim>
					<dim>1</dim>
					<dim>1</dim>
				</port>
			</output>
		</layer>
		<layer id="312" name="Conv_457/WithoutBiases" type="Convolution" version="opset1">
			<data strides="1, 1" dilations="1, 4" pads_begin="0, 0" pads_end="0, 0" auto_pad="explicit" />
			<input>
				<port id="0" precision="FP32">
					<dim>1</dim>
					<dim>160</dim>
					<dim>32</dim>
					<dim>1</dim>
				</port>
				<port id="1" precision="FP32">
					<dim>128</dim>
					<dim>160</dim>
					<dim>1</dim>
					<dim>1</dim>
				</port>
			</input>
			<output>
				<port id="2" precision="FP32">
					<dim>1</dim>
					<dim>128</dim>
					<dim>32</dim>
					<dim>1</dim>
				</port>
			</output>
		</layer>
		<layer id="313" name="Reshape_1598_compressed" type="Const" version="opset1">
			<data element_type="f16" shape="1, 128, 1, 1" offset="454414" size="256" />
			<output>
				<port id="0" precision="FP16">
					<dim>1</dim>
					<dim>128</dim>
					<dim>1</dim>
					<dim>1</dim>
				</port>
			</output>
		</layer>
		<layer id="314" name="Reshape_1598" type="Convert" version="opset1">
			<data destination_type="f32" />
			<rt_info>
				<attribute name="decompression" version="0" />
			</rt_info>
			<input>
				<port id="0" precision="FP16">
					<dim>1</dim>
					<dim>128</dim>
					<dim>1</dim>
					<dim>1</dim>
				</port>
			</input>
			<output>
				<port id="1" precision="FP32">
					<dim>1</dim>
					<dim>128</dim>
					<dim>1</dim>
					<dim>1</dim>
				</port>
			</output>
		</layer>
		<layer id="315" name="Conv_457" type="Add" version="opset1">
			<data auto_broadcast="numpy" />
			<input>
				<port id="0" precision="FP32">
					<dim>1</dim>
					<dim>128</dim>
					<dim>32</dim>
					<dim>1</dim>
				</port>
				<port id="1" precision="FP32">
					<dim>1</dim>
					<dim>128</dim>
					<dim>1</dim>
					<dim>1</dim>
				</port>
			</input>
			<output>
				<port id="2" precision="FP32" names="921">
					<dim>1</dim>
					<dim>128</dim>
					<dim>32</dim>
					<dim>1</dim>
				</port>
			</output>
		</layer>
		<layer id="316" name="Concat_458" type="Concat" version="opset1">
			<data axis="3" />
			<input>
				<port id="0" precision="FP32">
					<dim>1</dim>
					<dim>128</dim>
					<dim>32</dim>
					<dim>1</dim>
				</port>
				<port id="1" precision="FP32">
					<dim>1</dim>
					<dim>128</dim>
					<dim>32</dim>
					<dim>1</dim>
				</port>
			</input>
			<output>
				<port id="2" precision="FP32" names="922,937">
					<dim>1</dim>
					<dim>128</dim>
					<dim>32</dim>
					<dim>2</dim>
				</port>
			</output>
		</layer>
		<layer id="317" name="AveragePool_472" type="AvgPool" version="opset1">
			<data kernel="2, 2" strides="2, 1" pads_begin="0, 0" pads_end="0, 0" exclude-pad="true" auto_pad="explicit" rounding_type="floor" />
			<input>
				<port id="0" precision="FP32">
					<dim>1</dim>
					<dim>128</dim>
					<dim>32</dim>
					<dim>2</dim>
				</port>
			</input>
			<output>
				<port id="1" precision="FP32" names="938">
					<dim>1</dim>
					<dim>128</dim>
					<dim>16</dim>
					<dim>1</dim>
				</port>
			</output>
		</layer>
		<layer id="318" name="Constant_68096_compressed" type="Const" version="opset1">
			<data element_type="f16" shape="1, 128, 1, 1" offset="454670" size="256" />
			<output>
				<port id="0" precision="FP16">
					<dim>1</dim>
					<dim>128</dim>
					<dim>1</dim>
					<dim>1</dim>
				</port>
			</output>
		</layer>
		<layer id="319" name="Constant_68096" type="Convert" version="opset1">
			<data destination_type="f32" />
			<rt_info>
				<attribute name="decompression" version="0" />
			</rt_info>
			<input>
				<port id="0" precision="FP16">
					<dim>1</dim>
					<dim>128</dim>
					<dim>1</dim>
					<dim>1</dim>
				</port>
			</input>
			<output>
				<port id="1" precision="FP32">
					<dim>1</dim>
					<dim>128</dim>
					<dim>1</dim>
					<dim>1</dim>
				</port>
			</output>
		</layer>
		<layer id="320" name="Multiply_69650" type="Multiply" version="opset1">
			<data auto_broadcast="numpy" />
			<input>
				<port id="0" precision="FP32">
					<dim>1</dim>
					<dim>128</dim>
					<dim>16</dim>
					<dim>1</dim>
				</port>
				<port id="1" precision="FP32">
					<dim>1</dim>
					<dim>128</dim>
					<dim>1</dim>
					<dim>1</dim>
				</port>
			</input>
			<output>
				<port id="2" precision="FP32">
					<dim>1</dim>
					<dim>128</dim>
					<dim>16</dim>
					<dim>1</dim>
				</port>
			</output>
		</layer>
		<layer id="321" name="Constant_69655_compressed" type="Const" version="opset1">
			<data element_type="f16" shape="1, 128, 1, 1" offset="454926" size="256" />
			<output>
				<port id="0" precision="FP16">
					<dim>1</dim>
					<dim>128</dim>
					<dim>1</dim>
					<dim>1</dim>
				</port>
			</output>
		</layer>
		<layer id="322" name="Constant_69655" type="Convert" version="opset1">
			<data destination_type="f32" />
			<rt_info>
				<attribute name="decompression" version="0" />
			</rt_info>
			<input>
				<port id="0" precision="FP16">
					<dim>1</dim>
					<dim>128</dim>
					<dim>1</dim>
					<dim>1</dim>
				</port>
			</input>
			<output>
				<port id="1" precision="FP32">
					<dim>1</dim>
					<dim>128</dim>
					<dim>1</dim>
					<dim>1</dim>
				</port>
			</output>
		</layer>
		<layer id="323" name="BatchNormalization_473" type="Add" version="opset1">
			<data auto_broadcast="numpy" />
			<input>
				<port id="0" precision="FP32">
					<dim>1</dim>
					<dim>128</dim>
					<dim>16</dim>
					<dim>1</dim>
				</port>
				<port id="1" precision="FP32">
					<dim>1</dim>
					<dim>128</dim>
					<dim>1</dim>
					<dim>1</dim>
				</port>
			</input>
			<output>
				<port id="2" precision="FP32" names="939">
					<dim>1</dim>
					<dim>128</dim>
					<dim>16</dim>
					<dim>1</dim>
				</port>
			</output>
		</layer>
		<layer id="324" name="Constant_1633_compressed" type="Const" version="opset1">
			<data element_type="f16" shape="1" offset="132204" size="2" />
			<output>
				<port id="0" precision="FP16">
					<dim>1</dim>
				</port>
			</output>
		</layer>
		<layer id="325" name="Constant_1633" type="Convert" version="opset1">
			<data destination_type="f32" />
			<rt_info>
				<attribute name="decompression" version="0" />
			</rt_info>
			<input>
				<port id="0" precision="FP16">
					<dim>1</dim>
				</port>
			</input>
			<output>
				<port id="1" precision="FP32">
					<dim>1</dim>
				</port>
			</output>
		</layer>
		<layer id="326" name="LeakyRelu_474" type="PReLU" version="opset1">
			<input>
				<port id="0" precision="FP32">
					<dim>1</dim>
					<dim>128</dim>
					<dim>16</dim>
					<dim>1</dim>
				</port>
				<port id="1" precision="FP32">
					<dim>1</dim>
				</port>
			</input>
			<output>
				<port id="2" precision="FP32" names="940">
					<dim>1</dim>
					<dim>128</dim>
					<dim>16</dim>
					<dim>1</dim>
				</port>
			</output>
		</layer>
		<layer id="327" name="Concat_475" type="Concat" version="opset1">
			<data axis="3" />
			<input>
				<port id="0" precision="FP32">
					<dim>1</dim>
					<dim>128</dim>
					<dim>16</dim>
					<dim>16</dim>
				</port>
				<port id="1" precision="FP32">
					<dim>1</dim>
					<dim>128</dim>
					<dim>16</dim>
					<dim>1</dim>
				</port>
			</input>
			<output>
				<port id="2" precision="FP32" names="941">
					<dim>1</dim>
					<dim>128</dim>
					<dim>16</dim>
					<dim>17</dim>
				</port>
			</output>
		</layer>
		<layer id="328" name="blocks_down.3.bd.0.conv.weight_compressed" type="Const" version="opset1">
			<data element_type="f16" shape="64, 128, 3, 3" offset="455182" size="147456" />
			<output>
				<port id="0" precision="FP16">
					<dim>64</dim>
					<dim>128</dim>
					<dim>3</dim>
					<dim>3</dim>
				</port>
			</output>
		</layer>
		<layer id="329" name="blocks_down.3.bd.0.conv.weight" type="Convert" version="opset1">
			<data destination_type="f32" />
			<rt_info>
				<attribute name="decompression" version="0" />
			</rt_info>
			<input>
				<port id="0" precision="FP16">
					<dim>64</dim>
					<dim>128</dim>
					<dim>3</dim>
					<dim>3</dim>
				</port>
			</input>
			<output>
				<port id="1" precision="FP32" names="blocks_down.3.bd.0.conv.weight">
					<dim>64</dim>
					<dim>128</dim>
					<dim>3</dim>
					<dim>3</dim>
				</port>
			</output>
		</layer>
		<layer id="330" name="Conv_502/WithoutBiases" type="Convolution" version="opset1">
			<data strides="1, 1" dilations="1, 8" pads_begin="1, 0" pads_end="1, 0" auto_pad="explicit" />
			<input>
				<port id="0" precision="FP32">
					<dim>1</dim>
					<dim>128</dim>
					<dim>16</dim>
					<dim>17</dim>
				</port>
				<port id="1" precision="FP32">
					<dim>64</dim>
					<dim>128</dim>
					<dim>3</dim>
					<dim>3</dim>
				</port>
			</input>
			<output>
				<port id="2" precision="FP32">
					<dim>1</dim>
					<dim>64</dim>
					<dim>16</dim>
					<dim>1</dim>
				</port>
			</output>
		</layer>
		<layer id="331" name="Reshape_1706_compressed" type="Const" version="opset1">
			<data element_type="f16" shape="1, 64, 1, 1" offset="602638" size="128" />
			<output>
				<port id="0" precision="FP16">
					<dim>1</dim>
					<dim>64</dim>
					<dim>1</dim>
					<dim>1</dim>
				</port>
			</output>
		</layer>
		<layer id="332" name="Reshape_1706" type="Convert" version="opset1">
			<data destination_type="f32" />
			<rt_info>
				<attribute name="decompression" version="0" />
			</rt_info>
			<input>
				<port id="0" precision="FP16">
					<dim>1</dim>
					<dim>64</dim>
					<dim>1</dim>
					<dim>1</dim>
				</port>
			</input>
			<output>
				<port id="1" precision="FP32">
					<dim>1</dim>
					<dim>64</dim>
					<dim>1</dim>
					<dim>1</dim>
				</port>
			</output>
		</layer>
		<layer id="333" name="Conv_502" type="Add" version="opset1">
			<data auto_broadcast="numpy" />
			<input>
				<port id="0" precision="FP32">
					<dim>1</dim>
					<dim>64</dim>
					<dim>16</dim>
					<dim>1</dim>
				</port>
				<port id="1" precision="FP32">
					<dim>1</dim>
					<dim>64</dim>
					<dim>1</dim>
					<dim>1</dim>
				</port>
			</input>
			<output>
				<port id="2" precision="FP32" names="979">
					<dim>1</dim>
					<dim>64</dim>
					<dim>16</dim>
					<dim>1</dim>
				</port>
			</output>
		</layer>
		<layer id="334" name="Concat_503" type="Concat" version="opset1">
			<data axis="1" />
			<input>
				<port id="0" precision="FP32">
					<dim>1</dim>
					<dim>128</dim>
					<dim>16</dim>
					<dim>1</dim>
				</port>
				<port id="1" precision="FP32">
					<dim>1</dim>
					<dim>64</dim>
					<dim>16</dim>
					<dim>1</dim>
				</port>
			</input>
			<output>
				<port id="2" precision="FP32" names="980">
					<dim>1</dim>
					<dim>192</dim>
					<dim>16</dim>
					<dim>1</dim>
				</port>
			</output>
		</layer>
		<layer id="335" name="Constant_68162_compressed" type="Const" version="opset1">
			<data element_type="f16" shape="1, 192, 1, 1" offset="602766" size="384" />
			<output>
				<port id="0" precision="FP16">
					<dim>1</dim>
					<dim>192</dim>
					<dim>1</dim>
					<dim>1</dim>
				</port>
			</output>
		</layer>
		<layer id="336" name="Constant_68162" type="Convert" version="opset1">
			<data destination_type="f32" />
			<rt_info>
				<attribute name="decompression" version="0" />
			</rt_info>
			<input>
				<port id="0" precision="FP16">
					<dim>1</dim>
					<dim>192</dim>
					<dim>1</dim>
					<dim>1</dim>
				</port>
			</input>
			<output>
				<port id="1" precision="FP32">
					<dim>1</dim>
					<dim>192</dim>
					<dim>1</dim>
					<dim>1</dim>
				</port>
			</output>
		</layer>
		<layer id="337" name="Multiply_69657" type="Multiply" version="opset1">
			<data auto_broadcast="numpy" />
			<input>
				<port id="0" precision="FP32">
					<dim>1</dim>
					<dim>192</dim>
					<dim>16</dim>
					<dim>1</dim>
				</port>
				<port id="1" precision="FP32">
					<dim>1</dim>
					<dim>192</dim>
					<dim>1</dim>
					<dim>1</dim>
				</port>
			</input>
			<output>
				<port id="2" precision="FP32">
					<dim>1</dim>
					<dim>192</dim>
					<dim>16</dim>
					<dim>1</dim>
				</port>
			</output>
		</layer>
		<layer id="338" name="Constant_69662_compressed" type="Const" version="opset1">
			<data element_type="f16" shape="1, 192, 1, 1" offset="603150" size="384" />
			<output>
				<port id="0" precision="FP16">
					<dim>1</dim>
					<dim>192</dim>
					<dim>1</dim>
					<dim>1</dim>
				</port>
			</output>
		</layer>
		<layer id="339" name="Constant_69662" type="Convert" version="opset1">
			<data destination_type="f32" />
			<rt_info>
				<attribute name="decompression" version="0" />
			</rt_info>
			<input>
				<port id="0" precision="FP16">
					<dim>1</dim>
					<dim>192</dim>
					<dim>1</dim>
					<dim>1</dim>
				</port>
			</input>
			<output>
				<port id="1" precision="FP32">
					<dim>1</dim>
					<dim>192</dim>
					<dim>1</dim>
					<dim>1</dim>
				</port>
			</output>
		</layer>
		<layer id="340" name="BatchNormalization_504" type="Add" version="opset1">
			<data auto_broadcast="numpy" />
			<input>
				<port id="0" precision="FP32">
					<dim>1</dim>
					<dim>192</dim>
					<dim>16</dim>
					<dim>1</dim>
				</port>
				<port id="1" precision="FP32">
					<dim>1</dim>
					<dim>192</dim>
					<dim>1</dim>
					<dim>1</dim>
				</port>
			</input>
			<output>
				<port id="2" precision="FP32" names="981">
					<dim>1</dim>
					<dim>192</dim>
					<dim>16</dim>
					<dim>1</dim>
				</port>
			</output>
		</layer>
		<layer id="341" name="Constant_1712_compressed" type="Const" version="opset1">
			<data element_type="f16" shape="1" offset="132204" size="2" />
			<output>
				<port id="0" precision="FP16">
					<dim>1</dim>
				</port>
			</output>
		</layer>
		<layer id="342" name="Constant_1712" type="Convert" version="opset1">
			<data destination_type="f32" />
…
		<edge from-layer="907" from-port="2" to-layer="909" to-port="2" />
		<edge from-layer="908" from-port="0" to-layer="913" to-port="3" />
		<edge from-layer="908" from-port="0" to-layer="909" to-port="3" />
		<edge from-layer="909" from-port="4" to-layer="915" to-port="1" />
		<edge from-layer="910" from-port="0" to-layer="913" to-port="0" />
		<edge from-layer="911" from-port="0" to-layer="912" to-port="1" />
		<edge from-layer="912" from-port="2" to-layer="913" to-port="2" />
		<edge from-layer="913" from-port="4" to-layer="915" to-port="2" />
		<edge from-layer="914" from-port="0" to-layer="915" to-port="3" />
		<edge from-layer="915" from-port="4" to-layer="916" to-port="0" />
		<edge from-layer="917" from-port="0" to-layer="928" to-port="0" />
		<edge from-layer="918" from-port="0" to-layer="928" to-port="1" />
		<edge from-layer="918" from-port="0" to-layer="932" to-port="1" />
		<edge from-layer="919" from-port="1" to-layer="922" to-port="0" />
		<edge from-layer="920" from-port="0" to-layer="922" to-port="1" />
		<edge from-layer="921" from-port="0" to-layer="922" to-port="2" />
		<edge from-layer="922" from-port="3" to-layer="924" to-port="0" />
		<edge from-layer="923" from-port="0" to-layer="924" to-port="1" />
		<edge from-layer="924" from-port="2" to-layer="926" to-port="0" />
		<edge from-layer="925" from-port="0" to-layer="926" to-port="1" />
		<edge from-layer="926" from-port="2" to-layer="931" to-port="0" />
		<edge from-layer="926" from-port="2" to-layer="928" to-port="2" />
		<edge from-layer="927" from-port="0" to-layer="932" to-port="3" />
		<edge from-layer="927" from-port="0" to-layer="928" to-port="3" />
		<edge from-layer="928" from-port="4" to-layer="934" to-port="1" />
		<edge from-layer="929" from-port="0" to-layer="932" to-port="0" />
		<edge from-layer="930" from-port="0" to-layer="931" to-port="1" />
		<edge from-layer="931" from-port="2" to-layer="932" to-port="2" />
		<edge from-layer="932" from-port="4" to-layer="934" to-port="2" />
		<edge from-layer="933" from-port="0" to-layer="934" to-port="3" />
		<edge from-layer="934" from-port="4" to-layer="935" to-port="0" />
		<edge from-layer="936" from-port="0" to-layer="947" to-port="0" />
		<edge from-layer="937" from-port="0" to-layer="951" to-port="1" />
		<edge from-layer="937" from-port="0" to-layer="947" to-port="1" />
		<edge from-layer="938" from-port="1" to-layer="941" to-port="0" />
		<edge from-layer="939" from-port="0" to-layer="941" to-port="1" />
		<edge from-layer="940" from-port="0" to-layer="941" to-port="2" />
		<edge from-layer="941" from-port="3" to-layer="943" to-port="0" />
		<edge from-layer="942" from-port="0" to-layer="943" to-port="1" />
		<edge from-layer="943" from-port="2" to-layer="945" to-port="0" />
		<edge from-layer="944" from-port="0" to-layer="945" to-port="1" />
		<edge from-layer="945" from-port="2" to-layer="950" to-port="0" />
		<edge from-layer="945" from-port="2" to-layer="947" to-port="2" />
		<edge from-layer="946" from-port="0" to-layer="951" to-port="3" />
		<edge from-layer="946" from-port="0" to-layer="947" to-port="3" />
		<edge from-layer="947" from-port="4" to-layer="953" to-port="1" />
		<edge from-layer="948" from-port="0" to-layer="951" to-port="0" />
		<edge from-layer="949" from-port="0" to-layer="950" to-port="1" />
		<edge from-layer="950" from-port="2" to-layer="951" to-port="2" />
		<edge from-layer="951" from-port="4" to-layer="953" to-port="2" />
		<edge from-layer="952" from-port="0" to-layer="953" to-port="3" />
		<edge from-layer="953" from-port="4" to-layer="954" to-port="0" />
		<edge from-layer="955" from-port="0" to-layer="966" to-port="0" />
		<edge from-layer="956" from-port="0" to-layer="970" to-port="1" />
		<edge from-layer="956" from-port="0" to-layer="966" to-port="1" />
		<edge from-layer="957" from-port="1" to-layer="960" to-port="0" />
		<edge from-layer="958" from-port="0" to-layer="960" to-port="1" />
		<edge from-layer="959" from-port="0" to-layer="960" to-port="2" />
		<edge from-layer="960" from-port="3" to-layer="962" to-port="0" />
		<edge from-layer="961" from-port="0" to-layer="962" to-port="1" />
		<edge from-layer="962" from-port="2" to-layer="964" to-port="0" />
		<edge from-layer="963" from-port="0" to-layer="964" to-port="1" />
		<edge from-layer="964" from-port="2" to-layer="966" to-port="2" />
		<edge from-layer="964" from-port="2" to-layer="969" to-port="0" />
		<edge from-layer="965" from-port="0" to-layer="966" to-port="3" />
		<edge from-layer="965" from-port="0" to-layer="970" to-port="3" />
		<edge from-layer="966" from-port="4" to-layer="972" to-port="1" />
		<edge from-layer="967" from-port="0" to-layer="970" to-port="0" />
		<edge from-layer="968" from-port="0" to-layer="969" to-port="1" />
		<edge from-layer="969" from-port="2" to-layer="970" to-port="2" />
		<edge from-layer="970" from-port="4" to-layer="972" to-port="2" />
		<edge from-layer="971" from-port="0" to-layer="972" to-port="3" />
		<edge from-layer="972" from-port="4" to-layer="973" to-port="0" />
		<edge from-layer="974" from-port="0" to-layer="985" to-port="0" />
		<edge from-layer="975" from-port="0" to-layer="985" to-port="1" />
		<edge from-layer="975" from-port="0" to-layer="989" to-port="1" />
		<edge from-layer="976" from-port="1" to-layer="979" to-port="0" />
		<edge from-layer="977" from-port="0" to-layer="979" to-port="1" />
		<edge from-layer="978" from-port="0" to-layer="979" to-port="2" />
		<edge from-layer="979" from-port="3" to-layer="981" to-port="0" />
		<edge from-layer="980" from-port="0" to-layer="981" to-port="1" />
		<edge from-layer="981" from-port="2" to-layer="983" to-port="0" />
		<edge from-layer="982" from-port="0" to-layer="983" to-port="1" />
		<edge from-layer="983" from-port="2" to-layer="988" to-port="0" />
		<edge from-layer="983" from-port="2" to-layer="985" to-port="2" />
		<edge from-layer="984" from-port="0" to-layer="989" to-port="3" />
		<edge from-layer="984" from-port="0" to-layer="985" to-port="3" />
		<edge from-layer="985" from-port="4" to-layer="991" to-port="1" />
		<edge from-layer="986" from-port="0" to-layer="989" to-port="0" />
		<edge from-layer="987" from-port="0" to-layer="988" to-port="1" />
		<edge from-layer="988" from-port="2" to-layer="989" to-port="2" />
		<edge from-layer="989" from-port="4" to-layer="991" to-port="2" />
		<edge from-layer="990" from-port="0" to-layer="991" to-port="3" />
		<edge from-layer="991" from-port="4" to-layer="992" to-port="0" />
		<edge from-layer="993" from-port="0" to-layer="1004" to-port="0" />
		<edge from-layer="994" from-port="0" to-layer="1008" to-port="1" />
		<edge from-layer="994" from-port="0" to-layer="1004" to-port="1" />
		<edge from-layer="995" from-port="1" to-layer="998" to-port="0" />
		<edge from-layer="996" from-port="0" to-layer="998" to-port="1" />
		<edge from-layer="997" from-port="0" to-layer="998" to-port="2" />
		<edge from-layer="998" from-port="3" to-layer="1000" to-port="0" />
		<edge from-layer="999" from-port="0" to-layer="1000" to-port="1" />
		<edge from-layer="1000" from-port="2" to-layer="1002" to-port="0" />
		<edge from-layer="1001" from-port="0" to-layer="1002" to-port="1" />
		<edge from-layer="1002" from-port="2" to-layer="1004" to-port="2" />
		<edge from-layer="1002" from-port="2" to-layer="1007" to-port="0" />
		<edge from-layer="1003" from-port="0" to-layer="1004" to-port="3" />
		<edge from-layer="1003" from-port="0" to-layer="1008" to-port="3" />
		<edge from-layer="1004" from-port="4" to-layer="1010" to-port="1" />
		<edge from-layer="1005" from-port="0" to-layer="1008" to-port="0" />
		<edge from-layer="1006" from-port="0" to-layer="1007" to-port="1" />
		<edge from-layer="1007" from-port="2" to-layer="1008" to-port="2" />
		<edge from-layer="1008" from-port="4" to-layer="1010" to-port="2" />
		<edge from-layer="1009" from-port="0" to-layer="1010" to-port="3" />
		<edge from-layer="1010" from-port="4" to-layer="1011" to-port="0" />
		<edge from-layer="1012" from-port="0" to-layer="1023" to-port="0" />
		<edge from-layer="1013" from-port="0" to-layer="1023" to-port="1" />
		<edge from-layer="1013" from-port="0" to-layer="1027" to-port="1" />
		<edge from-layer="1014" from-port="1" to-layer="1017" to-port="0" />
		<edge from-layer="1015" from-port="0" to-layer="1017" to-port="1" />
		<edge from-layer="1016" from-port="0" to-layer="1017" to-port="2" />
		<edge from-layer="1017" from-port="3" to-layer="1019" to-port="0" />
		<edge from-layer="1018" from-port="0" to-layer="1019" to-port="1" />
		<edge from-layer="1019" from-port="2" to-layer="1021" to-port="0" />
		<edge from-layer="1020" from-port="0" to-layer="1021" to-port="1" />
		<edge from-layer="1021" from-port="2" to-layer="1023" to-port="2" />
		<edge from-layer="1021" from-port="2" to-layer="1026" to-port="0" />
		<edge from-layer="1022" from-port="0" to-layer="1023" to-port="3" />
		<edge from-layer="1022" from-port="0" to-layer="1027" to-port="3" />
		<edge from-layer="1023" from-port="4" to-layer="1029" to-port="1" />
		<edge from-layer="1024" from-port="0" to-layer="1027" to-port="0" />
		<edge from-layer="1025" from-port="0" to-layer="1026" to-port="1" />
		<edge from-layer="1026" from-port="2" to-layer="1027" to-port="2" />
		<edge from-layer="1027" from-port="4" to-layer="1029" to-port="2" />
		<edge from-layer="1028" from-port="0" to-layer="1029" to-port="3" />
		<edge from-layer="1029" from-port="4" to-layer="1030" to-port="0" />
		<edge from-layer="1031" from-port="0" to-layer="1042" to-port="0" />
		<edge from-layer="1032" from-port="0" to-layer="1046" to-port="1" />
		<edge from-layer="1032" from-port="0" to-layer="1042" to-port="1" />
		<edge from-layer="1033" from-port="1" to-layer="1036" to-port="0" />
		<edge from-layer="1034" from-port="0" to-layer="1036" to-port="1" />
		<edge from-layer="1035" from-port="0" to-layer="1036" to-port="2" />
		<edge from-layer="1036" from-port="3" to-layer="1038" to-port="0" />
		<edge from-layer="1037" from-port="0" to-layer="1038" to-port="1" />
		<edge from-layer="1038" from-port="2" to-layer="1040" to-port="0" />
		<edge from-layer="1039" from-port="0" to-layer="1040" to-port="1" />
		<edge from-layer="1040" from-port="2" to-layer="1042" to-port="2" />
		<edge from-layer="1040" from-port="2" to-layer="1045" to-port="0" />
		<edge from-layer="1041" from-port="0" to-layer="1042" to-port="3" />
		<edge from-layer="1041" from-port="0" to-layer="1046" to-port="3" />
		<edge from-layer="1042" from-port="4" to-layer="1048" to-port="1" />
		<edge from-layer="1043" from-port="0" to-layer="1046" to-port="0" />
		<edge from-layer="1044" from-port="0" to-layer="1045" to-port="1" />
		<edge from-layer="1045" from-port="2" to-layer="1046" to-port="2" />
		<edge from-layer="1046" from-port="4" to-layer="1048" to-port="2" />
		<edge from-layer="1047" from-port="0" to-layer="1048" to-port="3" />
		<edge from-layer="1048" from-port="4" to-layer="1049" to-port="0" />
		<edge from-layer="1050" from-port="0" to-layer="1061" to-port="0" />
		<edge from-layer="1051" from-port="0" to-layer="1065" to-port="1" />
		<edge from-layer="1051" from-port="0" to-layer="1061" to-port="1" />
		<edge from-layer="1052" from-port="1" to-layer="1055" to-port="0" />
		<edge from-layer="1053" from-port="0" to-layer="1055" to-port="1" />
		<edge from-layer="1054" from-port="0" to-layer="1055" to-port="2" />
		<edge from-layer="1055" from-port="3" to-layer="1057" to-port="0" />
		<edge from-layer="1056" from-port="0" to-layer="1057" to-port="1" />
		<edge from-layer="1057" from-port="2" to-layer="1059" to-port="0" />
		<edge from-layer="1058" from-port="0" to-layer="1059" to-port="1" />
		<edge from-layer="1059" from-port="2" to-layer="1064" to-port="0" />
		<edge from-layer="1059" from-port="2" to-layer="1061" to-port="2" />
		<edge from-layer="1060" from-port="0" to-layer="1061" to-port="3" />
		<edge from-layer="1060" from-port="0" to-layer="1065" to-port="3" />
		<edge from-layer="1061" from-port="4" to-layer="1067" to-port="1" />
		<edge from-layer="1062" from-port="0" to-layer="1065" to-port="0" />
		<edge from-layer="1063" from-port="0" to-layer="1064" to-port="1" />
		<edge from-layer="1064" from-port="2" to-layer="1065" to-port="2" />
		<edge from-layer="1065" from-port="4" to-layer="1067" to-port="2" />
		<edge from-layer="1066" from-port="0" to-layer="1067" to-port="3" />
		<edge from-layer="1067" from-port="4" to-layer="1068" to-port="0" />
		<edge from-layer="1069" from-port="0" to-layer="1080" to-port="0" />
		<edge from-layer="1070" from-port="0" to-layer="1084" to-port="1" />
		<edge from-layer="1070" from-port="0" to-layer="1080" to-port="1" />
		<edge from-layer="1071" from-port="1" to-layer="1074" to-port="0" />
		<edge from-layer="1072" from-port="0" to-layer="1074" to-port="1" />
		<edge from-layer="1073" from-port="0" to-layer="1074" to-port="2" />
		<edge from-layer="1074" from-port="3" to-layer="1076" to-port="0" />
		<edge from-layer="1075" from-port="0" to-layer="1076" to-port="1" />
		<edge from-layer="1076" from-port="2" to-layer="1078" to-port="0" />
		<edge from-layer="1077" from-port="0" to-layer="1078" to-port="1" />
		<edge from-layer="1078" from-port="2" to-layer="1080" to-port="2" />
		<edge from-layer="1078" from-port="2" to-layer="1083" to-port="0" />
		<edge from-layer="1079" from-port="0" to-layer="1080" to-port="3" />
		<edge from-layer="1079" from-port="0" to-layer="1084" to-port="3" />
		<edge from-layer="1080" from-port="4" to-layer="1086" to-port="1" />
		<edge from-layer="1081" from-port="0" to-layer="1084" to-port="0" />
		<edge from-layer="1082" from-port="0" to-layer="1083" to-port="1" />
		<edge from-layer="1083" from-port="2" to-layer="1084" to-port="2" />
		<edge from-layer="1084" from-port="4" to-layer="1086" to-port="2" />
		<edge from-layer="1085" from-port="0" to-layer="1086" to-port="3" />
		<edge from-layer="1086" from-port="4" to-layer="1087" to-port="0" />
		<edge from-layer="1088" from-port="0" to-layer="1099" to-port="0" />
		<edge from-layer="1089" from-port="0" to-layer="1099" to-port="1" />
		<edge from-layer="1089" from-port="0" to-layer="1103" to-port="1" />
		<edge from-layer="1090" from-port="1" to-layer="1093" to-port="0" />
		<edge from-layer="1091" from-port="0" to-layer="1093" to-port="1" />
		<edge from-layer="1092" from-port="0" to-layer="1093" to-port="2" />
		<edge from-layer="1093" from-port="3" to-layer="1095" to-port="0" />
		<edge from-layer="1094" from-port="0" to-layer="1095" to-port="1" />
		<edge from-layer="1095" from-port="2" to-layer="1097" to-port="0" />
		<edge from-layer="1096" from-port="0" to-layer="1097" to-port="1" />
		<edge from-layer="1097" from-port="2" to-layer="1102" to-port="0" />
		<edge from-layer="1097" from-port="2" to-layer="1099" to-port="2" />
		<edge from-layer="1098" from-port="0" to-layer="1103" to-port="3" />
		<edge from-layer="1098" from-port="0" to-layer="1099" to-port="3" />
		<edge from-layer="1099" from-port="4" to-layer="1105" to-port="1" />
		<edge from-layer="1100" from-port="0" to-layer="1103" to-port="0" />
		<edge from-layer="1101" from-port="0" to-layer="1102" to-port="1" />
		<edge from-layer="1102" from-port="2" to-layer="1103" to-port="2" />
		<edge from-layer="1103" from-port="4" to-layer="1105" to-port="2" />
		<edge from-layer="1104" from-port="0" to-layer="1105" to-port="3" />
		<edge from-layer="1105" from-port="4" to-layer="1106" to-port="0" />
		<edge from-layer="1107" from-port="0" to-layer="1118" to-port="0" />
		<edge from-layer="1108" from-port="0" to-layer="1118" to-port="1" />
		<edge from-layer="1108" from-port="0" to-layer="1122" to-port="1" />
		<edge from-layer="1109" from-port="1" to-layer="1112" to-port="0" />
		<edge from-layer="1110" from-port="0" to-layer="1112" to-port="1" />
		<edge from-layer="1111" from-port="0" to-layer="1112" to-port="2" />
		<edge from-layer="1112" from-port="3" to-layer="1114" to-port="0" />
		<edge from-layer="1113" from-port="0" to-layer="1114" to-port="1" />
		<edge from-layer="1114" from-port="2" to-layer="1116" to-port="0" />
		<edge from-layer="1115" from-port="0" to-layer="1116" to-port="1" />
		<edge from-layer="1116" from-port="2" to-layer="1121" to-port="0" />
		<edge from-layer="1116" from-port="2" to-layer="1118" to-port="2" />
		<edge from-layer="1117" from-port="0" to-layer="1122" to-port="3" />
		<edge from-layer="1117" from-port="0" to-layer="1118" to-port="3" />
		<edge from-layer="1118" from-port="4" to-layer="1124" to-port="1" />
		<edge from-layer="1119" from-port="0" to-layer="1122" to-port="0" />
		<edge from-layer="1120" from-port="0" to-layer="1121" to-port="1" />
		<edge from-layer="1121" from-port="2" to-layer="1122" to-port="2" />
		<edge from-layer="1122" from-port="4" to-layer="1124" to-port="2" />
		<edge from-layer="1123" from-port="0" to-layer="1124" to-port="3" />
		<edge from-layer="1124" from-port="4" to-layer="1125" to-port="0" />
		<edge from-layer="1126" from-port="0" to-layer="1137" to-port="0" />
		<edge from-layer="1127" from-port="0" to-layer="1137" to-port="1" />
		<edge from-layer="1127" from-port="0" to-layer="1141" to-port="1" />
		<edge from-layer="1128" from-port="1" to-layer="1131" to-port="0" />
		<edge from-layer="1129" from-port="0" to-layer="1131" to-port="1" />
		<edge from-layer="1130" from-port="0" to-layer="1131" to-port="2" />
		<edge from-layer="1131" from-port="3" to-layer="1133" to-port="0" />
		<edge from-layer="1132" from-port="0" to-layer="1133" to-port="1" />
		<edge from-layer="1133" from-port="2" to-layer="1135" to-port="0" />
		<edge from-layer="1134" from-port="0" to-layer="1135" to-port="1" />
		<edge from-layer="1135" from-port="2" to-layer="1140" to-port="0" />
		<edge from-layer="1135" from-port="2" to-layer="1137" to-port="2" />
		<edge from-layer="1136" from-port="0" to-layer="1137" to-port="3" />
		<edge from-layer="1136" from-port="0" to-layer="1141" to-port="3" />
		<edge from-layer="1137" from-port="4" to-layer="1143" to-port="1" />
		<edge from-layer="1138" from-port="0" to-layer="1141" to-port="0" />
		<edge from-layer="1139" from-port="0" to-layer="1140" to-port="1" />
		<edge from-layer="1140" from-port="2" to-layer="1141" to-port="2" />
		<edge from-layer="1141" from-port="4" to-layer="1143" to-port="2" />
		<edge from-layer="1142" from-port="0" to-layer="1143" to-port="3" />
		<edge from-layer="1143" from-port="4" to-layer="1144" to-port="0" />
		<edge from-layer="1145" from-port="0" to-layer="1156" to-port="0" />
		<edge from-layer="1146" from-port="0" to-layer="1160" to-port="1" />
		<edge from-layer="1146" from-port="0" to-layer="1156" to-port="1" />
		<edge from-layer="1147" from-port="1" to-layer="1150" to-port="0" />
		<edge from-layer="1148" from-port="0" to-layer="1150" to-port="1" />
		<edge from-layer="1149" from-port="0" to-layer="1150" to-port="2" />
		<edge from-layer="1150" from-port="3" to-layer="1152" to-port="0" />
		<edge from-layer="1151" from-port="0" to-layer="1152" to-port="1" />
		<edge from-layer="1152" from-port="2" to-layer="1154" to-port="0" />
		<edge from-layer="1153" from-port="0" to-layer="1154" to-port="1" />
		<edge from-layer="1154" from-port="2" to-layer="1159" to-port="0" />
		<edge from-layer="1154" from-port="2" to-layer="1156" to-port="2" />
		<edge from-layer="1155" from-port="0" to-layer="1156" to-port="3" />
		<edge from-layer="1155" from-port="0" to-layer="1160" to-port="3" />
		<edge from-layer="1156" from-port="4" to-layer="1162" to-port="1" />
		<edge from-layer="1157" from-port="0" to-layer="1160" to-port="0" />
		<edge from-layer="1158" from-port="0" to-layer="1159" to-port="1" />
		<edge from-layer="1159" from-port="2" to-layer="1160" to-port="2" />
		<edge from-layer="1160" from-port="4" to-layer="1162" to-port="2" />
		<edge from-layer="1161" from-port="0" to-layer="1162" to-port="3" />
		<edge from-layer="1162" from-port="4" to-layer="1163" to-port="0" />
		<edge from-layer="1164" from-port="0" to-layer="1175" to-port="0" />
		<edge from-layer="1165" from-port="0" to-layer="1175" to-port="1" />
		<edge from-layer="1165" from-port="0" to-layer="1179" to-port="1" />
		<edge from-layer="1166" from-port="1" to-layer="1169" to-port="0" />
		<edge from-layer="1167" from-port="0" to-layer="1169" to-port="1" />
		<edge from-layer="1168" from-port="0" to-layer="1169" to-port="2" />
		<edge from-layer="1169" from-port="3" to-layer="1171" to-port="0" />
		<edge from-layer="1170" from-port="0" to-layer="1171" to-port="1" />
		<edge from-layer="1171" from-port="2" to-layer="1173" to-port="0" />
		<edge from-layer="1172" from-port="0" to-layer="1173" to-port="1" />
		<edge from-layer="1173" from-port="2" to-layer="1178" to-port="0" />
		<edge from-layer="1173" from-port="2" to-layer="1175" to-port="2" />
		<edge from-layer="1174" from-port="0" to-layer="1175" to-port="3" />
		<edge from-layer="1174" from-port="0" to-layer="1179" to-port="3" />
		<edge from-layer="1175" from-port="4" to-layer="1181" to-port="1" />
		<edge from-layer="1176" from-port="0" to-layer="1179" to-port="0" />
		<edge from-layer="1177" from-port="0" to-layer="1178" to-port="1" />
		<edge from-layer="1178" from-port="2" to-layer="1179" to-port="2" />
		<edge from-layer="1179" from-port="4" to-layer="1181" to-port="2" />
		<edge from-layer="1180" from-port="0" to-layer="1181" to-port="3" />
		<edge from-layer="1181" from-port="4" to-layer="1182" to-port="0" />
		<edge from-layer="1183" from-port="0" to-layer="1194" to-port="0" />
		<edge from-layer="1184" from-port="0" to-layer="1194" to-port="1" />
		<edge from-layer="1184" from-port="0" to-layer="1198" to-port="1" />
		<edge from-layer="1185" from-port="1" to-layer="1188" to-port="0" />
		<edge from-layer="1186" from-port="0" to-layer="1188" to-port="1" />
		<edge from-layer="1187" from-port="0" to-layer="1188" to-port="2" />
		<edge from-layer="1188" from-port="3" to-layer="1190" to-port="0" />
		<edge from-layer="1189" from-port="0" to-layer="1190" to-port="1" />
		<edge from-layer="1190" from-port="2" to-layer="1192" to-port="0" />
		<edge from-layer="1191" from-port="0" to-layer="1192" to-port="1" />
		<edge from-layer="1192" from-port="2" to-layer="1197" to-port="0" />
		<edge from-layer="1192" from-port="2" to-layer="1194" to-port="2" />
		<edge from-layer="1193" from-port="0" to-layer="1194" to-port="3" />
		<edge from-layer="1193" from-port="0" to-layer="1198" to-port="3" />
		<edge from-layer="1194" from-port="4" to-layer="1200" to-port="1" />
		<edge from-layer="1195" from-port="0" to-layer="1198" to-port="0" />
		<edge from-layer="1196" from-port="0" to-layer="1197" to-port="1" />
		<edge from-layer="1197" from-port="2" to-layer="1198" to-port="2" />
		<edge from-layer="1198" from-port="4" to-layer="1200" to-port="2" />
		<edge from-layer="1199" from-port="0" to-layer="1200" to-port="3" />
		<edge from-layer="1200" from-port="4" to-layer="1201" to-port="0" />
		<edge from-layer="1202" from-port="0" to-layer="1213" to-port="0" />
		<edge from-layer="1203" from-port="0" to-layer="1213" to-port="1" />
		<edge from-layer="1203" from-port="0" to-layer="1217" to-port="1" />
		<edge from-layer="1204" from-port="1" to-layer="1207" to-port="0" />
		<edge from-layer="1205" from-port="0" to-layer="1207" to-port="1" />
		<edge from-layer="1206" from-port="0" to-layer="1207" to-port="2" />
		<edge from-layer="1207" from-port="3" to-layer="1209" to-port="0" />
		<edge from-layer="1208" from-port="0" to-layer="1209" to-port="1" />
		<edge from-layer="1209" from-port="2" to-layer="1211" to-port="0" />
		<edge from-layer="1210" from-port="0" to-layer="1211" to-port="1" />
		<edge from-layer="1211" from-port="2" to-layer="1213" to-port="2" />
		<edge from-layer="1211" from-port="2" to-layer="1216" to-port="0" />
		<edge from-layer="1212" from-port="0" to-layer="1217" to-port="3" />
		<edge from-layer="1212" from-port="0" to-layer="1213" to-port="3" />
		<edge from-layer="1213" from-port="4" to-layer="1219" to-port="1" />
		<edge from-layer="1214" from-port="0" to-layer="1217" to-port="0" />
		<edge from-layer="1215" from-port="0" to-layer="1216" to-port="1" />
		<edge from-layer="1216" from-port="2" to-layer="1217" to-port="2" />
		<edge from-layer="1217" from-port="4" to-layer="1219" to-port="2" />
		<edge from-layer="1218" from-port="0" to-layer="1219" to-port="3" />
		<edge from-layer="1219" from-port="4" to-layer="1220" to-port="0" />
		<edge from-layer="1221" from-port="0" to-layer="1232" to-port="0" />
		<edge from-layer="1222" from-port="0" to-layer="1232" to-port="1" />
		<edge from-layer="1222" from-port="0" to-layer="1236" to-port="1" />
		<edge from-layer="1223" from-port="1" to-layer="1226" to-port="0" />
		<edge from-layer="1224" from-port="0" to-layer="1226" to-port="1" />
		<edge from-layer="1225" from-port="0" to-layer="1226" to-port="2" />
		<edge from-layer="1226" from-port="3" to-layer="1228" to-port="0" />
		<edge from-layer="1227" from-port="0" to-layer="1228" to-port="1" />
		<edge from-layer="1228" from-port="2" to-layer="1230" to-port="0" />
		<edge from-layer="1229" from-port="0" to-layer="1230" to-port="1" />
		<edge from-layer="1230" from-port="2" to-layer="1232" to-port="2" />
		<edge from-layer="1230" from-port="2" to-layer="1235" to-port="0" />
		<edge from-layer="1231" from-port="0" to-layer="1232" to-port="3" />
		<edge from-layer="1231" from-port="0" to-layer="1236" to-port="3" />
		<edge from-layer="1232" from-port="4" to-layer="1238" to-port="1" />
		<edge from-layer="1233" from-port="0" to-layer="1236" to-port="0" />
		<edge from-layer="1234" from-port="0" to-layer="1235" to-port="1" />
		<edge from-layer="1235" from-port="2" to-layer="1236" to-port="2" />
		<edge from-layer="1236" from-port="4" to-layer="1238" to-port="2" />
		<edge from-layer="1237" from-port="0" to-layer="1238" to-port="3" />
		<edge from-layer="1238" from-port="4" to-layer="1239" to-port="0" />
		<edge from-layer="1240" from-port="0" to-layer="1251" to-port="0" />
		<edge from-layer="1241" from-port="0" to-layer="1255" to-port="1" />
		<edge from-layer="1241" from-port="0" to-layer="1251" to-port="1" />
		<edge from-layer="1242" from-port="1" to-layer="1245" to-port="0" />
		<edge from-layer="1243" from-port="0" to-layer="1245" to-port="1" />
		<edge from-layer="1244" from-port="0" to-layer="1245" to-port="2" />
		<edge from-layer="1245" from-port="3" to-layer="1247" to-port="0" />
		<edge from-layer="1246" from-port="0" to-layer="1247" to-port="1" />
		<edge from-layer="1247" from-port="2" to-layer="1249" to-port="0" />
		<edge from-layer="1248" from-port="0" to-layer="1249" to-port="1" />
		<edge from-layer="1249" from-port="2" to-layer="1251" to-port="2" />
		<edge from-layer="1249" from-port="2" to-layer="1254" to-port="0" />
		<edge from-layer="1250" from-port="0" to-layer="1255" to-port="3" />
		<edge from-layer="1250" from-port="0" to-layer="1251" to-port="3" />
		<edge from-layer="1251" from-port="4" to-layer="1257" to-port="1" />
		<edge from-layer="1252" from-port="0" to-layer="1255" to-port="0" />
		<edge from-layer="1253" from-port="0" to-layer="1254" to-port="1" />
		<edge from-layer="1254" from-port="2" to-layer="1255" to-port="2" />
		<edge from-layer="1255" from-port="4" to-layer="1257" to-port="2" />
		<edge from-layer="1256" from-port="0" to-layer="1257" to-port="3" />
		<edge from-layer="1257" from-port="4" to-layer="1258" to-port="0" />
		<edge from-layer="1259" from-port="0" to-layer="1270" to-port="0" />
		<edge from-layer="1260" from-port="0" to-layer="1274" to-port="1" />
		<edge from-layer="1260" from-port="0" to-layer="1270" to-port="1" />
		<edge from-layer="1261" from-port="1" to-layer="1264" to-port="0" />
		<edge from-layer="1262" from-port="0" to-layer="1264" to-port="1" />
		<edge from-layer="1263" from-port="0" to-layer="1264" to-port="2" />
		<edge from-layer="1264" from-port="3" to-layer="1266" to-port="0" />
		<edge from-layer="1265" from-port="0" to-layer="1266" to-port="1" />
		<edge from-layer="1266" from-port="2" to-layer="1268" to-port="0" />
		<edge from-layer="1267" from-port="0" to-layer="1268" to-port="1" />
		<edge from-layer="1268" from-port="2" to-layer="1273" to-port="0" />
		<edge from-layer="1268" from-port="2" to-layer="1270" to-port="2" />
		<edge from-layer="1269" from-port="0" to-layer="1274" to-port="3" />
		<edge from-layer="1269" from-port="0" to-layer="1270" to-port="3" />
		<edge from-layer="1270" from-port="4" to-layer="1276" to-port="1" />
		<edge from-layer="1271" from-port="0" to-layer="1274" to-port="0" />
		<edge from-layer="1272" from-port="0" to-layer="1273" to-port="1" />
		<edge from-layer="1273" from-port="2" to-layer="1274" to-port="2" />
		<edge from-layer="1274" from-port="4" to-layer="1276" to-port="2" />
		<edge from-layer="1275" from-port="0" to-layer="1276" to-port="3" />
		<edge from-layer="1276" from-port="4" to-layer="1277" to-port="0" />
		<edge from-layer="1278" from-port="0" to-layer="1289" to-port="0" />
		<edge from-layer="1279" from-port="0" to-layer="1289" to-port="1" />
		<edge from-layer="1279" from-port="0" to-layer="1293" to-port="1" />
		<edge from-layer="1280" from-port="1" to-layer="1283" to-port="0" />
		<edge from-layer="1281" from-port="0" to-layer="1283" to-port="1" />
		<edge from-layer="1282" from-port="0" to-layer="1283" to-port="2" />
		<edge from-layer="1283" from-port="3" to-layer="1285" to-port="0" />
		<edge from-layer="1284" from-port="0" to-layer="1285" to-port="1" />
		<edge from-layer="1285" from-port="2" to-layer="1287" to-port="0" />
		<edge from-layer="1286" from-port="0" to-layer="1287" to-port="1" />
		<edge from-layer="1287" from-port="2" to-layer="1289" to-port="2" />
		<edge from-layer="1287" from-port="2" to-layer="1292" to-port="0" />
		<edge from-layer="1288" from-port="0" to-layer="1289" to-port="3" />
		<edge from-layer="1288" from-port="0" to-layer="1293" to-port="3" />
		<edge from-layer="1289" from-port="4" to-layer="1295" to-port="1" />
		<edge from-layer="1290" from-port="0" to-layer="1293" to-port="0" />
		<edge from-layer="1291" from-port="0" to-layer="1292" to-port="1" />
		<edge from-layer="1292" from-port="2" to-layer="1293" to-port="2" />
		<edge from-layer="1293" from-port="4" to-layer="1295" to-port="2" />
		<edge from-layer="1294" from-port="0" to-layer="1295" to-port="3" />
		<edge from-layer="1295" from-port="4" to-layer="1296" to-port="0" />
		<edge from-layer="1297" from-port="0" to-layer="1308" to-port="0" />
		<edge from-layer="1298" from-port="0" to-layer="1312" to-port="1" />
		<edge from-layer="1298" from-port="0" to-layer="1308" to-port="1" />
		<edge from-layer="1299" from-port="1" to-layer="1302" to-port="0" />
		<edge from-layer="1300" from-port="0" to-layer="1302" to-port="1" />
		<edge from-layer="1301" from-port="0" to-layer="1302" to-port="2" />
		<edge from-layer="1302" from-port="3" to-layer="1304" to-port="0" />
		<edge from-layer="1303" from-port="0" to-layer="1304" to-port="1" />
		<edge from-layer="1304" from-port="2" to-layer="1306" to-port="0" />
		<edge from-layer="1305" from-port="0" to-layer="1306" to-port="1" />
		<edge from-layer="1306" from-port="2" to-layer="1311" to-port="0" />
		<edge from-layer="1306" from-port="2" to-layer="1308" to-port="2" />
		<edge from-layer="1307" from-port="0" to-layer="1312" to-port="3" />
		<edge from-layer="1307" from-port="0" to-layer="1308" to-port="3" />
		<edge from-layer="1308" from-port="4" to-layer="1314" to-port="1" />
		<edge from-layer="1309" from-port="0" to-layer="1312" to-port="0" />
		<edge from-layer="1310" from-port="0" to-layer="1311" to-port="1" />
		<edge from-layer="1311" from-port="2" to-layer="1312" to-port="2" />
		<edge from-layer="1312" from-port="4" to-layer="1314" to-port="2" />
		<edge from-layer="1313" from-port="0" to-layer="1314" to-port="3" />
		<edge from-layer="1314" from-port="4" to-layer="1315" to-port="0" />
		<edge from-layer="1316" from-port="0" to-layer="1327" to-port="0" />
		<edge from-layer="1317" from-port="0" to-layer="1331" to-port="1" />
		<edge from-layer="1317" from-port="0" to-layer="1327" to-port="1" />
		<edge from-layer="1318" from-port="1" to-layer="1321" to-port="0" />
		<edge from-layer="1319" from-port="0" to-layer="1321" to-port="1" />
		<edge from-layer="1320" from-port="0" to-layer="1321" to-port="2" />
		<edge from-layer="1321" from-port="3" to-layer="1323" to-port="0" />
		<edge from-layer="1322" from-port="0" to-layer="1323" to-port="1" />
		<edge from-layer="1323" from-port="2" to-layer="1325" to-port="0" />
		<edge from-layer="1324" from-port="0" to-layer="1325" to-port="1" />
		<edge from-layer="1325" from-port="2" to-layer="1330" to-port="0" />
		<edge from-layer="1325" from-port="2" to-layer="1327" to-port="2" />
		<edge from-layer="1326" from-port="0" to-layer="1331" to-port="3" />
		<edge from-layer="1326" from-port="0" to-layer="1327" to-port="3" />
		<edge from-layer="1327" from-port="4" to-layer="1333" to-port="1" />
		<edge from-layer="1328" from-port="0" to-layer="1331" to-port="0" />
		<edge from-layer="1329" from-port="0" to-layer="1330" to-port="1" />
		<edge from-layer="1330" from-port="2" to-layer="1331" to-port="2" />
		<edge from-layer="1331" from-port="4" to-layer="1333" to-port="2" />
		<edge from-layer="1332" from-port="0" to-layer="1333" to-port="3" />
		<edge from-layer="1333" from-port="4" to-layer="1334" to-port="0" />
		<edge from-layer="1335" from-port="0" to-layer="1346" to-port="0" />
		<edge from-layer="1336" from-port="0" to-layer="1350" to-port="1" />
		<edge from-layer="1336" from-port="0" to-layer="1346" to-port="1" />
		<edge from-layer="1337" from-port="1" to-layer="1340" to-port="0" />
		<edge from-layer="1338" from-port="0" to-layer="1340" to-port="1" />
		<edge from-layer="1339" from-port="0" to-layer="1340" to-port="2" />
		<edge from-layer="1340" from-port="3" to-layer="1342" to-port="0" />
		<edge from-layer="1341" from-port="0" to-layer="1342" to-port="1" />
		<edge from-layer="1342" from-port="2" to-layer="1344" to-port="0" />
		<edge from-layer="1343" from-port="0" to-layer="1344" to-port="1" />
		<edge from-layer="1344" from-port="2" to-layer="1346" to-port="2" />
		<edge from-layer="1344" from-port="2" to-layer="1349" to-port="0" />
		<edge from-layer="1345" from-port="0" to-layer="1346" to-port="3" />
		<edge from-layer="1345" from-port="0" to-layer="1350" to-port="3" />
		<edge from-layer="1346" from-port="4" to-layer="1352" to-port="1" />
		<edge from-layer="1347" from-port="0" to-layer="1350" to-port="0" />
		<edge from-layer="1348" from-port="0" to-layer="1349" to-port="1" />
		<edge from-layer="1349" from-port="2" to-layer="1350" to-port="2" />
		<edge from-layer="1350" from-port="4" to-layer="1352" to-port="2" />
		<edge from-layer="1351" from-port="0" to-layer="1352" to-port="3" />
		<edge from-layer="1352" from-port="4" to-layer="1353" to-port="0" />
		<edge from-layer="1354" from-port="0" to-layer="1365" to-port="0" />
		<edge from-layer="1355" from-port="0" to-layer="1365" to-port="1" />
		<edge from-layer="1355" from-port="0" to-layer="1369" to-port="1" />
		<edge from-layer="1356" from-port="1" to-layer="1359" to-port="0" />
		<edge from-layer="1357" from-port="0" to-layer="1359" to-port="1" />
		<edge from-layer="1358" from-port="0" to-layer="1359" to-port="2" />
		<edge from-layer="1359" from-port="3" to-layer="1361" to-port="0" />
		<edge from-layer="1360" from-port="0" to-layer="1361" to-port="1" />
		<edge from-layer="1361" from-port="2" to-layer="1363" to-port="0" />
		<edge from-layer="1362" from-port="0" to-layer="1363" to-port="1" />
		<edge from-layer="1363" from-port="2" to-layer="1365" to-port="2" />
		<edge from-layer="1363" from-port="2" to-layer="1368" to-port="0" />
		<edge from-layer="1364" from-port="0" to-layer="1369" to-port="3" />
		<edge from-layer="1364" from-port="0" to-layer="1365" to-port="3" />
		<edge from-layer="1365" from-port="4" to-layer="1371" to-port="1" />
		<edge from-layer="1366" from-port="0" to-layer="1369" to-port="0" />
		<edge from-layer="1367" from-port="0" to-layer="1368" to-port="1" />
		<edge from-layer="1368" from-port="2" to-layer="1369" to-port="2" />
		<edge from-layer="1369" from-port="4" to-layer="1371" to-port="2" />
		<edge from-layer="1370" from-port="0" to-layer="1371" to-port="3" />
		<edge from-layer="1371" from-port="4" to-layer="1372" to-port="0" />
		<edge from-layer="1373" from-port="0" to-layer="1384" to-port="0" />
		<edge from-layer="1374" from-port="0" to-layer="1388" to-port="1" />
		<edge from-layer="1374" from-port="0" to-layer="1384" to-port="1" />
		<edge from-layer="1375" from-port="1" to-layer="1378" to-port="0" />
		<edge from-layer="1376" from-port="0" to-layer="1378" to-port="1" />
		<edge from-layer="1377" from-port="0" to-layer="1378" to-port="2" />
		<edge from-layer="1378" from-port="3" to-layer="1380" to-port="0" />
		<edge from-layer="1379" from-port="0" to-layer="1380" to-port="1" />
		<edge from-layer="1380" from-port="2" to-layer="1382" to-port="0" />
		<edge from-layer="1381" from-port="0" to-layer="1382" to-port="1" />
		<edge from-layer="1382" from-port="2" to-layer="1384" to-port="2" />
		<edge from-layer="1382" from-port="2" to-layer="1387" to-port="0" />
		<edge from-layer="1383" from-port="0" to-layer="1388" to-port="3" />
		<edge from-layer="1383" from-port="0" to-layer="1384" to-port="3" />
		<edge from-layer="1384" from-port="4" to-layer="1390" to-port="1" />
		<edge from-layer="1385" from-port="0" to-layer="1388" to-port="0" />
		<edge from-layer="1386" from-port="0" to-layer="1387" to-port="1" />
		<edge from-layer="1387" from-port="2" to-layer="1388" to-port="2" />
		<edge from-layer="1388" from-port="4" to-layer="1390" to-port="2" />
		<edge from-layer="1389" from-port="0" to-layer="1390" to-port="3" />
		<edge from-layer="1390" from-port="4" to-layer="1391" to-port="0" />
		<edge from-layer="1392" from-port="0" to-layer="1403" to-port="0" />
		<edge from-layer="1393" from-port="0" to-layer="1403" to-port="1" />
		<edge from-layer="1393" from-port="0" to-layer="1407" to-port="1" />
		<edge from-layer="1394" from-port="1" to-layer="1397" to-port="0" />
		<edge from-layer="1395" from-port="0" to-layer="1397" to-port="1" />
		<edge from-layer="1396" from-port="0" to-layer="1397" to-port="2" />
		<edge from-layer="1397" from-port="3" to-layer="1399" to-port="0" />
		<edge from-layer="1398" from-port="0" to-layer="1399" to-port="1" />
		<edge from-layer="1399" from-port="2" to-layer="1401" to-port="0" />
		<edge from-layer="1400" from-port="0" to-layer="1401" to-port="1" />
		<edge from-layer="1401" from-port="2" to-layer="1403" to-port="2" />
		<edge from-layer="1401" from-port="2" to-layer="1406" to-port="0" />
		<edge from-layer="1402" from-port="0" to-layer="1403" to-port="3" />
		<edge from-layer="1402" from-port="0" to-layer="1407" to-port="3" />
		<edge from-layer="1403" from-port="4" to-layer="1409" to-port="1" />
		<edge from-layer="1404" from-port="0" to-layer="1407" to-port="0" />
		<edge from-layer="1405" from-port="0" to-layer="1406" to-port="1" />
		<edge from-layer="1406" from-port="2" to-layer="1407" to-port="2" />
		<edge from-layer="1407" from-port="4" to-layer="1409" to-port="2" />
		<edge from-layer="1408" from-port="0" to-layer="1409" to-port="3" />
		<edge from-layer="1409" from-port="4" to-layer="1410" to-port="0" />
		<edge from-layer="1411" from-port="0" to-layer="1422" to-port="0" />
		<edge from-layer="1412" from-port="0" to-layer="1426" to-port="1" />
		<edge from-layer="1412" from-port="0" to-layer="1422" to-port="1" />
		<edge from-layer="1413" from-port="1" to-layer="1416" to-port="0" />
		<edge from-layer="1414" from-port="0" to-layer="1416" to-port="1" />
		<edge from-layer="1415" from-port="0" to-layer="1416" to-port="2" />
		<edge from-layer="1416" from-port="3" to-layer="1418" to-port="0" />
		<edge from-layer="1417" from-port="0" to-layer="1418" to-port="1" />
		<edge from-layer="1418" from-port="2" to-layer="1420" to-port="0" />
		<edge from-layer="1419" from-port="0" to-layer="1420" to-port="1" />
		<edge from-layer="1420" from-port="2" to-layer="1425" to-port="0" />
		<edge from-layer="1420" from-port="2" to-layer="1422" to-port="2" />
		<edge from-layer="1421" from-port="0" to-layer="1426" to-port="3" />
		<edge from-layer="1421" from-port="0" to-layer="1422" to-port="3" />
		<edge from-layer="1422" from-port="4" to-layer="1428" to-port="1" />
		<edge from-layer="1423" from-port="0" to-layer="1426" to-port="0" />
		<edge from-layer="1424" from-port="0" to-layer="1425" to-port="1" />
		<edge from-layer="1425" from-port="2" to-layer="1426" to-port="2" />
		<edge from-layer="1426" from-port="4" to-layer="1428" to-port="2" />
		<edge from-layer="1427" from-port="0" to-layer="1428" to-port="3" />
		<edge from-layer="1428" from-port="4" to-layer="1429" to-port="0" />
		<edge from-layer="1430" from-port="0" to-layer="1441" to-port="0" />
		<edge from-layer="1431" from-port="0" to-layer="1441" to-port="1" />
		<edge from-layer="1431" from-port="0" to-layer="1445" to-port="1" />
		<edge from-layer="1432" from-port="1" to-layer="1435" to-port="0" />
		<edge from-layer="1433" from-port="0" to-layer="1435" to-port="1" />
		<edge from-layer="1434" from-port="0" to-layer="1435" to-port="2" />
		<edge from-layer="1435" from-port="3" to-layer="1437" to-port="0" />
		<edge from-layer="1436" from-port="0" to-layer="1437" to-port="1" />
		<edge from-layer="1437" from-port="2" to-layer="1439" to-port="0" />
		<edge from-layer="1438" from-port="0" to-layer="1439" to-port="1" />
		<edge from-layer="1439" from-port="2" to-layer="1441" to-port="2" />
		<edge from-layer="1439" from-port="2" to-layer="1444" to-port="0" />
		<edge from-layer="1440" from-port="0" to-layer="1445" to-port="3" />
		<edge from-layer="1440" from-port="0" to-layer="1441" to-port="3" />
		<edge from-layer="1441" from-port="4" to-layer="1447" to-port="1" />
		<edge from-layer="1442" from-port="0" to-layer="1445" to-port="0" />
		<edge from-layer="1443" from-port="0" to-layer="1444" to-port="1" />
		<edge from-layer="1444" from-port="2" to-layer="1445" to-port="2" />
		<edge from-layer="1445" from-port="4" to-layer="1447" to-port="2" />
		<edge from-layer="1446" from-port="0" to-layer="1447" to-port="3" />
		<edge from-layer="1447" from-port="4" to-layer="1448" to-port="0" />
		<edge from-layer="1449" from-port="0" to-layer="1460" to-port="0" />
		<edge from-layer="1450" from-port="0" to-layer="1464" to-port="1" />
		<edge from-layer="1450" from-port="0" to-layer="1460" to-port="1" />
		<edge from-layer="1451" from-port="1" to-layer="1454" to-port="0" />
		<edge from-layer="1452" from-port="0" to-layer="1454" to-port="1" />
		<edge from-layer="1453" from-port="0" to-layer="1454" to-port="2" />
		<edge from-layer="1454" from-port="3" to-layer="1456" to-port="0" />
		<edge from-layer="1455" from-port="0" to-layer="1456" to-port="1" />
		<edge from-layer="1456" from-port="2" to-layer="1458" to-port="0" />
		<edge from-layer="1457" from-port="0" to-layer="1458" to-port="1" />
		<edge from-layer="1458" from-port="2" to-layer="1460" to-port="2" />
		<edge from-layer="1458" from-port="2" to-layer="1463" to-port="0" />
		<edge from-layer="1459" from-port="0" to-layer="1464" to-port="3" />
		<edge from-layer="1459" from-port="0" to-layer="1460" to-port="3" />
		<edge from-layer="1460" from-port="4" to-layer="1466" to-port="1" />
		<edge from-layer="1461" from-port="0" to-layer="1464" to-port="0" />
		<edge from-layer="1462" from-port="0" to-layer="1463" to-port="1" />
		<edge from-layer="1463" from-port="2" to-layer="1464" to-port="2" />
		<edge from-layer="1464" from-port="4" to-layer="1466" to-port="2" />
		<edge from-layer="1465" from-port="0" to-layer="1466" to-port="3" />
		<edge from-layer="1466" from-port="4" to-layer="1467" to-port="0" />
		<edge from-layer="1468" from-port="0" to-layer="1479" to-port="0" />
		<edge from-layer="1469" from-port="0" to-layer="1479" to-port="1" />
		<edge from-layer="1469" from-port="0" to-layer="1483" to-port="1" />
		<edge from-layer="1470" from-port="1" to-layer="1473" to-port="0" />
		<edge from-layer="1471" from-port="0" to-layer="1473" to-port="1" />
		<edge from-layer="1472" from-port="0" to-layer="1473" to-port="2" />
		<edge from-layer="1473" from-port="3" to-layer="1475" to-port="0" />
		<edge from-layer="1474" from-port="0" to-layer="1475" to-port="1" />
		<edge from-layer="1475" from-port="2" to-layer="1477" to-port="0" />
		<edge from-layer="1476" from-port="0" to-layer="1477" to-port="1" />
		<edge from-layer="1477" from-port="2" to-layer="1479" to-port="2" />
		<edge from-layer="1477" from-port="2" to-layer="1482" to-port="0" />
		<edge from-layer="1478" from-port="0" to-layer="1479" to-port="3" />
		<edge from-layer="1478" from-port="0" to-layer="1483" to-port="3" />
		<edge from-layer="1479" from-port="4" to-layer="1485" to-port="1" />
		<edge from-layer="1480" from-port="0" to-layer="1483" to-port="0" />
		<edge from-layer="1481" from-port="0" to-layer="1482" to-port="1" />
		<edge from-layer="1482" from-port="2" to-layer="1483" to-port="2" />
		<edge from-layer="1483" from-port="4" to-layer="1485" to-port="2" />
		<edge from-layer="1484" from-port="0" to-layer="1485" to-port="3" />
		<edge from-layer="1485" from-port="4" to-layer="1486" to-port="0" />
		<edge from-layer="1487" from-port="0" to-layer="1498" to-port="0" />
		<edge from-layer="1488" from-port="0" to-layer="1498" to-port="1" />
		<edge from-layer="1488" from-port="0" to-layer="1502" to-port="1" />
		<edge from-layer="1489" from-port="1" to-layer="1492" to-port="0" />
		<edge from-layer="1490" from-port="0" to-layer="1492" to-port="1" />
		<edge from-layer="1491" from-port="0" to-layer="1492" to-port="2" />
		<edge from-layer="1492" from-port="3" to-layer="1494" to-port="0" />
		<edge from-layer="1493" from-port="0" to-layer="1494" to-port="1" />
		<edge from-layer="1494" from-port="2" to-layer="1496" to-port="0" />
		<edge from-layer="1495" from-port="0" to-layer="1496" to-port="1" />
		<edge from-layer="1496" from-port="2" to-layer="1498" to-port="2" />
		<edge from-layer="1496" from-port="2" to-layer="1501" to-port="0" />
		<edge from-layer="1497" from-port="0" to-layer="1502" to-port="3" />
		<edge from-layer="1497" from-port="0" to-layer="1498" to-port="3" />
		<edge from-layer="1498" from-port="4" to-layer="1504" to-port="1" />
		<edge from-layer="1499" from-port="0" to-layer="1502" to-port="0" />
		<edge from-layer="1500" from-port="0" to-layer="1501" to-port="1" />
		<edge from-layer="1501" from-port="2" to-layer="1502" to-port="2" />
		<edge from-layer="1502" from-port="4" to-layer="1504" to-port="2" />
		<edge from-layer="1503" from-port="0" to-layer="1504" to-port="3" />
		<edge from-layer="1504" from-port="4" to-layer="1505" to-port="0" />
		<edge from-layer="1506" from-port="0" to-layer="1507" to-port="0" />
		<edge from-layer="1509" from-port="0" to-layer="1511" to-port="1" />
		<edge from-layer="1510" from-port="0" to-layer="1511" to-port="2" />
		<edge from-layer="1511" from-port="3" to-layer="1512" to-port="1" />
		<edge from-layer="1512" from-port="2" to-layer="1513" to-port="0" />
	</edges>
	<rt_info>
		<MO_version value="custom_HEAD_f6ee6e92f846a8c665e4a7089c51481f9689a3b5" />
		<Runtime_version value="2023.0.0-10521-f6ee6e92f84-HEAD" />
		<conversion_parameters>
			<framework value="onnx" />
			<input value="input,inp_state_000,inp_state_001,inp_state_002,inp_state_003,inp_state_004,inp_state_005,inp_state_006,inp_state_007,inp_state_008,inp_state_009,inp_state_010,inp_state_011,inp_state_012,inp_state_013,inp_state_014,inp_state_015,inp_state_016,inp_state_017,inp_state_018,inp_state_019,inp_state_020,inp_state_021,inp_state_022,inp_state_023,inp_state_024,inp_state_025,inp_state_026,inp_state_027,inp_state_028,inp_state_029,inp_state_030,inp_state_031,inp_state_032,inp_state_033,inp_state_034,inp_state_035,inp_state_036,inp_state_037,inp_state_038" />
			<input_model value="DIR/model.onnx" />
			<input_shape value="[1,128],[1,128],[1,2,129,2],[1,18,129,2],[1,34,129,2],[1,50,129,2],[1,32,129,1],[1,32,64,4],[1,48,64,4],[1,64,64,4],[1,80,64,4],[1,64,64,1],[1,64,32,8],[1,96,32,8],[1,128,32,8],[1,128,32,1],[1,128,16,16],[1,192,16,16],[1,256,16,1],[1,256,8,32],[1,384,8,32],[1,512,16,16],[1,256,16,16],[1,384,16,16],[1,256,32,8],[1,128,32,8],[1,192,32,8],[1,256,32,8],[1,128,64,4],[1,64,64,4],[1,96,64,4],[1,128,64,4],[1,160,64,4],[1,64,129,2],[1,32,129,2],[1,48,129,2],[1,64,129,2],[1,80,129,2],[1,2,129,2],[1,1,128]" />
			<layout value="input(nc),inp_state_000(nc),inp_state_001(nchw),inp_state_002(nchw),inp_state_003(nchw),inp_state_004(nchw),inp_state_005(nchw),inp_state_006(nchw),inp_state_007(nchw),inp_state_008(nchw),inp_state_009(nchw),inp_state_010(nchw),inp_state_011(nchw),inp_state_012(nchw),inp_state_013(nchw),inp_state_014(nchw),inp_state_015(nchw),inp_state_016(nchw),inp_state_017(nchw),inp_state_018(nchw),inp_state_019(nchw),inp_state_020(nchw),inp_state_021(nchw),inp_state_022(nchw),inp_state_023(nchw),inp_state_024(nchw),inp_state_025(nchw),inp_state_026(nchw),inp_state_027(nchw),inp_state_028(nchw),inp_state_029(nchw),inp_state_030(nchw),inp_state_031(nchw),inp_state_032(nchw),inp_state_033(nchw),inp_state_034(nchw),inp_state_035(nchw),inp_state_036(nchw),inp_state_037(nchw),inp_state_038(nhw)" />
			<model_name value="noise-suppression-denseunet-ll-0001" />
			<output value="output,Y,delay,out_state_000,out_state_001,out_state_002,out_state_003,out_state_004,out_state_005,out_state_006,out_state_007,out_state_008,out_state_009,out_state_010,out_state_011,out_state_012,out_state_013,out_state_014,out_state_015,out_state_016,out_state_017,out_state_018,out_state_019,out_state_020,out_state_021,out_state_022,out_state_023,out_state_024,out_state_025,out_state_026,out_state_027,out_state_028,out_state_029,out_state_030,out_state_031,out_state_032,out_state_033,out_state_034,out_state_035,out_state_036,out_state_037,out_state_038" />
			<output_dir value="DIR" />
		</conversion_parameters>
		<legacy_frontend value="False" />
	</rt_info>
</net>
